results/13bus/pinn_model0.pth (torch, 435653 bytes, 6 tensors)

model.0.weight f4 [256, 82]
00000000: 31e9 ac3d bdb7 bb3d 90ef d3bc b1c1 cf3d
00000010: 9036 c6bc 0c8d b63c cb37 5cbd 73d2 843d
00000020: 815f c73d 8ceb a5bd a794 c43d 8c50 a93c
00000030: 8117 a73d 3809 753c 621b 5a3d 5875 7fbc
00000040: b158 ae3d 54b7 853c 202a 53bd 5498 e63c
00000050: 6467 50bd d82e 54bc 74b7 37bd cd07 963d
00000060: e686 b2bd 1687 50bd a473 ffbc 6efc 87bd
00000070: b0c4 2a3c 9360 dfbd 2540 cc3d 731e c0bd
00000080: c99a ae3d 4c8d 963c 70df 12bd 05c2 8b3d
00000090: bcfd 8c3c 67bb b63d 10cb 453c e8a6 0ebd
000000a0: ec10 f33c e852 f5bc 8e5d 3e3d 8dec c93d
000000b0: 73bc 823d c4be 45bd 6d8e 823d d4dd a13c
000000c0: 32b5 653d 14d9 89bd a5e1 dfbd f2c2 2ebd
000000d0: 0879 adbd 7f93 b93d d648 023d 365c 3b3d
000000e0: ba0d 0f3d 40cc fbba 65ff b03d 44b1 a0bd
000000f0: 80d7 e33b a95d 9abd e279 0b3d 0ac6 1bbd
00000100: ba99 0a3d 287a bcbc 1194 bb3d 360c 86bd
00000110: 35e2 86bd 4ae4 86bd df6b cb3d 1abd 163d
00000120: 51a0 d93d c8a5 babd 9253 e0bd 3df1 b0bd
00000130: 4e23 98bd f635 373d b2f7 213d cdec bb3d
00000140: ea97 69bd b32d 9abd befe 6f3d 34d5 36bd
00000150: a143 893d dcac d6bc 4560 813d d6b8 afbd
00000160: 5944 64bd 6ee7 093d 3c40 bf3c 54a6 e6bc
00000170: 2fcf 863d 8bbf 993d 0802 a4bd b97b 71bd
00000180: ed16 cf3d 48a1 18bd 865b 20bd b9d5 dabd
00000190: 6b84 81bd 74fc e13c 10d1 6ebc 4b2b a4bd
000001a0: 00c3 293b 007d 9abd 68e0 bfbd 7314 79bd
000001b0: f7f0 c5bd d001 90bd 4713 e23d dcdd aa3c
000001c0: 9e63 0b3d 7df0 d2bd d889 94bd 528f 16bd
000001d0: 4476 8d3c 9e01 c7bd 50e5 42bd ab65 87bd
000001e0: 0073 a039 0250 28bd 50c1 fabb 5b41 99bd
000001f0: dc3c 9bbd c1f1 83bd a0d4 1abd ba81 b2bd
00000200: aba1 bd3d a08a b3bc 2f97 c23d eaef 0c3d
00000210: ca83 bfbd 6783 9c3d 40e9 f8bc 9263 2dbd
00000220: 5cbb bbbd d7d7 e0bd 6e6a 013d c89d c5bc
00000230: 021a 303d b69a b9bd 1be9 a73d 3004 a6bd
00000240: b835 9cbc 7cf4 bc3c d283 693d 9995 b63d
00000250: a706 ce3d 8c54 b3bd 0cac e33c ce8e 42bd
00000260: e045 46bc 0648 a9bd d300 ce3d 36fe a5bd
00000270: 3ebf 713d 3ef7 1e3d 8efc 123d 968c 74bd
00000280: 6992 cd3d 5ccc c63c f0bf 683c d34e c7bd
00000290: c2e1 3d3d 88b7 87bc e438 4fbd 3943 c23d
000002a0: 14b1 c93c 1d43 7abd caf0 64bd 50cf acbb
000002b0: ea8f 7c3d 842b e7bc 1a0b 81bd 76e5 1abd
000002c0: 16f6 a8bd 8e50 213d 530f af3d 71eb d4bd
000002d0: 541b d23c 2eab 693d 640a a43c c215 21bd
000002e0: be16 6c3d 3eb4 6d3d 3a23 293d a0f7 9ebc
000002f0: c88d efbc c88f 413c a0cf 9fbc 4acb 06bd
00000300: c190 903d 735d c23d f01d 33bc a88c cabc
00000310: 4037 d33a c00f d8bb 447d d93c cc83 fd3c
00000320: 2f6a cdbd 0aed 26bd 8d75 be3d da34 303d
00000330: 40fb b3bb fe5a 88bd 3f5e 8abd 0b97 cabd
00000340: 1871 13bd bec0 183d f934 903d a2d6 503d
00000350: 87ea c7bd a401 88bd 08c5 8ebc 87c7 da3d
00000360: 7cdd 823c 7847 eabc 8222 3b3d 8048 2cbd
00000370: c262 92bd f512 a53d 94ac 4dbd 705a b5bc
00000380: 1afd e0bd 615d 973d 7959 ab3d 96d9 243d
00000390: bbb2 9dbd c635 dfbd 7aaf b7bd 7fa6 a83d
000003a0: 422a 593d 5d51 be3d f6f5 6c3d 0cf6 e43c
000003b0: 80be 8dba b9ff abbd 55c5 c1bd bf8a d3bd
000003c0: 6a2a 393d 0e14 5ebd 6c10 b6bc 9028 82bd
000003d0: 78d9 a4bc 942e 9fbd 6ac7 93bd be0a 163d
000003e0: 1c6e 06bd e39e 8b3d 541c 11bd 06e8 a5bd
000003f0: cc9d 9fbc bd43 5bbd c462 0abd 924e d7bd
0.08442915 0.09165905 -0.025871068 0.101443656 -0.02419594 0.022284053 -0.053764146 0.064854525
0.09735013 -0.081015676 0.09598666 0.02066829 0.0815878 0.014955811 0.05324877 -0.015591942
0.0851301 0.01632277 -0.051553845 0.028148808 -0.05087985 -0.012950622 -0.04485269 0.07325707
-0.08717136 -0.050910078 -0.031183071 -0.06639944 0.0104228705 -0.10907092 0.09973172 -0.09380808
0.08525617 0.018377922 -0.035857618 0.06824116 0.017210834 0.08922463 0.01207234 -0.034827143
0.029671155 -0.02994676 0.04647594 0.098595716 0.063836 -0.04827763 0.06374822 0.019759096
0.056081004 -0.067308575 -0.1093171 -0.042666383 -0.084703505 0.09061336 0.031807743 0.045742236
0.0349252 -0.0019210652 0.08642463 -0.07846311 0.00695318 -0.075373955 0.034051783 -0.03803066
0.03383801 -0.023007467 0.09159101 -0.06545298 -0.06586114 -0.065865114 0.09932684 0.036801435
0.10626281 -0.091136515 -0.1095344 -0.086397626 -0.07428609 0.044729196 0.03954286 0.091760255
-0.057029642 -0.07528248 0.05859255 -0.04463692 0.06702352 -0.026205473 0.0631719 -0.085801765
-0.055729244 0.033667974 0.023346059 -0.028155483 0.06582486 0.07507237 -0.080082 -0.05895588
0.101117946 -0.037263185 -0.039149784 -0.106852956 -0.06324085 0.0275862 -0.014576212 -0.0801607
0.0025903583 -0.07543373 -0.09368974 -0.060810518 -0.09665101 -0.07031596 0.11038833 0.020857744
0.03403055 -0.10299776 -0.07252854 -0.036757775 0.017268308 -0.09717105 -0.04758197 -0.066111885
0.0003060326 -0.041091926 -0.007652439 -0.07483169 -0.075799674 -0.06442595 -0.03780043 -0.0871615
0.09259351 -0.021916687 0.09501492 0.034408487 -0.09351309 0.076422505 -0.03038466 -0.042331286
-0.09166595 -0.10978668 0.03159564 -0.024123088 0.042993553 -0.09062712 0.08198758 -0.081062675
-0.019068584 0.023065798 0.05701048 0.08915252 0.100598626 -0.087563604 0.027792 -0.04749947
-0.01210162 -0.082656905 0.10058751 -0.081051275 0.059020273 0.038810007 0.035885386 -0.059704386
0.10037691 0.024267368 0.014205918 -0.097318314 0.046357878 -0.016567007 -0.050591365 0.09485478
0.02462057 -0.06109916 -0.055893697 -0.005273737 0.061660685 -0.028218992 -0.063009456 -0.037816487
-0.08250062 0.039383464 0.08547845 -0.103964694 0.025647797 0.057048015 0.020024486 -0.03932739
0.057638876 0.05803322 0.04129336 -0.019405186 -0.029242411 0.011814065 -0.019508183 -0.032908715
0.070588596 0.0949048 -0.010932431 -0.024725273 0.0016114488 -0.0065936744 0.02654899 0.030946635
-0.100300185 -0.0407534 0.09299765 0.043019153 -0.005492598 -0.066579804 -0.06756257 -0.098920904
-0.035996526 0.03729319 0.07041354 0.05098594 -0.097615294 -0.06640938 -0.017427936 0.10682588
0.015974753 -0.028598532 0.045687206 -0.04206133 -0.07147743 0.080602564 -0.05021341 -0.02213785
-0.10985775 0.073908575 0.08366675 0.04024657 -0.07700106 -0.10898928 -0.089690164 0.082348816
0.053018816 0.092928626 0.057851754 0.027949356 -0.001081422 -0.083983846 -0.09461466 -0.10329198
0.045206465 -0.054218344 -0.022224627 -0.06355393 -0.020123228 -0.07772556 -0.072157696 0.03663134
-0.032819852 0.068174146 -0.035427406 -0.081008956 -0.019484423 -0.053531397 -0.033785596 -0.10513033

model.0.bias f4 [256]
00000000: de7a 1abd b11c 4abd eb96 c2bd 409b 97bc
00000010: 6c21 36bd 4585 cd3d 6d97 d73d 1012 95bd
00000020: 1a9c 17bf 5485 b6bd fa90 5d3d 27e3 aa3d
00000030: d87f 80bd f0c0 9fbd 94f5 a1bc 4bd4 b63d
00000040: 4f9a 9f3d 8d6a 6cbd e0d1 aa3b dbba acbd
00000050: 0578 d33d be9d 453d f4c9 36bd 0a2b 4e3d
00000060: d876 023c 1388 86bd 2398 dabd 09d7 8a3d
00000070: d101 a9bd 9f84 953d 8215 07bd 47c9 00bf
00000080: e29a 3a3d 77ac 8c3d 6609 49bd 7ee5 5e3d
00000090: 670c 13bf 4085 f93a 73f4 19bf c0ff eb3a
000000a0: 4dcc 833d 138f 2a3f 402e 27bd 40e0 1abb
000000b0: a4df cabc 80d9 22bd 8e9e 233f 1f05 d13d
000000c0: be86 643d c847 e3bc d952 873d cb18 db3d
000000d0: ac7c ed3c 0587 c73d 7e0e 123d 4019 b5bc
000000e0: 2664 173d e4a9 d93c b5d8 213f 20a0 ddbc
000000f0: 94a6 a5bd 2c3c d1bd f2c4 91bd efb3 883d
00000100: 1ce5 d7bc da57 b7bd 7519 ac3d 92bf cfbd
00000110: c4df a13c bb17 c33d 0bfd 60bd c08e 01bb
00000120: 738d e03d 0972 c13d 7673 05bf 2878 a2bc
00000130: f998 853d 4ac1 353d 60c2 c43b 43b0 d03d
00000140: ae7e 003d 2d68 8d3d dc2e abbd a239 083d
00000150: 3551 d0bd 1276 1e3f 2c37 f33c bb27 863d
00000160: 7e95 703d c28e 49bd c37b 863d 5cae e1bd
00000170: 1738 d6be c64e 593d 5cdf 8abc 36e3 043d
00000180: c243 793d 1760 b5bd c5c8 923d 2a04 073d
00000190: a91d dc3d a06a 9f3b b8ab 343c 440a d03c
000001a0: 31ec b63d 1863 bcbd 4619 7a3d 0002 2a3f
000001b0: 68e1 11bc 1dc4 99bd 3fa1 ae3d 519f 893d
000001c0: bc9e d1bc 6435 9d3c 4c86 0abd bfd4 4bbd
000001d0: 1fa8 e03d c610 363d 6056 e63b 9ad2 c13d
000001e0: dd58 973d 9601 723d 225c 493d d728 a9bd
000001f0: fc2b 35bd f1fc bb3d 8222 11bf 948b f83c
00000200: 2947 94bd e141 58bd cccd 29bd 2837 0cbf
00000210: c8d0 35bd 47e4 ac3d 8276 a0bd bc61 9bbc
00000220: 2bff bf3d 64d4 3dbd a0c3 013b b2e7 04bd
00000230: 62a6 1f3d 6039 64bd 161a 2fbf 2e3f 2abd
00000240: 0a6d 363d f894 eabc 7070 adbd 84c7 bcbc
00000250: 455f 45bd bf05 bc3d 3c82 83bc b031 0dbf
00000260: b780 d93d a757 9ebd d07a 0cbf 4825 763c
00000270: c7a5 bf3d d8dd 18bf 0eac 043d 7966 ddbd
00000280: a1ee d83d bec8 abbd e3a2 a73d fa45 073f
00000290: 8408 c23c c06d a63a 43e8 a83d 0c94 d2bd
000002a0: e55d bd3d 2b5b db3d 8e4e 033d 7301 d13d
000002b0: c419 253e a031 b03b 6225 7f3d c0b6 f83b
000002c0: 846b dd3c 76f8 9cbd 08d6 f4bc f537 76bd
000002d0: eb23 85bd cc0f 90bd 7ace 1ebe 24ca 9d3c
000002e0: a000 59bb 5e94 4b3d 12fd 453d 300d febc
000002f0: 7f86 9f3d 6d59 9dbd 961f 80bd 25fb 403e
00000300: 46d9 593d b2e9 5a3d d5db d4bd b1db a33d
00000310: 6e32 b9bd 74d3 883c e2cb 63bd b2fc 2a3d
00000320: 4305 7cbd b6cc c1bd e0c0 cbbd dc6f adbd
00000330: fb50 24bf 8041 6d3b b0b5 1fbd 1279 16bd
00000340: 74e8 9d3c 8dc1 be3d f01d 0bbd 57fb b63d
00000350: a286 3abd 453e b43d 6d99 45bd 942b 5cbd
00000360: aedc c8bd 3866 cdbc 2005 8fbd 2346 9a3d
00000370: 1255 bebd 40a8 d1ba 305c d7bd 784d 8dbd
00000380: 78e7 7b3c 8020 89bc 2895 b1bc 5047 243c
00000390: 0277 00bd b34d c7bd 106e 8ebb cd0f 813e
000003a0: 5944 a13d abac 86bd 5e8f 9abd 5426 b7bd
000003b0: 122c 4b3d ede0 c7bd 8f2e b13d 926c 273d
000003c0: 9365 9b3d 7e7c 24bd 29b5 903d 3917 0d3f
000003d0: 6073 5ebc af24 ad3d 5780 70bd b87f dabc
000003e0: d092 4a3c 9a35 133d 80bf 7bbc 9eec b2bd
000003f0: 88a6 d6bc da8c 303d e81a b0bd c8e2 babd
-0.03771483 -0.04934377 -0.095014416 -0.018506646 -0.044465467 0.10035185 0.10526929 -0.07278836
-0.5922257 -0.08912149 0.05409334 0.08344107 -0.06274384 -0.07800472 -0.019770421 0.089272104
0.07793104 -0.057718802 0.0052130073 -0.08434077 0.10325626 0.048246138 -0.04462619 0.050334014
0.007962905 -0.06568923 -0.10673549 0.06779296 -0.082522996 0.07300686 -0.032979496 -0.50307125
0.045557864 0.068688326 -0.04908123 0.05441808 -0.574408 0.0019036904 -0.60138625 0.0018005297
0.06435452 0.66624564 -0.04081559 -0.0023632199 -0.024764843 -0.039758205 0.6391381 0.10206055
0.055792563 -0.027744189 0.06607599 0.10698088 0.028990112 0.0974255 0.035658352 -0.022106767
0.036960743 0.026570268 0.63221294 -0.027053893 -0.08088413 -0.10216555 -0.071176425 0.066749446
-0.026354365 -0.08952303 0.08403293 -0.10143961 0.01976002 0.095260106 -0.05492882 -0.0019768924
0.10964479 0.094455786 -0.52129304 -0.019832686 0.06523318 0.044373788 0.0060046166 0.10189869
0.03137081 0.069046356 -0.08358547 0.033258088 -0.10171739 0.6189891 0.029689394 0.06550547
0.058736317 -0.04920841 0.065665744 -0.110195845 -0.41839668 0.05305364 -0.01695221 0.032443248
0.060855635 -0.08856218 0.071672 0.032962956 0.10747845 0.0048650056 0.011027269 0.02539552
0.08931769 -0.09198588 0.06105926 0.664093 -0.008903839 -0.07508109 0.08526849 0.0671984
-0.025588386 0.019190498 -0.03381948 -0.049763437 0.109695666 0.04444959 0.0070293397 0.09463997
0.07389996 0.059083544 0.04916013 -0.08259743 -0.0442314 0.09179104 -0.5669328 0.030339994
-0.07240135 -0.052797202 -0.04145603 -0.5477166 -0.044388562 0.08441978 -0.078351036 -0.018967502
0.09374841 -0.04634513 0.001980044 -0.032447524 0.038977034 -0.05571878 -0.6839918 -0.04156416
0.04453758 -0.028635487 -0.084687114 -0.023044355 -0.04818656 0.091807835 -0.016053312 -0.5515394
0.106202535 -0.07731562 -0.54874897 0.015023537 0.093577914 -0.59713507 0.032390647 -0.10810561
0.1059239 -0.08387898 0.08185365 0.5284115 0.023685701 0.0012697503 0.082474254 -0.10282144
0.092464246 0.10710748 0.032057337 0.102053545 0.1612311 0.0053770095 0.06229151 0.007590145
0.027028807 -0.07664578 -0.029887214 -0.06011196 -0.065009914 -0.07034263 -0.15508452 0.019261427
-0.0033111945 0.04970204 0.04833705 -0.031012148 0.07789325 -0.07683072 -0.062560245 0.18845804
0.053185724 0.053445525 -0.10393492 0.08000887 -0.09042822 0.016702391 -0.05561436 0.041744895
-0.061528455 -0.09462874 -0.09948897 -0.08468601 -0.64186066 0.003620237 -0.03899163 -0.036736555
0.019275881 0.09314261 -0.033964097 0.08934658 -0.045538552 0.088009395 -0.04824202 -0.053752497
-0.09807716 -0.025073156 -0.069833994 0.07532909 -0.092935696 -0.0015995577 -0.1051563 -0.068995416
0.015375011 -0.01673913 -0.021677569 0.010026768 -0.031363495 -0.09731617 -0.0043466166 0.25207368
0.078743644 -0.065759026 -0.07546876 -0.089428574 0.049602576 -0.09759698 0.086514585 0.040875025
0.07587733 -0.040157788 0.070658036 0.5511356 -0.013577312 0.084542625 -0.058716144 -0.02667223
0.012364104 0.03593979 -0.015365481 -0.087365374 -0.026202455 0.043103077 -0.08598882 -0.09125286

model.2.weight f4 [256, 256]
00000000: 0fa6 1ebf 0f3d 16bf 6f0e 143f ce88 14bf
00000010: 708a 17bf 9bae 253f d648 1bbf c370 22bf
00000020: 6a20 1fbf ef0d 26bf 567e 1fbf 09a3 21bf
00000030: 44fa 0c3f 7be4 28bf 5187 27bf 76b0 12bf
00000040: a475 20bf 2d5c 0cbf d88a 20bf 50b9 203f
00000050: 9fda 0f3f cf06 293f 5c78 1d3f 11a0 17bf
00000060: a3f1 14bf 59f5 15bf 8378 133f 5490 1d3f
00000070: 4563 103f 657f 213f 2967 0abf 3534 293f
00000080: 08fc 1cbf 4adf 1cbf ccde 273f f12a 24bf
00000090: d7eb 14bf 674b 1d3f 9e56 0bbf 1f8a 133f
000000a0: 3495 263f 9de8 173f c43a 0abf 4eb9 29bf
000000b0: 6cf3 22bf 1958 163f 03f2 093f 9b49 183f
000000c0: db71 26bf c8bd 0fbf 4726 0cbf 30a6 183f
000000d0: a516 233f 45aa 213f 801b 203f 79bf 1b3f
000000e0: 0d48 0f3f 92f4 27bf 1226 203f 0fe7 0e3f
000000f0: 5d12 263f 226c 16bf 06a4 113f 8701 133f
00000100: 49d6 15bf 5757 1abf 91bb 0bbf add2 1fbf
00000110: 2e2c 23bf 5e1e 0b3f 8bbb 1c3f 2dd0 0d3f
00000120: 5b1e 183f 6078 293f 70ca 20bf ad94 0bbf
00000130: 9100 10bf 09ef 0f3f 1137 223f 7e69 133f
00000140: 561d 11bf 7364 103f a9f7 1d3f e7bd 10bf
00000150: 877e 253f 18b1 1fbf 5028 233f a04a 0ebf
00000160: b1b5 153f 6491 0ebf b357 163f b8da 22bf
00000170: 9222 14bf 793a 1e3f b234 0b3f 3558 20bf
00000180: 9bc5 153f 2537 0fbf e6d3 1abf 98fc 28bf
00000190: 7647 1c3f adfb 1d3f 115f 1c3f bca9 263f
000001a0: 1b06 0a3f a86c 1b3f 2785 22bf d595 123f
000001b0: a479 0f3f d5fa 153f 60be 28bf 67e2 0a3f
000001c0: 0cf3 0ebf 2e8c 233f 29bd 1fbf 2183 143f
000001d0: 1d0b 143f adb1 1d3f 5a62 133f 1057 203f
000001e0: f6c7 19bf c2ab 15bf dab4 113f 7cd5 113f
000001f0: b89a 203f 12f2 253f 0011 113f fa64 11bf
00000200: 8496 183f 8c84 293f d0de 123f 4926 0cbf
00000210: 312a 13bf 9816 263f 9da6 193f cfe5 0ebf
00000220: 88e8 193f 0680 19bf ef8f 1cbf 0a29 15bf
00000230: 6251 0abf cf8d 263f 0ff2 103f 1712 133f
00000240: 1273 223f d4d3 1fbf 0b9f 143f 9726 1d3f
00000250: 6394 103f 4352 25bf 4c9a 263f 7137 28bf
00000260: 7665 23bf b5f7 203f 1b10 1cbf 00b7 11bf
00000270: 908e 173f 33c5 193f 89a6 163f 4837 15bf
00000280: 2a4a 15bf 29e2 1bbf 3990 243f e0a5 23bf
00000290: c4bf 1dbf 8386 18bf 44b0 213f d452 1fbf
000002a0: 265e 1a3f 280d 0b3f 6d7e 213f b123 10bf
000002b0: e673 0c3f ab88 0c3f 1c96 1a3f f1c3 0bbf
000002c0: 93d1 13bf 8090 0dbf c5a1 0c3f c447 0ebf
000002d0: fbe6 0abf 6a8c 26bf 7b66 1d3f 0fd6 1cbf
000002e0: 15ee 09bf 4edc 21bf d4d6 28bf 40d0 26bf
000002f0: 8e1e 253f 3657 15bf 92df 0a3f b9e1 0c3f
00000300: 1a46 223f 0f8b 113f 48d2 0e3f 638f 20bf
00000310: 19fc 1fbf 0e8e 23bf 27bc 20bf 31ed 1b3f
00000320: e179 16bf cc3e 273f d38a 0a3f e7d9 153f
00000330: b679 1ebf 3d7d 22bf f520 1f3f 9873 21bf
00000340: 8010 143f 8d27 26bf a879 133f 68f4 18bf
00000350: 81e1 103f 42aa 163f 002a 23bf 9cb5 1c3f
00000360: a26b 1f3f 622c 103f cc6a 20bf 5e63 173f
00000370: 1b49 113f 67bf 123f a780 213f 4f6e 1cbf
00000380: 4081 13bf 23e4 193f df13 19bf f57c 0e3f
00000390: b296 18bf 73d8 283f 859c 283f ae8c 0ebf
000003a0: 87b4 143f 2ca7 193f db3e 283f 4462 1dbf
000003b0: c3e0 15bf c459 18bf d27c 0fbf 8983 21bf
000003c0: 54ac 16bf 3b8e 0b3f dae9 153f 188a 12bf
000003d0: 8b16 18bf f7e9 0abf dc53 0e3f 029a 12bf
000003e0: c5f4 183f 43b2 283f 4fdc 0bbf 11e4 273f
000003f0: 3650 24bf a9d0 09bf b2cd 23bf 973b 21bf
-0.61972135 -0.5868692 0.57834524 -0.5802125 -0.59195614 0.6471955 -0.60658014 -0.6345331
-0.62158835 -0.6486501 -0.6230215 -0.63139397 0.55069375 -0.65973634 -0.6544085 -0.5730051
-0.62679505 -0.5482815 -0.6271186 0.62782764 0.56192964 0.66026014 0.6151178 -0.59228617
-0.5818121 -0.58577496 0.5760576 0.6154835 0.56401473 0.63085014 -0.5406366 0.66095287
-0.6132207 -0.6127821 0.65574336 -0.64128023 -0.58172363 0.6144318 -0.5442904 0.5763263
0.65071416 0.59339315 -0.5399592 -0.6629838 -0.6365268 0.58728176 0.53884906 0.59487313
-0.6501748 -0.5614896 -0.54745907 0.5962858 0.6370643 0.63150436 0.6254196 0.6083904
0.55969316 -0.6560756 0.6255809 0.5582132 0.6487177 -0.5875875 0.56890905 0.57424206
-0.585301 -0.6028952 -0.5458308 -0.6243084 -0.6373929 0.5434321 0.6122367 0.55395776
0.5942132 0.661993 -0.62808895 -0.54523736 -0.56250864 0.56224114 0.63365275 0.57582843
-0.5668539 0.56403273 0.61706024 -0.5653977 0.6464619 -0.623796 0.63733387 -0.5558262
0.58480364 -0.556906 0.5872757 -0.6361499 -0.5786525 0.6180797 0.5437728 -0.62634593
0.58504647 -0.5594352 -0.6047958 -0.6601043 0.6104654 0.6171215 0.6108256 0.65102744
0.53915566 0.6071267 -0.63484424 0.57259876 0.56044984 0.58585864 -0.6591549 0.5425171
-0.5583961 0.6388577 -0.6239801 0.58012587 0.5782946 0.61599237 0.5757195 0.62632847
-0.6007074 -0.58465207 0.5691658 0.56966376 0.6273608 0.64822495 0.56666565 -0.56794703
0.5960467 0.66217875 0.57371235 -0.5474592 -0.57486254 0.64878225 0.60019857 -0.5581941
0.6012044 -0.59960973 -0.61157125 -0.58265746 -0.5403043 0.6506013 0.5661935 0.5744948
0.63456833 -0.624326 0.5805518 0.6138701 0.5647642 -0.64578646 0.6507919 -0.65709597
-0.6382669 0.6287797 -0.60962075 -0.5691986 0.5920191 0.6006653 0.5884786 -0.5828748
-0.5831629 -0.6089197 0.64282566 -0.6392498 -0.61620736 -0.5958025 0.63159585 -0.6223576
0.6029991 0.5431695 0.63083535 -0.5630446 0.54864347 0.5489604 0.603853 -0.5459586
-0.5774166 -0.55298615 0.5493434 -0.55578256 -0.542587 -0.65058005 0.614845 -0.6126413
-0.5387891 -0.63226783 -0.659528 -0.65161514 0.6449975 -0.583362 0.5424739 0.55031925
0.63388216 0.5685281 0.55789614 -0.6271879 -0.62494045 -0.63888633 -0.627871 0.609088
-0.5877972 0.65330195 0.5411808 0.5853562 -0.61904466 -0.6347235 0.62159663 -0.6306701
0.57837677 -0.649041 0.5760751 -0.59747934 0.5659409 0.5885354 -0.6373596 0.61214614
0.6227361 0.5631772 -0.6266296 0.59136 0.56752175 0.57323307 0.6308693 -0.6110582
-0.57619095 0.60113734 -0.59795946 0.5565942 -0.5960494 0.65955275 0.6586383 -0.5568341
0.5808796 0.6002071 0.6572091 -0.61478066 -0.58546084 -0.5951197 -0.56049836 -0.6309133
-0.588567 0.545139 0.58559954 -0.57241964 -0.594094 -0.5426325 0.5559671 -0.5726625
0.5974849 0.65897006 -0.5463304 0.65582377 -0.6418489 -0.53834015 -0.6398574 -0.6298155

model.2.bias f4 [256]
00000000: 8dd6 22bf 6919 19bf 5296 1bbf e322 27bf
00000010: b594 223f 0704 143f 58d3 1f3f a80e 0e3f
00000020: a5ea 143f aff2 1abf abaa 1a3f 9087 203f
00000030: 2f71 243f 1cf7 1dbf d19e 0f3f a609 0ebf
00000040: 5ebb 1bbf 02d1 133f aee4 0b3f 60d3 253f
00000050: b61d 1b3f 9423 1bbf cb84 233f f27b 1d3f
00000060: 5362 0dbf d9a1 133f 6937 243f 7553 15bf
00000070: a55b 23bf 9d35 1abf 365b 293f 4733 23bf
00000080: c27a 123f ed03 28bf d623 0bbf 8e97 0e3f
00000090: 61b4 1abf 5ab1 17bf 337a 0e3f 2670 0c3f
000000a0: cbaf 1dbf 77fc 0a3f 554e 26bf 43e8 1fbf
000000b0: 4f9d 0b3f 8741 1b3f 106b 25bf b66e 213f
000000c0: be56 213f 627d 143f 087b 15bf c229 123f
000000d0: dc43 21bf b48e 21bf bace 243f 33af 23bf
000000e0: dcae 193f e54d 0fbf 7b87 1fbf 8335 103f
000000f0: f622 0bbf 42a2 27bf 0dc2 1fbf 7b41 1d3f
00000100: a4f3 09bf 89bb 18bf 804f 0cbf 96c4 23bf
00000110: f99c 25bf 5237 0ebf 9e80 1e3f 084a 1fbf
00000120: e81b 1b3f 2fb9 1bbf 6ade 0dbf e655 173f
00000130: d7fb 103f 250f 1dbf 62d0 113f a184 11bf
00000140: 85c0 103f 7a94 0d3f db26 203f 050a 243f
00000150: dec3 183f 43a1 253f d5d5 233f 6d8c 1ebf
00000160: d9d4 0cbf b2f6 15bf a5b0 103f e50c 0a3f
00000170: fad9 233f 0c8e 133f 0794 27bf 149b 0dbf
00000180: a50b 0a3f 48b4 133f df56 223f b313 13bf
00000190: 32f8 10bf 3156 263f 1a0d 193f bff8 223f
000001a0: 8aac 1bbf bcea 163f bf5c 1cbf fb3b 12bf
000001b0: ba99 26bf 6d78 1e3f 5a5e 0e3f 5095 263f
000001c0: ec74 223f 1a3b 0b3f 3407 1a3f 9ac7 1c3f
000001d0: 48bb 233f 8879 143f 8b38 25bf f225 243f
000001e0: fb02 103f 9554 273f 28e3 173f 46c4 193f
000001f0: 68a5 213f 5dd4 193f ef72 22bf 2cd3 12bf
00000200: 62e0 21bf 51b2 133f 5eb0 273f 6ebf 20bf
00000210: 372c 0c3f 9e54 223f 491f 0e3f 93be 16bf
00000220: 12c2 22bf fac8 0c3f bb63 21bf 56f7 10bf
00000230: 03f6 23bf 4d73 1d3f c6f3 15bf 30ed 1bbf
00000240: c324 1e3f 04fc 12bf d9c5 183f e7b5 1cbf
00000250: dab1 243f e332 1f3f 9e9e 1b3f f9d6 14bf
00000260: ec1f 21bf a113 1dbf a543 293f 18c9 143f
00000270: f2c9 243f 3701 0bbf 1098 143f 7c7c 183f
00000280: 973d 203f 59e3 1bbf b3dc 1abf ad70 11bf
00000290: 5ce5 223f 4d3f 26bf 3947 12bf 23ec 143f
000002a0: 44fc 25bf b48d 15bf 269c 0ebf 0e62 1a3f
000002b0: a67f 1bbf 5368 233f 63c1 233f 6832 163f
000002c0: 3d82 1c3f 821e 173f b3ac 19bf a300 29bf
000002d0: f3f9 24bf c2cf 1abf 2c0d 273f 361f 1a3f
000002e0: a743 0ebf 443d 143f 5f14 293f 537b 10bf
000002f0: 15eb 0f3f bc49 17bf 4730 0fbf 0bdc 263f
00000300: bf79 283f 804e 0bbf e940 1b3f 4d6f 0abf
00000310: 8d7c 20bf c658 0b3f b727 0fbf 26c1 1abf
00000320: 3ba6 193f f25f 1fbf 4df6 0c3f 6630 29bf
00000330: dbe8 1a3f 4ec1 0a3f 314f 223f 11f3 10bf
00000340: b73a 253f 6510 253f a681 16bf eff2 233f
00000350: 211e 0c3f d365 203f 01eb 1abf 5a26 16bf
00000360: 5277 1b3f 097f 28bf b721 0bbf 2daf 0c3f
00000370: 4b9b 15bf a07c 173f f653 273f 0057 203f
00000380: 2833 1c3f 4c02 12bf be10 253f 43b8 223f
00000390: 1529 273f a8ce 223f c08e 133f 0b65 0dbf
000003a0: 1648 1a3f cc6f 18bf f970 163f 615c 293f
000003b0: 1e52 28bf 1a42 253f 3931 0a3f d127 26bf
000003c0: 1390 13bf e80f 1bbf fc58 133f 6d35 18bf
000003d0: b953 1a3f 7b23 113f 065c 293f f6de 1fbf
000003e0: f85a 133f 7e28 1b3f 48cf 22bf 6950 243f
000003f0: 991f 243f d352 26bf 535a 0d3f d86b 11bf
-0.6360863 -0.598044 -0.60776246 -0.6528761 0.6350816 0.57818645 0.6243186 0.55491114
0.5817054 -0.60526556 0.6041667 0.6270685 0.64235204 -0.61705184 0.5610171 -0.5548347
-0.60832775 0.57740796 0.5464581 0.6477566 0.6059221 -0.6060116 0.638745 0.6151725
-0.55228156 0.57668835 0.6414705 -0.5833047 -0.63811713 -0.6023806 0.661548 -0.6375012
0.57218564 -0.6563099 -0.54351556 0.55700004 -0.60431486 -0.5925499 0.5565521 0.54858625
-0.61596364 0.5429148 -0.64963275 -0.6246378 0.5453691 0.6064686 -0.6461649 0.63059556
0.63022983 0.5800382 -0.58390856 0.5709497 -0.6299417 -0.6310837 0.6437794 -0.6393921
0.6003244 -0.5597823 -0.623161 0.5633165 -0.5435022 -0.6548196 -0.62405473 0.6142804
-0.5388739 -0.59661156 -0.5480881 -0.6397184 -0.64692646 -0.5555316 0.61915004 -0.6222234
0.60589457 -0.6082944 -0.554175 0.59115446 0.5663428 -0.61351234 0.5695859 -0.56843
0.5654376 0.5530468 0.6255929 0.6407779 0.5967387 0.6469919 0.63998157 -0.6193302
-0.5501228 -0.5857955 0.5651954 0.53925925 0.6400448 0.5763862 -0.65460247 -0.55314755
0.5392402 0.5769696 0.63413805 -0.57451934 -0.56628716 0.6497527 0.59785616 0.63660806
-0.6081015 0.58951926 -0.6107902 -0.5712277 -0.6507832 0.61902505 0.5561272 0.6507158
0.6345966 0.54387057 0.6016724 0.6124207 0.63957644 0.5799794 -0.645394 0.641204
0.5625455 0.65363437 0.5933099 0.60065114 0.63143015 0.60089666 -0.63456625 -0.5735347
-0.63233006 0.57693964 0.6550349 -0.627921 0.54754966 0.63410366 0.5551649 -0.58884543
-0.6357738 0.54994166 -0.630428 -0.56627405 -0.6404726 0.6150406 -0.58575094 -0.60908794
0.61774844 -0.57415795 0.5967689 -0.6121506 0.6433388 0.6218702 0.60788906 -0.5814052
-0.62939334 -0.61358076 0.6611884 0.58119345 0.64370644 -0.5429873 0.5804453 0.5956495
0.6259398 -0.6089378 -0.6049301 -0.56812555 0.63631225 -0.6494034 -0.5713993 0.58172816
-0.6483805 -0.58419347 -0.55707014 0.6030587 -0.6074165 0.6383106 0.6396696 0.58670664
0.6113623 0.59030926 -0.60029143 -0.66016597 -0.6444389 -0.60473263 0.65254474 0.60203874
-0.5557198 0.57905984 0.6604671 -0.5643818 0.5621808 -0.59096885 -0.5593304 0.6517951
0.6581077 -0.54416656 0.6064592 -0.5407608 -0.6269005 0.5443233 -0.55919975 -0.6045097
0.6001927 -0.62255776 0.55063325 -0.66089475 0.6051156 0.5420121 0.63402086 -0.5662089
0.64542717 0.6447814 -0.5879158 0.6404256 0.54733473 0.6265537 -0.6051484 -0.5865227
0.60728943 -0.6581884 -0.5434832 0.549548 -0.58440083 0.5917454 0.6536249 0.6263275
0.6101556 -0.57034755 0.6447867 0.6356241 0.6529706 0.6359658 0.57639694 -0.55232304
0.60266244 -0.5954559 0.5876613 0.66156584 -0.657503 0.6455399 0.5398136 -0.64904505
-0.57641715 -0.60571146 0.57557654 -0.5945652 0.60284 0.56694764 0.6615604 -0.62449586
0.5756068 0.6060866 -0.63597536 0.64185196 0.64110714 -0.6497013 0.5521595 -0.5680518

model.4.weight f4 [82, 256]
00000000: 39a5 5fc3 f754 5fc3 19b4 5fc3 19e4 5fc3
00000010: 1a97 5f43 469a 5f43 d7a9 5f43 67f3 5f43
00000020: 7fe8 5f43 1bfc 5fc3 e97e 5f43 f5fb 5f43
00000030: e8d5 5f43 2ce2 5fc3 b68f 5f43 12aa 5fc3
00000040: a4d8 5fc3 31fa 5f43 e8f0 5f43 b5b4 5f43
00000050: 0fe4 5f43 db8d 5fc3 f98f 5f43 1edc 5f43
00000060: 2df7 5fc3 28fc 5f43 1898 5f43 d7b1 5fc3
00000070: 3cfc 5fc3 af84 5fc3 7fe0 5f43 67ee 5fc3
00000080: 3f97 5f43 60ea 5fc3 87ba 5fc3 a5f7 5f43
00000090: 77e9 5fc3 b0fd 5fc3 b3e7 5f43 0ee7 5f43
000000a0: 6df7 5fc3 ee7f 5f43 28ae 5fc3 bdf1 5fc3
000000b0: 7751 5f43 9e6e 5f43 34f6 5fc3 51ec 5f43
000000c0: a183 5f43 5d35 5f43 58b4 5fc3 8096 5f43
000000d0: 9576 5fc3 6876 5fc3 f5db 5f43 72f0 5fc3
000000e0: f698 5f43 9554 5fc3 07ad 5fc3 0476 5f43
000000f0: c9e7 5fc3 11be 5fc3 8be3 5fc3 76aa 5f43
00000100: a9e2 5fc3 ec90 5fc3 615d 5fc3 8eab 5fc3
00000110: 3598 5fc3 0c89 5fc3 bde9 5f43 a4e8 5fc3
00000120: 02f2 5f43 f3bb 5fc3 01e9 5fc3 c783 5f43
00000130: e39f 5f43 84bc 5fc3 ef77 5f43 436d 5fc3
00000140: 74b0 5f43 77ec 5f43 bbdf 5f43 9292 5f43
00000150: dee9 5f43 b9f9 5f43 6433 5f43 b6ee 5fc3
00000160: 80a7 5fc3 6deb 5fc3 a8ef 5f43 89a1 5f43
00000170: 269b 5f43 8bf9 5f43 a8fb 5fc3 52f1 5fc3
00000180: 91e4 5f43 949a 5f43 cc91 5f43 cc7e 5fc3
00000190: 34d7 5fc3 ab9c 5f43 c5e4 5f43 bcf0 5f43
000001a0: 0774 5fc3 aff2 5f43 956c 5fc3 6ceb 5fc3
000001b0: a2b6 5fc3 4eaa 5f43 e4f6 5f43 7fde 5f43
000001c0: 627c 5f43 5ba7 5f43 69f3 5f43 3ef0 5f43
000001d0: 40f1 5f43 b37a 5f43 228c 5fc3 8fee 5f43
000001e0: aed3 5f43 edf3 5f43 6cfb 5f43 3058 5f43
000001f0: 4785 5f43 d746 5f43 3af8 5fc3 deee 5fc3
00000200: f0fa 5fc3 8d50 5f43 2694 5f43 3470 5fc3
00000210: 1d82 5f43 959a 5f43 78e9 5f43 21f8 5fc3
00000220: 74df 5fc3 6f92 5f43 79f7 5fc3 52e8 5fc3
00000230: 05e9 5fc3 00fd 5f43 e046 5fc3 3aef 5fc3
00000240: 6a80 5f43 0ddf 5fc3 6bf6 5f43 2ca3 5fc3
00000250: 6b91 5f43 c7df 5f43 b7ab 5f43 98e7 5fc3
00000260: 15b2 5fc3 fded 5fc3 a49b 5f43 7995 5f43
00000270: 74f4 5f43 6838 5fc3 0297 5f43 99ec 5f43
00000280: 0bf0 5f43 838d 5fc3 5a4d 5fc3 1ff3 5fc3
00000290: 0bf1 5f43 277d 5fc3 99a1 5fc3 67de 5f43
000002a0: 8cc0 5fc3 fea1 5fc3 358c 5fc3 1e91 5f43
000002b0: 8498 5fc3 86a5 5f43 cee4 5f43 84ef 5f43
000002c0: cf9f 5f43 ea9e 5f43 3bf6 5fc3 b8d4 5fc3
000002d0: 63f2 5fc3 c5d1 5fc3 9bdf 5f43 1dec 5f43
000002e0: 4ba0 5fc3 fff0 5f43 2085 5f43 7c73 5fc3
000002f0: 4d9d 5f43 25f7 5fc3 5b92 5fc3 9f93 5f43
00000300: d3e7 5f43 21e8 5fc3 2de9 5f43 c3e2 5fc3
00000310: 0df5 5fc3 41ef 5f43 3fc0 5fc3 3ae1 5fc3
00000320: 3435 5f43 5bf7 5fc3 e187 5f43 b1aa 5fc3
00000330: 09b8 5f43 ecf3 5f43 2cb9 5f43 94c5 5fc3
00000340: 2db2 5f43 ef95 5f43 eeee 5fc3 eaf1 5f43
00000350: aba7 5f43 b9f1 5f43 6ead 5fc3 d5f8 5fc3
00000360: efb1 5f43 00e7 5fc3 93ab 5fc3 d0cd 5f43
00000370: 579f 5fc3 2dfb 5f43 6dfa 5f43 f7f9 5f43
00000380: d4f5 5f43 1feb 5fc3 2795 5f43 00f3 5f43
00000390: 31f9 5f43 8f62 5f43 b6a4 5f43 19ac 5fc3
000003a0: 1099 5f43 4fef 5fc3 28de 5f43 45e7 5f43
000003b0: c3ac 5fc3 0bdd 5f43 4984 5f43 67e7 5fc3
000003c0: 7dec 5fc3 c5bb 5fc3 82f0 5f43 f890 5fc3
000003d0: 5eab 5f43 0bb6 5f43 76f9 5f43 88b5 5fc3
000003e0: d5a0 5f43 9180 5f43 6095 5fc3 c094 5f43
000003f0: 5dfd 5f43 4eec 5fc3 e2b3 5f43 18ed 5fc3
-223.6454 -223.3319 -223.7035 -223.891 223.59024 223.60263 223.66344 223.95079
223.90819 -223.98479 223.49574 223.9842 223.83557 -223.88348 223.56137 -223.66434
-223.84625 223.97731 223.94104 223.70589 223.89085 -223.55412 223.5624 223.85983
-223.96553 223.98499 223.59412 -223.69469 -223.98529 -223.5183 223.87694 -223.93126
223.5908 -223.91553 -223.72862 223.96736 -223.91197 -223.99097 223.90508 223.90256
-223.9665 223.49973 -223.6803 -223.94429 223.31822 223.4321 -223.96173 223.92311
223.51418 223.20845 -223.70447 223.58789 -223.46321 -223.46252 223.8592 -223.93924
223.5975 -223.3304 -223.67589 223.461 -223.90541 -223.74245 -223.88884 223.66586
-223.88539 -223.5661 -223.36476 -223.67014 -223.59456 -223.53534 223.91304 -223.90875
223.94534 -223.73418 -223.91017 223.51476 223.62456 -223.73639 223.46849 -223.4268
223.68927 223.92369 223.87395 223.57254 223.91354 223.97548 223.20074 -223.93246
-223.6543 -223.91963 223.93616 223.631 223.60605 223.97478 -223.98303 -223.94266
223.89284 223.60382 223.56952 -223.4953 -223.84064 223.61198 223.89363 223.94037
-223.45323 223.94798 -223.42415 -223.91962 -223.71341 223.66525 223.96442 223.86913
223.48587 223.65373 223.95082 223.93845 223.94238 223.4793 -223.5474 223.93187
223.82687 223.95284 223.98212 223.34448 223.52061 223.27672 -223.96964 -223.93307
-223.98022 223.31465 223.5787 -223.4383 223.50826 223.60384 223.91199 -223.96925
-223.87286 223.572 -223.96669 -223.9075 -223.91023 223.98828 -223.27686 -223.93448
223.50162 -223.87129 223.96257 -223.63739 223.56804 223.87413 223.67076 -223.90466
-223.69563 -223.92964 223.60797 223.58388 223.9549 -223.22034 223.58987 223.92421
223.93767 -223.55278 -223.30215 -223.94969 223.94157 -223.48888 -223.63124 223.86876
-223.75214 -223.63278 -223.54768 223.56686 -223.59576 223.64658 223.89377 223.93561
223.62425 223.62076 -223.96184 -223.83093 -223.94682 -223.81941 223.87346 223.92232
-223.62614 223.94139 223.52002 -223.45111 223.61446 -223.96541 -223.5717 223.57664
223.90556 -223.90675 223.91084 -223.88579 -223.95723 223.93459 -223.75096 -223.87979
223.20782 -223.96623 223.53078 -223.66676 223.71889 223.95282 223.72333 -223.77179
223.696 223.58568 -223.93332 223.94498 223.65495 223.94423 -223.67746 -223.972
223.69505 -223.90234 -223.67021 223.80396 -223.62242 223.98116 223.97823 223.97643
223.96027 -223.91844 223.58263 223.94922 223.9734 223.385 223.6434 -223.67226
223.5979 -223.9348 223.8678 223.9034 -223.67485 223.86345 223.51674 -223.90392
-223.92378 -223.73347 223.93948 -223.56628 223.6694 223.7111 223.97446 -223.7091
223.62825 223.50221 -223.5835 223.58105 223.9897 -223.92307 223.70267 -223.92615

model.4.bias f4 [82]
00000000: 49b0 5f43 551d aebe 5fb2 5fc3 fa71 1741
00000010: fec9 99c0 64a5 9bc0 e835 2141 167c 9fc0
00000020: 8997 a5c0 bf71 1a41 3bfb a7c0 33b6 92c0
00000030: afa8 a43f 35d2 56bf 7621 4fbf 72aa 1a41
00000040: f2fc a8c0 1a1b 91c0 1226 1941 ca9f aac0
00000050: a860 8dc0 ed82 1441 24d1 abc0 d794 86c0
00000060: 4625 1541 c459 abc0 ae5a 86c0 a269 91c0
00000070: 4dc0 a5c0 4b8e 90c0 b70d a8c0 d463 1441
00000080: 4434 abc0 b6de 86c0 41cc 1241 8161 acc0
00000090: 83a0 85c0 a626 1541 7714 83c0 9d6e 85c0
000000a0: 2657 1341 e419 0143 4e2e 81c3 b633 0143
000000b0: 76bf 24be 119e 03c1 a1bc 0341 d4d1 28be
000000c0: 4b73 0ac1 8cd0 0c41 0dd0 35bf 97ee 04c1
000000d0: d02c 0741 fc9c e4be f232 9abf 57fe 9b3f
000000e0: 9f02 39bf 8015 06c1 b2f5 0741 7812 57bf
000000f0: fbf4 06c1 7013 0641 2989 89bf 419f 05c1
00000100: 15f6 0441 a656 89bf bebb 06c1 8ddf 0541
00000110: 0848 0841 3899 04c1 4a14 0841 b69b 03c1
00000120: c7f5 87bf 2b18 07c1 7ae0 0441 f5c7 8bbf
00000130: 6665 07c1 367d 0441 ad52 86bf 8511 0541
00000140: 6104 0441 b265 93bf
223.68861 -0.34006754 -223.69676 9.465326 -4.8059072 -4.8639393 10.075661 -4.983897
-5.174748 9.65277 -5.249418 -4.584741 1.2863978 -0.839145 -0.8091043 9.666613
-5.280877 -4.5345583 9.5717945 -5.3320055 -4.418049 9.281964 -5.36928 -4.205669
9.3216 -5.3547077 -4.1985693 -4.5441446 -5.179724 -4.5173697 -5.251674 9.274372
-5.35013 -4.2146864 9.174867 -5.3869023 -4.1758437 9.321936 -4.096248 -4.1697526
9.208776 129.10114 -258.36176 129.202 -0.16088662 -8.22609 8.233552 -0.16486293
-8.653148 8.800915 -0.71020585 -8.308249 8.448441 -0.4465102 -1.2046797 1.2186993
-0.72269624 -8.380249 8.497484 -0.84012556 -8.43481 8.3797455 -1.0744983 -8.35138
8.310079 -1.0729568 -8.4208355 8.367078 8.517586 -8.287407 8.504953 -8.225515
-1.062188 -8.4434 8.304804 -1.0920397 -8.4622555 8.280569 -1.0493981 8.316777
8.251069 -1.151541
