results_ann/13Bus/pinn_model0.01.pth (torch, 435689 bytes, 6 tensors)

model.0.weight f4 [256, 82]
0	0x3dace931	0.08442915
1	0x3dbbb7bd	0.09165905
2	0xbcd3ef90	-0.025871068
3	0x3dcfc1b1	0.101443656
4	0xbcc63690	-0.02419594
5	0x3cb68d0c	0.022284053
6	0xbd5c37cb	-0.053764146
7	0x3d84d273	0.064854525
8	0x3dc75f81	0.09735013
9	0xbda5eb8c	-0.081015676
10	0x3dc494a7	0.09598666
11	0x3ca9508c	0.02066829
12	0x3da71781	0.0815878
13	0x3c750938	0.014955811
14	0x3d5a1b62	0.05324877
15	0xbc7f7558	-0.015591942
16	0x3dae58b1	0.0851301
17	0x3c85b754	0.01632277
18	0xbd532a20	-0.051553845
19	0x3ce69854	0.028148808
20	0xbd506764	-0.05087985
21	0xbc542ed8	-0.012950622
22	0xbd37b774	-0.04485269
23	0x3d9607cd	0.07325707
24	0xbdb286e6	-0.08717136
25	0xbd508716	-0.050910078
26	0xbcff73a4	-0.031183071
27	0xbd87fc6e	-0.06639944
28	0x3c2ac4b0	0.0104228705
29	0xbddf6093	-0.10907092
30	0x3dcc4025	0.09973172
31	0xbdc01e73	-0.09380808
32	0x3dae9ac9	0.08525617
33	0x3c968d4c	0.018377922
34	0xbd12df70	-0.035857618
35	0x3d8bc205	0.06824116
36	0x3c8cfdbc	0.017210834
37	0x3db6bb67	0.08922463
38	0x3c45cb10	0.01207234
39	0xbd0ea6e8	-0.034827143
40	0x3cf310ec	0.029671155
41	0xbcf552e8	-0.02994676
42	0x3d3e5d8e	0.04647594
43	0x3dc9ec8d	0.098595716
44	0x3d82bc73	0.063836
45	0xbd45bec4	-0.04827763
46	0x3d828e6d	0.06374822
47	0x3ca1ddd4	0.019759096
48	0x3d65b532	0.056081004
49	0xbd89d914	-0.067308575
50	0xbddfe1a5	-0.1093171
51	0xbd2ec2f2	-0.042666383
52	0xbdad7908	-0.084703505
53	0x3db9937f	0.09061336
54	0x3d0248d6	0.031807743
55	0x3d3b5c36	0.045742236
56	0x3d0f0dba	0.0349252
57	0xbafbcc40	-0.0019210652
58	0x3db0ff65	0.08642463
59	0xbda0b144	-0.07846311
60	0x3be3d780	0.00695318
61	0xbd9a5da9	-0.075373955
62	0x3d0b79e2	0.034051783
63	0xbd1bc60a	-0.03803066
64	0x3d0a99ba	0.03383801
65	0xbcbc7a28	-0.023007467
66	0x3dbb9411	0.09159101
67	0xbd860c36	-0.06545298
68	0xbd86e235	-0.06586114
69	0xbd86e44a	-0.065865114
70	0x3dcb6bdf	0.09932684
71	0x3d16bd1a	0.036801435
72	0x3dd9a051	0.10626281
73	0xbdbaa5c8	-0.091136515
74	0xbde05392	-0.1095344
75	0xbdb0f13d	-0.086397626
76	0xbd98234e	-0.07428609
77	0x3d3735f6	0.044729196
78	0x3d21f7b2	0.03954286
79	0x3dbbeccd	0.091760255
80	0xbd6997ea	-0.057029642
81	0xbd9a2db3	-0.07528248
82	0x3d6ffebe	0.05859255
83	0xbd36d534	-0.04463692
84	0x3d8943a1	0.06702352
85	0xbcd6acdc	-0.026205473
86	0x3d816045	0.0631719
87	0xbdafb8d6	-0.085801765
88	0xbd644459	-0.055729244
89	0x3d09e76e	0.033667974
90	0x3cbf403c	0.023346059
91	0xbce6a654	-0.028155483
92	0x3d86cf2f	0.06582486
93	0x3d99bf8b	0.07507237
94	0xbda40208	-0.080082
95	0xbd717bb9	-0.05895588
96	0x3dcf16ed	0.101117946
97	0xbd18a148	-0.037263185
98	0xbd205b86	-0.039149784
99	0xbddad5b9	-0.106852956
100	0xbd81846b	-0.06324085
101	0x3ce1fc74	0.0275862
102	0xbc6ed110	-0.014576212
103	0xbda42b4b	-0.0801607
104	0x3b29c300	0.0025903583
105	0xbd9a7d00	-0.07543373
106	0xbdbfe068	-0.09368974
107	0xbd791473	-0.060810518
108	0xbdc5f0f7	-0.09665101
109	0xbd9001d0	-0.07031596
110	0x3de21347	0.11038833
111	0x3caadddc	0.020857744
112	0x3d0b639e	0.03403055
113	0xbdd2f07d	-0.10299776
114	0xbd9489d8	-0.07252854
115	0xbd168f52	-0.036757775
116	0x3c8d7644	0.017268308
117	0xbdc7019e	-0.09717105
118	0xbd42e550	-0.04758197
119	0xbd8765ab	-0.066111885
120	0x39a07300	0.0003060326
121	0xbd285002	-0.041091926
122	0xbbfac150	-0.007652439
123	0xbd99415b	-0.07483169
124	0xbd9b3cdc	-0.075799674
125	0xbd83f1c1	-0.06442595
126	0xbd1ad4a0	-0.03780043
127	0xbdb281ba	-0.0871615
128	0x3dbda1ab	0.09259351
129	0xbcb38aa0	-0.021916687
130	0x3dc2972f	0.09501492
131	0x3d0cefea	0.034408487
132	0xbdbf83ca	-0.09351309
133	0x3d9c8367	0.076422505
134	0xbcf8e940	-0.03038466
135	0xbd2d6392	-0.042331286
136	0xbdbbbb5c	-0.09166595
137	0xbde0d7d7	-0.10978668
138	0x3d016a6e	0.03159564
139	0xbcc59dc8	-0.024123088
140	0x3d301a02	0.042993553
141	0xbdb99ab6	-0.09062712
142	0x3da7e91b	0.08198758
143	0xbda60430	-0.081062675
144	0xbc9c35b8	-0.019068584
145	0x3cbcf47c	0.023065798
146	0x3d6983d2	0.05701048
147	0x3db69599	0.08915252
148	0x3dce06a7	0.100598626
149	0xbdb3548c	-0.087563604
150	0x3ce3ac0c	0.027792
151	0xbd428ece	-0.04749947
152	0xbc4645e0	-0.01210162
153	0xbda94806	-0.082656905
154	0x3dce00d3	0.10058751
155	0xbda5fe36	-0.081051275
156	0x3d71bf3e	0.059020273
157	0x3d1ef73e	0.038810007
158	0x3d12fc8e	0.035885386
159	0xbd748c96	-0.059704386
160	0x3dcd9269	0.10037691
161	0x3cc6cc5c	0.024267368
162	0x3c68bff0	0.014205918
163	0xbdc74ed3	-0.097318314
164	0x3d3de1c2	0.046357878
165	0xbc87b788	-0.016567007
166	0xbd4f38e4	-0.050591365
167	0x3dc24339	0.09485478
168	0x3cc9b114	0.02462057
169	0xbd7a431d	-0.06109916
170	0xbd64f0ca	-0.055893697
171	0xbbaccf50	-0.005273737
172	0x3d7c8fea	0.061660685
173	0xbce72b84	-0.028218992
174	0xbd810b1a	-0.063009456
175	0xbd1ae576	-0.037816487
176	0xbda8f616	-0.08250062
177	0x3d21508e	0.039383464
178	0x3daf0f53	0.08547845
179	0xbdd4eb71	-0.103964694
180	0x3cd21b54	0.025647797
181	0x3d69ab2e	0.057048015
182	0x3ca40a64	0.020024486
183	0xbd2115c2	-0.03932739
184	0x3d6c16be	0.057638876
185	0x3d6db43e	0.05803322
186	0x3d29233a	0.04129336
187	0xbc9ef7a0	-0.019405186
188	0xbcef8dc8	-0.029242411
189	0x3c418fc8	0.011814065
190	0xbc9fcfa0	-0.019508183
191	0xbd06cb4a	-0.032908715
192	0x3d9090c1	0.070588596
193	0x3dc25d73	0.0949048
194	0xbc331df0	-0.010932431
195	0xbcca8ca8	-0.024725273
196	0x3ad33740	0.0016114488
197	0xbbd80fc0	-0.0065936744
198	0x3cd97d44	0.02654899
199	0x3cfd83cc	0.030946635
200	0xbdcd6a2f	-0.100300185
201	0xbd26ed0a	-0.0407534
202	0x3dbe758d	0.09299765
203	0x3d3034da	0.043019153
204	0xbbb3fb40	-0.005492598
205	0xbd885afe	-0.066579804
206	0xbd8a5e3f	-0.06756257
207	0xbdca970b	-0.098920904
208	0xbd137118	-0.035996526
209	0x3d18c0be	0.03729319
210	0x3d9034f9	0.07041354
211	0x3d50d6a2	0.05098594
212	0xbdc7ea87	-0.097615294
213	0xbd8801a4	-0.06640938
214	0xbc8ec508	-0.017427936
215	0x3ddac787	0.10682588
216	0x3c82dd7c	0.015974753
217	0xbcea4778	-0.028598532
218	0x3d3b2282	0.045687206
219	0xbd2c4880	-0.04206133
220	0xbd9262c2	-0.07147743
221	0x3da512f5	0.080602564
222	0xbd4dac94	-0.05021341
223	0xbcb55a70	-0.02213785
224	0xbde0fd1a	-0.10985775
225	0x3d975d61	0.073908575
226	0x3dab5979	0.08366675
227	0x3d24d996	0.04024657
228	0xbd9db2bb	-0.07700106
229	0xbddf35c6	-0.10898928
230	0xbdb7af7a	-0.089690164
231	0x3da8a67f	0.082348816
232	0x3d592a42	0.053018816
233	0x3dbe515d	0.092928626
234	0x3d6cf5f6	0.057851754
235	0x3ce4f60c	0.027949356
236	0xba8dbe80	-0.001081422
237	0xbdabffb9	-0.083983846
238	0xbdc1c555	-0.09461466
239	0xbdd38abf	-0.10329198
240	0x3d392a6a	0.045206465
241	0xbd5e140e	-0.054218344
242	0xbcb6106c	-0.022224627
243	0xbd822890	-0.06355393
244	0xbca4d978	-0.020123228
245	0xbd9f2e94	-0.07772556
246	0xbd93c76a	-0.072157696
247	0x3d160abe	0.03663134
248	0xbd066e1c	-0.032819852
249	0x3d8b9ee3	0.068174146
250	0xbd111c54	-0.035427406
251	0xbda5e806	-0.081008956
252	0xbc9f9dcc	-0.019484423
253	0xbd5b43bd	-0.053531397
254	0xbd0a62c4	-0.033785596
255	0xbdd74e92	-0.10513033

model.0.bias f4 [256]
0	0xbd1a7ade	-0.03771483
1	0xbd4a1cb1	-0.04934377
2	0xbdc296eb	-0.095014416
3	0xbc979b40	-0.018506646
4	0xbd36216c	-0.044465467
5	0x3dcd8545	0.10035185
6	0x3dd7976d	0.10526929
7	0xbd951210	-0.07278836
8	0xbf17a616	-0.592378
9	0xbdb68554	-0.08912149
10	0x3d5d90fa	0.05409334
11	0x3daae327	0.08344107
12	0xbd807fd8	-0.06274384
13	0xbd9fc0f0	-0.07800472
14	0xbca1f594	-0.019770421
15	0x3db6d44b	0.089272104
16	0x3d9f9a4f	0.07793104
17	0xbd6c6a8d	-0.057718802
18	0x3baad1e0	0.0052130073
19	0xbdacbadb	-0.08434077
20	0x3dd37805	0.10325626
21	0x3d459dbe	0.048246138
22	0xbd36c9f4	-0.04462619
23	0x3d4e2b0a	0.050334014
24	0x3c0276d8	0.007962905
25	0xbd868813	-0.06568923
26	0xbdda9823	-0.10673549
27	0x3d8ad709	0.06779296
28	0xbda901d1	-0.082522996
29	0x3d95849f	0.07300686
30	0xbd071582	-0.032979496
31	0xbf09936a	-0.5374056
32	0x3d3a9ae2	0.045557864
33	0x3d8cac77	0.068688326
34	0xbd490966	-0.04908123
35	0x3d5ee57e	0.05441808
36	0xbf1308ed	-0.57435495
37	0x3af98540	0.0019036904
38	0xbf19f4aa	-0.6013895
39	0x3aebffc0	0.0018005297
40	0x3d83cc4d	0.06435452
41	0x3f2a8f71	0.66625124
42	0xbd272e40	-0.04081559
43	0xbb1ae040	-0.0023632199
44	0xbccadfa4	-0.024764843
45	0xbd22d980	-0.039758205
46	0x3f26263b	0.64902085
47	0x3dd1051f	0.10206055
48	0x3d6486be	0.055792563
49	0xbce347c8	-0.027744189
50	0x3f28f2b2	0.65995324
51	0x3ddb18cb	0.10698088
52	0x3ced7cac	0.028990112
53	0x3dc78705	0.0974255
54	0x3d120e7e	0.035658352
55	0xbcb51940	-0.022106767
56	0x3d176426	0.036960743
57	0x3cd9a9e4	0.026570268
58	0x3f220b74	0.63298726
59	0xbcdda020	-0.027053893
60	0xbda5a694	-0.08088413
61	0xbdd13c2c	-0.10216555
62	0xbd91c4f2	-0.071176425
63	0x3d88b3ef	0.066749446
64	0xbcd7e51c	-0.026354365
65	0xbdb757da	-0.08952303
66	0x3dac1975	0.08403293
67	0xbdcfbf92	-0.10143961
68	0x3ca1dfc4	0.01976002
69	0x3dc317bb	0.095260106
70	0xbd60fd0b	-0.05492882
71	0xbb018ec0	-0.0019768924
72	0x3de08d73	0.10964479
73	0x3dc17209	0.094455786
74	0xbf057892	-0.521371
75	0xbca27828	-0.019832686
76	0x3d8598f9	0.06523318
77	0x3d35c14a	0.044373788
78	0x3bc4c260	0.0060046166
79	0x3dd0b043	0.10189869
80	0x3d007eae	0.03137081
81	0x3d8d682d	0.069046356
82	0xbdab2edc	-0.08358547
83	0x3d0839a2	0.033258088
84	0xbdd05135	-0.10171739
85	0x3f1e76e7	0.6190018
86	0x3cf3372c	0.029689394
87	0x3d8627bb	0.06550547
88	0x3d70957e	0.058736317
89	0xbd498ec2	-0.04920841
90	0x3d867bc3	0.065665744
91	0xbde1ae5c	-0.110195845
92	0xbf022c4e	-0.50848854
93	0x3d594ec6	0.05305364
94	0xbc8adf5c	-0.01695221
95	0x3d04e336	0.032443248
96	0x3d7943c2	0.060855635
97	0xbdb56017	-0.08856218
98	0x3d92c8c5	0.071672
99	0x3d07042a	0.032962956
100	0x3ddc1da9	0.10747845
101	0x3b9f6aa0	0.0048650056
102	0x3c34abb8	0.011027269
103	0x3cd00a44	0.02539552
104	0x3db6ec31	0.08931769
105	0xbdbc6318	-0.09198588
106	0xbf09fb85	-0.53899413
107	0x3d9d68dd	0.07686017
108	0xbc11e168	-0.008903839
109	0xbd99c41d	-0.07508109
110	0x3daea13f	0.08526849
111	0x3d899f51	0.0671984
112	0xbcd19ebc	-0.025588386
113	0x3c9d3564	0.019190498
114	0xbd0a864c	-0.03381948
115	0xbd4bd4bf	-0.049763437
116	0x3de0a81f	0.109695666
117	0x3d3610c6	0.04444959
118	0x3be65660	0.0070293397
119	0x3f2bb621	0.6707478
120	0x3d9758dd	0.07389996
121	0x3d720196	0.059083544
122	0x3d495c22	0.04916013
123	0xbda928d7	-0.08259743
124	0xbd352bfc	-0.0442314
125	0x3dbbfcf1	0.09179104
126	0xbf10c64b	-0.5655257
127	0x3cf88b94	0.030339994
128	0x3e9bf18f	0.30457732
129	0xbd5841e1	-0.052797202
130	0xbd29cdcc	-0.04145603
131	0xbf0c4621	-0.5479451
132	0xbd35d0c8	-0.044388562
133	0x3dace447	0.08441978
134	0xbda07682	-0.078351036
135	0xbc9b61bc	-0.018967502
136	0x3dbfff2b	0.09374841
137	0x3ed08ed5	0.40733972
138	0x3b01c3a0	0.001980044
139	0xbd04e7b2	-0.032447524
140	0x3d1fa662	0.038977034
141	0xbd643960	-0.05571878
142	0xbf2f1a19	-0.68399197
143	0xbd2a3f2e	-0.04156416
144	0x3d366d0a	0.04453758
145	0xbcea94f8	-0.028635487
146	0xbdad7070	-0.084687114
147	0xbcbcc784	-0.023044355
148	0xbd455f45	-0.04818656
149	0x3dbc05bf	0.091807835
150	0xbc83823c	-0.016053312
151	0xbf0d3200	-0.5515442
152	0x3dd980b7	0.106202535
153	0xbf2d880d	-0.6778572
154	0xbf0ebe91	-0.5575953
155	0x3c762548	0.015023537
156	0x3dbfa5c7	0.093577914
157	0xbf18ddd6	-0.59713495
158	0x3d04ac0e	0.032390647
159	0xbddd6679	-0.10810561
160	0x3dd8eea1	0.1059239
161	0xbdabc8be	-0.08387898
162	0x3da7a2e3	0.08185365
163	0x3f0743be	0.5283774
164	0x3cc20884	0.023685701
165	0x3aa66dc0	0.0012697503
166	0x3da8e843	0.082474254
167	0xbdd2940c	-0.10282144
168	0x3dbd5de5	0.092464246
169	0x3ddb5b2b	0.10710748
170	0x3d034e8e	0.032057337
171	0x3dd10173	0.102053545
172	0x3f309444	0.68976235
173	0x3bb031a0	0.0053770095
174	0x3d7f2562	0.06229151
175	0x3bf8b6c0	0.007590145
176	0x3cdd6b84	0.027028807
177	0xbd9cf876	-0.07664578
178	0xbcf4d608	-0.029887214
179	0xbd7637f5	-0.06011196
180	0xbd8523eb	-0.065009914
181	0xbd900fcc	-0.07034263
182	0xbf25cc0d	-0.6476448
183	0x3c9dca24	0.019261427
184	0xbb5900a0	-0.0033111945
185	0x3d4b945e	0.04970204
186	0x3d45fd12	0.04833705
187	0xbcfe0d30	-0.031012148
188	0x3d9f867f	0.07789325
189	0xbd9d596d	-0.07683072
190	0xbd801f96	-0.062560245
191	0x3ddaf0ab	0.10690435
192	0x3d59d946	0.053185724
193	0x3d5ae9b2	0.053445525
194	0x3efe42a1	0.4966021
195	0x3da3dbb1	0.08000887
196	0xbdb9326e	-0.09042822
197	0x3c88d374	0.016702391
198	0xbd63cbe2	-0.05561436
199	0x3d2afcb2	0.041744895
200	0xbd7c0543	-0.061528455
201	0xbdc1ccb6	-0.09462874
202	0xbdcbc0e0	-0.09948897
203	0xbdad6fdc	-0.08468601
204	0xbf244b8f	-0.64177793
205	0x3b6d4180	0.003620237
206	0xbd1fb5b0	-0.03899163
207	0xbd167912	-0.036736555
208	0x3c9de874	0.019275881
209	0x3dbec18d	0.09314261
210	0xbd0b1df0	-0.033964097
211	0x3db6fb57	0.08934658
212	0xbd3a86a2	-0.045538552
213	0x3db43e45	0.088009395
214	0xbd45996d	-0.04824202
215	0xbd5c2b94	-0.053752497
216	0xbf217a26	-0.6307701
217	0xbccd6638	-0.025073156
218	0xbd8f0520	-0.069833994
219	0x3d9a4623	0.07532909
220	0xbdbe5512	-0.092935696
221	0xbad1a840	-0.0015995577
222	0xbdd75c30	-0.1051563
223	0xbd8d4d78	-0.068995416
224	0x3c7be778	0.015375011
225	0xbc892080	-0.01673913
226	0xbcb19528	-0.021677569
227	0x3c244750	0.010026768
228	0xbd007702	-0.031363495
229	0xbdc74db3	-0.09731617
230	0xbb8e6e10	-0.0043466166
231	0x3f21a4a3	0.6314184
232	0x3da14459	0.078743644
233	0xbd86acab	-0.065759026
234	0xbd9a8f5e	-0.07546876
235	0xbdb72654	-0.089428574
236	0x3d4b2c12	0.049602576
237	0xbdc7e0ed	-0.09759698
238	0x3db12e8f	0.086514585
239	0x3d276c92	0.040875025
240	0x3d9b6593	0.07587733
241	0xbd247c7e	-0.040157788
242	0x3d90b529	0.070658036
243	0x3f03d4ee	0.5149678
244	0xbc5e7360	-0.013577312
245	0x3dad24af	0.084542625
246	0xbd708057	-0.058716144
247	0xbcda7fb8	-0.02667223
248	0x3c4a92d0	0.012364104
249	0x3d13359a	0.03593979
250	0xbc7bbf80	-0.015365481
251	0xbdb2ec9e	-0.087365374
252	0xbcd6a688	-0.026202455
253	0x3d308cda	0.043103077
254	0xbdb01ae8	-0.08598882
255	0xbdbae2c8	-0.09125286

model.2.weight f4 [256, 256]
0	0xbf1ea610	-0.6197214
1	0xbf163d10	-0.58686924
2	0x3f140e70	0.5783453
3	0xbf1488cf	-0.58021253
4	0xbf178a71	-0.5919562
5	0x3f25ae9c	0.6471956
6	0xbf1b48d7	-0.6065802
7	0xbf2270c3	-0.6345331
8	0xbf1f2068	-0.62158823
9	0xbf260df0	-0.64865017
10	0xbf1f7e57	-0.62302154
11	0xbf21a30b	-0.6313941
12	0x3f0cfa46	0.55069387
13	0xbf28e47c	-0.6597364
14	0xbf278752	-0.6544086
15	0xbf12b077	-0.57300514
16	0xbf2075a5	-0.6267951
17	0xbf0c5c2e	-0.54828155
18	0xbf208ad9	-0.62711865
19	0x3f20b952	0.62782776
20	0x3f0fdaa1	0.56192976
21	0x3f2906d0	0.6602602
22	0x3f1d785d	0.61511785
23	0xbf17a012	-0.5922862
24	0xbf14f1a4	-0.58181214
25	0xbf15f55b	-0.5857751
26	0x3f137884	0.5760577
27	0x3f1d9055	0.6154836
28	0x3f106347	0.56401485
29	0x3f217f66	0.6308502
30	0xbf0a672b	-0.5406367
31	0x3f293437	0.660953
32	0xbf1cfc09	-0.61322075
33	0xbf1cdf4b	-0.6127822
34	0x3f27decd	0.6557434
35	0xbf242af2	-0.6412803
36	0xbf14ebd8	-0.5817237
37	0x3f1d4b68	0.61443186
38	0xbf0b569f	-0.5442905
39	0x3f138a20	0.5763264
40	0x3f269535	0.6507142
41	0x3f17e89b	0.593393
42	0xbf0a3ac6	-0.5399593
43	0xbf29b94f	-0.66298383
44	0xbf22f36d	-0.6365269
45	0x3f16581b	0.5872819
46	0x3f09f205	0.5388492
47	0x3f18499c	0.5948732
48	0xbf2671db	-0.6501748
49	0xbf0fbdca	-0.5614897
50	0xbf0c2646	-0.547459
51	0x3f18a631	0.5962859
52	0x3f2316a6	0.63706434
53	0x3f21aa46	0.6315044
54	0x3f201b81	0.6254197
55	0x3f1bbf7b	0.6083905
56	0x3f0f480f	0.5596933
57	0xbf27f493	-0.65607566
58	0x3f202614	0.625581
59	0x3f0ee711	0.5582133
60	0x3f26125e	0.64871776
61	0xbf166c23	-0.58758754
62	0x3f11a408	0.56890917
63	0x3f130189	0.5742422
64	0xbf15d64b	-0.5853011
65	0xbf1a5758	-0.60289526
66	0xbf0bbb93	-0.5458309
67	0xbf1fd2af	-0.6243085
68	0xbf232c2e	-0.6373929
69	0x3f0b1e60	0.54343224
70	0x3f1cbb8d	0.6122368
71	0x3f0dd02e	0.5539578
72	0x3f181e5d	0.5942133
73	0x3f297861	0.6619931
74	0xbf20ca71	-0.628089
75	0xbf0b94ae	-0.5452374
76	0xbf100093	-0.56250876
77	0x3f0fef0b	0.56224126
78	0x3f223712	0.6336528
79	0x3f13697f	0.5758285
80	0xbf111d58	-0.566854
81	0x3f106475	0.56403285
82	0x3f1df7aa	0.6170603
83	0xbf10bde9	-0.5653978
84	0x3f257e87	0.6464619
85	0xbf1fb119	-0.62379605
86	0x3f232850	0.63733387
87	0xbf0e4aa2	-0.5558263
88	0x3f15b5b2	0.5848037
89	0xbf0e9166	-0.5569061
90	0x3f1657b4	0.58727574
91	0xbf22dab9	-0.63614994
92	0xbf142292	-0.5786525
93	0x3f1e3a7a	0.6180798
94	0x3f0b34b4	0.54377294
95	0xbf205837	-0.62634605
96	0x3f15c59d	0.5850466
97	0xbf0f3727	-0.5594353
98	0xbf1ad3e7	-0.6047959
99	0xbf28fc99	-0.66010433
100	0x3f1c4777	0.61046547
101	0x3f1dfbae	0.6171216
102	0x3f1c5f12	0.61082566
103	0x3f26a9bd	0.6510275
104	0x3f0a0619	0.53915554
105	0x3f1b6ca9	0.6071268
106	0xbf228526	-0.6348442
107	0x3f1295d7	0.5725989
108	0x3f0f79a6	0.56044996
109	0x3f15fad6	0.5858587
110	0xbf28be61	-0.65915495
111	0x3f0ae269	0.54251724
112	0xbf0ef30e	-0.5583962
113	0x3f238c2f	0.6388578
114	0xbf1fbd2a	-0.62398016
115	0x3f148323	0.580126
116	0x3f140b1e	0.57829463
117	0x3f1db1ae	0.6159924
118	0x3f13625c	0.5757196
119	0x3f20570f	0.6263284
120	0xbf19c7f7	-0.6007075
121	0xbf15abc3	-0.5846521
122	0x3f11b4dc	0.56916595
123	0x3f11d57e	0.5696639
124	0x3f209ab9	0.6273609
125	0x3f25f212	0.64822495
126	0x3f1110ff	0.5666656
127	0xbf1164fc	-0.56794715
128	0x3f189683	0.5960466
129	0x3f29848c	0.66217875
130	0x3f12ded1	0.5737124
131	0xbf0c264a	-0.54745924
132	0xbf132a33	-0.57486266
133	0x3f261699	0.6487823
134	0x3f19a69f	0.6001987
135	0xbf0ee5d1	-0.5581942
136	0x3f19e88a	0.6012045
137	0xbf198007	-0.5996098
138	0xbf1c8ff0	-0.6115713
139	0xbf15290b	-0.5826575
140	0xbf0a5164	-0.5403044
141	0x3f268dd0	0.6506014
142	0x3f10f20e	0.56619346
143	0x3f131218	0.57449484
144	0x3f227313	0.6345684
145	0xbf1fd3d6	-0.6243261
146	0x3f149f0d	0.5805519
147	0x3f1d2698	0.61387014
148	0x3f109465	0.5647643
149	0xbf255244	-0.6457865
150	0x3f269a4d	0.65079194
151	0xbf283772	-0.657096
152	0xbf236576	-0.6382669
153	0x3f20f7b5	0.6287797
154	0xbf1c101b	-0.60962075
155	0xbf11b701	-0.56919867
156	0x3f178e91	0.59201914
157	0x3f19c535	0.6006654
158	0x3f16a68a	0.5884787
159	0xbf15374a	-0.5828749
160	0xbf154a2b	-0.58316296
161	0xbf1be22a	-0.60891974
162	0x3f24903a	0.6428257
163	0xbf23a5e0	-0.6392498
164	0xbf1dbfc5	-0.6162074
165	0xbf188684	-0.59580255
166	0x3f21b046	0.63159597
167	0xbf1f52d5	-0.62235767
168	0x3f1a5e27	0.60299915
169	0x3f0b0d2a	0.5431696
170	0x3f217e6e	0.6308354
171	0xbf1023b3	-0.5630447
172	0x3f0c73e4	0.54864335
173	0x3f0c88ad	0.5489605
174	0x3f1a961d	0.60385305
175	0xbf0bc3f3	-0.5459587
176	0xbf13d195	-0.5774167
177	0xbf0d9082	-0.55298626
178	0x3f0ca1c6	0.54934347
179	0xbf0e47c6	-0.5557827
180	0xbf0ae6fd	-0.5425871
181	0xbf268c6b	-0.6505801
182	0x3f1d667c	0.61484504
183	0xbf1cd610	-0.61264133
184	0xbf09ee17	-0.5387892
185	0xbf21dc4f	-0.6322679
186	0xbf28d6d5	-0.6595281
187	0xbf26d041	-0.6516152
188	0x3f251e8f	0.64499754
189	0xbf155737	-0.58336204
190	0x3f0adf94	0.54247403
191	0x3f0ce1ba	0.5503193
192	0x3f22461b	0.6338822
193	0x3f118b11	0.56852823
194	0x3f0ed248	0.55789614
195	0xbf208f64	-0.62718797
196	0xbf1ffc1a	-0.6249405
197	0xbf238e0e	-0.63888633
198	0xbf20bc28	-0.62787104
199	0x3f1bed33	0.6090881
200	0xbf1679e2	-0.5877973
201	0x3f273ecc	0.65330195
202	0x3f0a8ad4	0.54118085
203	0x3f15d9e9	0.5853563
204	0xbf1e79b5	-0.6190446
205	0xbf227d3e	-0.63472354
206	0x3f1f20f6	0.6215967
207	0xbf21739a	-0.6306702
208	0x3f141081	0.5783768
209	0xbf26278e	-0.64904106
210	0x3f1379aa	0.5760752
211	0xbf18f469	-0.5974794
212	0x3f10e183	0.56594104
213	0x3f16aa43	0.5885355
214	0xbf232a01	-0.6373597
215	0x3f1cb59e	0.61214626
216	0x3f1f6ba0	0.622736
217	0x3f102c64	0.56317735
218	0xbf206acc	-0.6266296
219	0x3f17635f	0.59136003
220	0x3f11491d	0.56752187
221	0x3f12bf68	0.5732331
222	0x3f2180a8	0.6308694
223	0xbf1c6e50	-0.61105824
224	0xbf138141	-0.576191
225	0x3f19e424	0.6011374
226	0xbf1913e0	-0.5979595
227	0x3f0e7cf7	0.5565943
228	0xbf1896b3	-0.5960495
229	0x3f28d874	0.6595528
230	0x3f289c86	0.65863836
231	0xbf0e8caf	-0.55683416
232	0x3f14b489	0.58087975
233	0x3f19a72d	0.60020715
234	0x3f283edc	0.65720916
235	0xbf1d6245	-0.6147807
236	0xbf15e0c4	-0.5854609
237	0xbf1859c6	-0.59511983
238	0xbf0f7cd1	-0.5604983
239	0xbf21838b	-0.63091344
240	0xbf16ac56	-0.58856714
241	0x3f0b8e3d	0.54513913
242	0x3f15e9db	0.5855996
243	0xbf128a19	-0.5724197
244	0xbf18168c	-0.59409404
245	0xbf0ae9f9	-0.54263264
246	0x3f0e53de	0.5559672
247	0xbf129a03	-0.57266253
248	0x3f18f4c6	0.59748495
249	0x3f28b244	0.6589701
250	0xbf0bdc51	-0.5463305
251	0x3f27e411	0.65582377
252	0xbf245037	-0.641849
253	0xbf09d0ab	-0.5383403
254	0xbf23cdb1	-0.63985735
255	0xbf213b98	-0.6298156

model.2.bias f4 [256]
0	0xbf22d68f	-0.6360864
1	0xbf19196c	-0.59804416
2	0xbf1b9651	-0.6077624
3	0xbf2722e4	-0.65287614
4	0x3f2294b6	0.63508165
5	0x3f140406	0.5781864
6	0x3f1fd358	0.6243186
7	0x3f0e0ea8	0.55491114
8	0x3f14eaa5	0.5817054
9	0xbf1af2af	-0.60526556
10	0x3f1aaaad	0.6041668
11	0x3f208792	0.62706864
12	0x3f24712f	0.64235204
13	0xbf1df71e	-0.61705196
14	0x3f0f9ed1	0.5610171
15	0xbf0e09a5	-0.55483466
16	0xbf1bbb5e	-0.60832775
17	0x3f13d104	0.5774081
18	0x3f0be4ac	0.546458
19	0x3f25d35e	0.64775646
20	0x3f1b1db5	0.60592204
21	0xbf1b2395	-0.6060117
22	0x3f2384ca	0.63874495
23	0x3f1d7bf0	0.6151724
24	0xbf0d6253	-0.55228156
25	0x3f13a1da	0.5766884
26	0x3f243769	0.6414705
27	0xbf155375	-0.5833047
28	0xbf235ba4	-0.6381171
29	0xbf1a359d	-0.6023806
30	0x3f295b35	0.66154796
31	0xbf233346	-0.6375011
32	0x3f127ac2	0.57218564
33	0xbf2803ec	-0.65630984
34	0xbf0b23d6	-0.54351556
35	0x3f0e978f	0.5570001
36	0xbf1ab463	-0.604315
37	0xbf17b15b	-0.59255
38	0x3f0e7a33	0.5565521
39	0x3f0c7025	0.5485862
40	0xbf1dafcb	-0.61596364
41	0x3f0afc79	0.5429149
42	0xbf264e54	-0.6496327
43	0xbf1fe843	-0.6246378
44	0x3f0b9d4d	0.54536897
45	0x3f1b4186	0.60646856
46	0xbf256b11	-0.64616495
47	0x3f216eb8	0.6305957
48	0x3f2156be	0.63022983
49	0x3f147d62	0.5800382
50	0xbf157b08	-0.58390856
51	0x3f1229c4	0.5709498
52	0xbf2143dd	-0.62994176
53	0xbf218eb3	-0.63108367
54	0x3f24cebd	0.6437796
55	0xbf23af34	-0.63939214
56	0x3f19aeda	0.6003243
57	0xbf0f4de5	-0.5597823
58	0xbf1f877c	-0.6231611
59	0x3f103583	0.5633165
60	0xbf0b22f4	-0.5435021
61	0xbf27a242	-0.6548196
62	0xbf1fc20d	-0.62405473
63	0x3f1d417c	0.61428046
64	0xbf09f3a2	-0.5388738
65	0xbf18bb89	-0.59661156
66	0xbf0c4f81	-0.54808813
67	0xbf23c493	-0.63971823
68	0xbf259cf9	-0.64692646
69	0xbf0e3750	-0.5555315
70	0x3f1e809f	0.6191501
71	0xbf1f4a0a	-0.6222235
72	0x3f1b1be6	0.60589445
73	0xbf1bb92f	-0.6082944
74	0xbf0dde68	-0.5541749
75	0x3f1755e4	0.59115434
76	0x3f10fbd7	0.5663428
77	0xbf1d0f26	-0.6135124
78	0x3f11d061	0.56958586
79	0xbf1184a1	-0.56843
80	0x3f10c086	0.5654377
81	0x3f0d947b	0.5530469
82	0x3f2026db	0.6255929
83	0x3f240a05	0.6407779
84	0x3f18c3de	0.5967387
85	0x3f25a142	0.64699185
86	0x3f23d5d4	0.6399815
87	0xbf1e8c6c	-0.61933017
88	0xbf0cd4d9	-0.5501228
89	0xbf15f6b2	-0.5857955
90	0x3f10b0a5	0.5651954
91	0x3f0a0ce6	0.5392593
92	0x3f23d9f8	0.6400447
93	0x3f138e0b	0.57638615
94	0xbf279407	-0.65460247
95	0xbf0d9b16	-0.5531477
96	0x3f0a0ba7	0.5392403
97	0x3f13b448	0.5769696
98	0x3f2256db	0.6341378
99	0xbf1313b3	-0.57451934
100	0xbf10f834	-0.5662873
101	0x3f265630	0.6497526
102	0x3f190d1a	0.59785616
103	0x3f22f8bf	0.63660806
104	0xbf1bac8a	-0.6081015
105	0x3f16eabd	0.5895193
106	0xbf1c5cbf	-0.6107902
107	0xbf123bf9	-0.5712276
108	0xbf2699bb	-0.65078324
109	0x3f1e786e	0.6190251
110	0x3f0e5e59	0.55612713
111	0x3f269550	0.6507158
112	0x3f2274ee	0.6345967
113	0x3f0b3b1a	0.54387057
114	0x3f1a0730	0.6016722
115	0x3f1cc798	0.61242056
116	0x3f23bb48	0.63957644
117	0x3f147987	0.57997936
118	0xbf25388c	-0.6453941
119	0x3f2425f4	0.6412041
120	0x3f1002fd	0.5625456
121	0x3f275493	0.65363425
122	0x3f17e326	0.59330976
123	0x3f19c444	0.600651
124	0x3f21a567	0.6314301
125	0x3f19d45d	0.60089666
126	0xbf2272f0	-0.6345663
127	0xbf12d32c	-0.5735347
128	0xbf21e060	-0.63232994
129	0x3f13b250	0.5769396
130	0x3f27b060	0.655035
131	0xbf20bf6f	-0.62792104
132	0x3f0c2c37	0.54754966
133	0x3f22549e	0.63410366
134	0x3f0e1f49	0.5551649
135	0xbf16be93	-0.58884543
136	0xbf22c215	-0.63577396
137	0x3f0cc8f9	0.5499416
138	0xbf2163bb	-0.630428
139	0xbf10f756	-0.56627405
140	0xbf23f604	-0.64047265
141	0x3f1d734c	0.61504054
142	0xbf15f3c5	-0.5857509
143	0xbf1bed31	-0.609088
144	0x3f1e24c4	0.6177485
145	0xbf12fc03	-0.5741579
146	0x3f18c5d9	0.5967689
147	0xbf1cb5e7	-0.6121506
148	0x3f24b1d9	0.64333874
149	0x3f1f32e5	0.62187034
150	0x3f1b9e9d	0.607889
151	0xbf14d6f9	-0.5814052
152	0xbf211fed	-0.6293934
153	0xbf1d13a2	-0.6135808
154	0x3f2943a5	0.6611884
155	0x3f14c91a	0.58119357
156	0x3f24c9f0	0.6437063
157	0xbf0b0134	-0.5429871
158	0x3f14980d	0.5804451
159	0x3f187c7b	0.5956494
160	0x3f203d96	0.6259397
161	0xbf1be359	-0.6089378
162	0xbf1adcb5	-0.6049302
163	0xbf1170ad	-0.56812555
164	0x3f22e559	0.63631207
165	0xbf263f4a	-0.6494032
166	0xbf124739	-0.5713993
167	0x3f14ec24	0.5817282
168	0xbf25fc46	-0.64838064
169	0xbf158db4	-0.58419347
170	0xbf0e9c27	-0.5570702
171	0x3f1a620b	0.6030585
172	0xbf1b7fa3	-0.60741633
173	0x3f236853	0.6383106
174	0x3f23c165	0.6396697
175	0x3f163269	0.5867067
176	0x3f1c823c	0.6113622
177	0x3f171e83	0.5903093
178	0xbf19acb1	-0.6002913
179	0xbf2900a4	-0.660166
180	0xbf24f9f2	-0.64443886
181	0xbf1acfc3	-0.6047327
182	0x3f270d2c	0.65254474
183	0x3f1a1f36	0.60203874
184	0xbf0e43a6	-0.55571973
185	0x3f143d43	0.5790598
186	0x3f29145c	0.6604669
187	0xbf107b51	-0.56438166
188	0x3f0feb14	0.56218076
189	0xbf1749be	-0.59096897
190	0xbf0f304a	-0.5593306
191	0x3f26dc0c	0.65179515
192	0x3f2879c1	0.6581078
193	0xbf0b4e80	-0.54416656
194	0x3f1b40ea	0.60645926
195	0xbf0a6f4f	-0.54076093
196	0xbf207c8d	-0.6269005
197	0x3f0b58c4	0.5443232
198	0xbf0f27b7	-0.55919975
199	0xbf1ac124	-0.6045096
200	0x3f19a63b	0.6001927
201	0xbf1f5ff1	-0.6225577
202	0x3f0cf64b	0.55063313
203	0xbf293068	-0.6608949
204	0x3f1ae8dc	0.60511565
205	0x3f0ac14f	0.54201216
206	0x3f224f33	0.634021
207	0xbf10f313	-0.566209
208	0x3f253ab5	0.64542705
209	0x3f251067	0.64478153
210	0xbf1681a7	-0.58791584
211	0x3f23f2f0	0.6404257
212	0x3f0c1e23	0.54733485
213	0x3f2065d3	0.6265537
214	0xbf1aeaff	-0.60514826
215	0xbf162657	-0.5865225
216	0x3f1b7750	0.6072893
217	0xbf287f08	-0.65818834
218	0xbf0b21b6	-0.54348314
219	0x3f0caf2d	0.549548
220	0xbf159b4c	-0.5844009
221	0x3f177ca1	0.59174544
222	0x3f2753f5	0.65362483
223	0x3f2056ff	0.62632746
224	0x3f1c3327	0.6101555
225	0xbf12024b	-0.5703475
226	0x3f2510bd	0.64478666
227	0x3f22b842	0.63562405
228	0x3f272915	0.6529706
229	0x3f22cea9	0.6359659
230	0x3f138ec2	0.57639706
231	0xbf0d6508	-0.55232286
232	0x3f1a4815	0.6026624
233	0xbf186fcd	-0.59545594
234	0x3f1670fa	0.5876614
235	0x3f295c62	0.6615659
236	0xbf285220	-0.6575031
237	0x3f25421a	0.6455399
238	0x3f0a3139	0.5398136
239	0xbf2627d2	-0.6490451
240	0xbf139011	-0.576417
241	0xbf1b0fe8	-0.60571146
242	0x3f1358fa	0.5755764
243	0xbf18356d	-0.5945652
244	0x3f1a53ba	0.60284007
245	0x3f11237c	0.5669477
246	0x3f295c05	0.66156036
247	0xbf1fdef5	-0.6244958
248	0x3f135afa	0.57560694
249	0x3f1b287e	0.6060866
250	0xbf22cf49	-0.6359754
251	0x3f245067	0.64185184
252	0x3f241f97	0.641107
253	0xbf2652d3	-0.6497013
254	0x3f0d5a56	0.55215967
255	0xbf116bd8	-0.5680518

model.4.weight f4 [82, 256]
0	0xc35f85a4	-223.52203
1	0xc35f34a7	-223.20567
2	0xc35f9424	-223.57867
3	0xc35fc3e5	-223.76521
4	0x435f76c4	223.46393
5	0x435f7a2a	223.4772
6	0x435f89ab	223.53777
7	0x435fd382	223.8262
8	0x435fc890	223.78345
9	0xc35fdc22	-223.8599
10	0x435f5f45	223.37215
11	0x435fdc03	223.85942
12	0x435fb5c8	223.71008
13	0xc35fc263	-223.75932
14	0x435f6f95	223.43587
15	0xc35f8a3f	-223.54002
16	0xc35fb876	-223.72055
17	0x435fda4c	223.85272
18	0x435fd0f5	223.81624
19	0x435f94b5	223.58089
20	0x435fc416	223.76596
21	0xc35f6de1	-223.42921
22	0x435f700f	223.43773
23	0x435fbbd7	223.73375
24	0xc35fd73e	-223.84079
25	0x435fdc31	223.86012
26	0x435f77ee	223.46848
27	0xc35f9221	-223.57082
28	0xc35fdc4c	-223.86053
29	0xc35f647e	-223.39255
30	0x435fc0b4	223.75275
31	0xc35fce57	-223.80602
32	0x435f776e	223.46652
33	0xc35fca8f	-223.79124
34	0xc35f9aa9	-223.60414
35	0x435fd7ca	223.84293
36	0xc35fc95b	-223.78654
37	0xc35fdda9	-223.86586
38	0x435fc7c9	223.78041
39	0x435fc737	223.77818
40	0xc35fd789	-223.84193
41	0x435f6020	223.37549
42	0xc35f8e20	-223.55518
43	0xc35fd196	-223.8187
44	0x435f315e	223.19284
45	0x435f4e7e	223.30661
46	0xc35fd65d	-223.83736
47	0x435fcc67	223.79845
48	0x435f63ef	223.39037
49	0x435f151a	223.08243
50	0xc35f9496	-223.58041
51	0x435f76cf	223.4641
52	0xc35f5683	-223.33794
53	0xc35f5659	-223.3373
54	0x435fbc38	223.73523
55	0xc35fd073	-223.81425
56	0x435f7909	223.4728
57	0xc35f345e	-223.20456
58	0xc35f8cd6	-223.55014
59	0x435f55c1	223.33498
60	0xc35fc7d9	-223.78065
61	0xc35f9dd3	-223.6165
62	0xc35fc39c	-223.7641
63	0x435f8b08	223.54309
64	0xc35fc2a9	-223.76039
65	0xc35f712d	-223.4421
66	0xc35f3d31	-223.23903
67	0xc35f8ba4	-223.54547
68	0xc35f7855	-223.47005
69	0xc35f6904	-223.41022
70	0x435fc9cc	223.78827
71	0xc35fc882	-223.78323
72	0x435fd1ff	223.8203
73	0xc35f9c0d	-223.60957
74	0xc35fc8fa	-223.78506
75	0x435f635e	223.38815
76	0x435f8037	223.50084
77	0xc35f9cac	-223.612
78	0x435f579b	223.34221
79	0xc35f4d27	-223.30138
80	0x435f90cc	223.56561
81	0x435fccab	223.79948
82	0x435fbfe1	223.74953
83	0x435f7299	223.44765
84	0x435fc9ba	223.788
85	0x435fd9d8	223.85095
86	0x435f12f5	223.07405
87	0xc35fcec3	-223.80766
88	0xc35f8764	-223.52887
89	0xc35fcb75	-223.79475
90	0x435fcfd0	223.81177
91	0x435f81de	223.5073
92	0x435f7af8	223.48035
93	0x435fd995	223.84993
94	0xc35fdbbc	-223.85834
95	0xc35fd179	-223.81825
96	0x435fc46b	223.76726
97	0x435f7a3d	223.4775
98	0x435f719d	223.4438
99	0xc35f5ee1	-223.37062
100	0xc35fb714	-223.71515
101	0x435f7cef	223.48802
102	0x435fc4cb	223.76872
103	0x435fd0d1	223.81569
104	0xc35f53e6	-223.32773
105	0x435fd2c9	223.82338
106	0xc35f4c50	-223.2981
107	0xc35fcb7c	-223.79486
108	0xc35f967c	-223.58783
109	0x435f8a62	223.54056
110	0x435fd6f6	223.83969
111	0x435fbe67	223.74376
112	0x435f5c58	223.36072
113	0x435f875c	223.52875
114	0x435fd366	223.82578
115	0x435fd03b	223.8134
116	0x435fd14e	223.8176
117	0x435f5ab5	223.35432
118	0xc35f6bb2	-223.42068
119	0x435fce6a	223.8063
120	0x435fb397	223.70152
121	0x435fd3ed	223.82784
122	0x435fdb9a	223.85782
123	0x435f3806	223.21884
124	0x435f653e	223.39548
125	0x435f2672	223.15018
126	0xc35fd85f	-223.8452
127	0xc35fcf06	-223.80869
128	0xc35fdaf1	-223.85524
129	0x435f3048	223.1886
130	0x435f73f7	223.45299
131	0xc35f505a	-223.31387
132	0x435f620c	223.383
133	0x435f7a7a	223.47842
134	0x435fc98d	223.78731
135	0xc35fd84b	-223.8449
136	0xc35fbf45	-223.74715
137	0x435f72d0	223.44849
138	0xc35fd787	-223.8419
139	0xc35fc855	-223.78255
140	0xc35fc916	-223.78549
141	0x435fdd1b	223.8637
142	0xc35f2698	-223.15076
143	0xc35fcf45	-223.80965
144	0x435f60be	223.3779
145	0xc35fbeeb	-223.74577
146	0x435fd688	223.83801
147	0xc35f8371	-223.51344
148	0x435f7169	223.44301
149	0x435fbfd9	223.7494
150	0x435f8bcb	223.54607
151	0xc35fc77d	-223.77925
152	0xc35f9243	-223.57133
153	0xc35fcdf4	-223.8045
154	0x435f7b9d	223.48286
155	0x435f758c	223.45917
156	0x435fd480	223.83008
157	0xc35f180e	-223.09396
158	0x435f773a	223.46573
159	0x435fccc1	223.79982
160	0x435fd024	223.81305
161	0xc35f6dc6	-223.4288
162	0xc35f2cfa	-223.17569
163	0xc35fd32a	-223.82486
164	0x435fd11b	223.81682
165	0xc35f5ce7	-223.3629
166	0xc35f81d5	-223.50716
167	0x435fbe67	223.74376
168	0xc35fa0ad	-223.62764
169	0xc35f8236	-223.50864
170	0xc35f6c35	-223.42268
171	0x435f70cc	223.44061
172	0xc35f78d1	-223.47194
173	0x435f8598	223.52185
174	0x435fc506	223.76962
175	0x435fcf93	223.81084
176	0x435f7fc2	223.49905
177	0x435f7ee6	223.4957
178	0xc35fd654	-223.83722
179	0xc35fb46b	-223.70476
180	0xc35fd280	-223.82227
181	0xc35fb198	-223.69373
182	0x435fbfbb	223.74895
183	0x435fcc33	223.79765
184	0xc35f8054	-223.50128
185	0x435fd112	223.81668
186	0x435f64d5	223.39388
187	0xc35f5353	-223.32549
188	0x435f7d8d	223.49043
189	0xc35fd737	-223.84068
190	0xc35f722c	-223.44598
191	0x435f73b2	223.45193
192	0x435fc7df	223.78075
193	0xc35fc840	-223.78223
194	0x435fc97e	223.78708
195	0xc35fc2a1	-223.76027
196	0xc35fd52f	-223.83275
197	0x435fcf4f	223.8098
198	0xc35fa09a	-223.62735
199	0xc35fc163	-223.75542
200	0x435f14fa	223.08194
201	0xc35fd759	-223.8412
202	0x435f6880	223.4082
203	0xc35f8ae2	-223.54251
204	0x435f97d6	223.59311
205	0x435fd403	223.82817
206	0x435f9964	223.59918
207	0xc35fa51f	-223.645
208	0x435f91d0	223.56958
209	0x435f7610	223.46118
210	0xc35fcedd	-223.80806
211	0x435fd1f9	223.8202
212	0x435f8844	223.53229
213	0x435fd1d1	223.8196
214	0xc35f8da4	-223.55328
215	0xc35fd8ff	-223.84764
216	0x435f9224	223.57086
217	0xc35fc6ee	-223.77707
218	0xc35f8bbb	-223.54582
219	0x435fadac	223.6784
220	0xc35f7fbf	-223.49901
221	0x435fdb32	223.85623
222	0x435fda7d	223.85347
223	0x435fd9f8	223.85144
224	0x435fd60b	223.8361
225	0xc35fcb67	-223.79454
226	0x435f75a3	223.45952
227	0x435fd32a	223.82486
228	0x435fd93e	223.8486
229	0x435f4296	223.2601
230	0x435f8505	223.5196
231	0xc35f8c0c	-223.54706
232	0x435f78c1	223.4717
233	0xc35fcf29	-223.80922
234	0x435fbe57	223.74352
235	0x435fc763	223.77885
236	0xc35f8c80	-223.54883
237	0x435fbce9	223.73793
238	0x435f6480	223.39258
239	0xc35fc73b	-223.77824
240	0xc35fcc6a	-223.7985
241	0xc35f9ba6	-223.608
242	0x435fd081	223.81447
243	0xc35f70ff	-223.44139
244	0x435f8bc1	223.54591
245	0x435f95f5	223.58577
246	0x435fd978	223.84949
247	0xc35f95ab	-223.58464
248	0x435f8139	223.50478
249	0x435f60a7	223.37755
250	0xc35f752c	-223.4577
251	0x435f7524	223.45758
252	0x435fdd65	223.86482
253	0xc35fcc1d	-223.79732
254	0x435f943f	223.57909
255	0xc35fcd2e	-223.80148

model.4.bias f4 [82]
0	0x435f8fd4	223.56183
1	0xbeadffb2	-0.33984143
2	0xc35f91ca	-223.56949
3	0x411776d8	9.466515
4	0xc09a1595	-4.8151345
5	0xc09bc871	-4.868218
6	0x4121288b	10.072398
7	0xc09f6925	-4.981585
8	0xc0a59c79	-5.1753507
9	0x411a69cc	9.650829
10	0xc0a7d7e8	-5.2451057
11	0xc0929d81	-4.5817266
12	0x3fa4cb8c	1.2874618
13	0xbf56d119	-0.8391281
14	0xbf4f1dc5	-0.809048
15	0x411a9010	9.6601715
16	0xc0a8d53c	-5.2760296
17	0xc091087d	-4.532286
18	0x4118f753	9.560382
19	0xc0aa6985	-5.325381
20	0xc08d414e	-4.414222
21	0x4113cc04	9.2373085
22	0xc0abd6e6	-5.3699827
23	0xc08690f2	-4.2051935
24	0x4114d435	9.301808
25	0xc0aaf96a	-5.342946
26	0xc085f9a5	-4.186724
27	0xc091592b	-4.542135
28	0xc0a5c7f6	-5.1806593
29	0xc0907bdb	-4.515119
30	0xc0a81cfd	-5.2535386
31	0x4113ac6d	9.229596
32	0xc0ab2a4f	-5.3489146
33	0xc086c74c	-4.211828
34	0x411265ec	9.149883
35	0xc0ac2be8	-5.3803596
36	0xc0856cf5	-4.1695504
37	0x4114d7e0	9.302704
38	0xc082dfb3	-4.089807
39	0xc08546dd	-4.1649003
40	0x4113526d	9.2076235
41	0x430119e0	129.10107
42	0xc380bf64	-257.49524
43	0x4301339a	129.20157
44	0xbe24ed21	-0.16106082
45	0xc10370bb	-8.215022
46	0x4103936e	8.223494
47	0xbe28aad1	-0.16471411
48	0xc10a325d	-8.637296
49	0x410c8bb2	8.784105
50	0xbf361d7e	-0.7113875
51	0xc104e0c5	-8.304875
52	0x41071aef	8.444076
53	0xbee4a140	-0.44654274
54	0xbf9a3aaf	-1.2049159
55	0x3f9c05e6	1.21893
56	0xbf392d73	-0.72334975
57	0xc10602ba	-8.375666
58	0x4107db0d	8.490979
59	0xbf5746bd	-0.84092313
60	0xc106dbfd	-8.428708
61	0x4105fa35	8.373586
62	0xbf89ad17	-1.0755948
63	0xc10572ba	-8.340509
64	0x4104cac3	8.299502
65	0xbf89960f	-1.0748919
66	0xc10691d5	-8.410604
67	0x4105b0cd	8.355664
68	0x41083ec3	8.515323
69	0xc1049aa2	-8.287752
70	0x410818f4	8.506092
71	0xc1039f36	-8.22637
72	0xbf881634	-1.0631776
73	0xc106ead2	-8.432329
74	0x4104b4a7	8.294105
75	0xbf8c1c31	-1.0946103
76	0xc1074155	-8.45345
77	0x410457e8	8.2714615
78	0xbf861c8f	-1.0477465
79	0x4104fa72	8.311144
80	0x4103f5af	8.247481
81	0xbf93c313	-1.1543907
