results/34Bus/pinn_model0.01.pth (torch, 657257 bytes, 6 tensors)

model.0.weight f4 [256, 190]
0.055465452 0.060215093 -0.01699591 0.06664307 -0.015895445 0.014639437 -0.035320174 0.04260596
0.06395384 -0.053222977 0.063058116 0.01357796 0.05359883 0.009825163 0.0349816 -0.010243073
0.055925928 0.0107231885 -0.033868127 0.018492267 -0.033425346 -0.00850787 -0.02946582 0.04812599
-0.05726693 -0.0334452 -0.020485617 -0.04362089 0.00684727 -0.07165377 0.06551842 -0.0616269
0.05600875 0.012073316 -0.023556542 0.0448308 0.011306606 0.058615826 0.007930882 -0.022879574
0.019492358 -0.019673422 0.030532211 0.06477212 0.041936845 -0.03171583 0.041879177 0.01298067
0.036842227 -0.044218145 -0.071815506 -0.028029539 -0.055645682 0.05952815 0.020895988 0.03005021
0.022943996 -0.001262039 0.056776367 -0.05154607 0.004567869 -0.049516667 0.022370204 -0.024984118
0.022229768 -0.01511468 0.060170405 -0.042999115 -0.043267258 -0.04326987 0.06525243 0.024176575
0.069809 -0.05987183 -0.07195825 -0.05675863 -0.048801996 0.029384702 0.025977552 0.060281582
-0.03746543 -0.04945657 0.03849218 -0.029324073 0.044030882 -0.017215598 0.04150057 -0.05636718
-0.03661114 0.022118062 0.015337117 -0.018496651 0.043243423 0.049318545 -0.0526096 -0.038730867
0.0664291 -0.024479926 -0.025719322 -0.07019669 -0.04154586 0.018122658 -0.009575792 -0.0526613
0.0017017275 -0.04955594 -0.06154916 -0.039949264 -0.063494556 -0.04619383 0.07251925 0.01370243
0.022356257 -0.06766403 -0.04764738 -0.024147898 0.011344351 -0.0638362 -0.031258814 -0.043431982
0.00020104647 -0.026995204 -0.005027242 -0.049160425 -0.049796335 -0.042324413 -0.024832863 -0.057260454
0.06082899 -0.014398094 0.062419735 0.02260454 -0.061433107 0.050205506 -0.019961104 -0.027809393
-0.06021964 -0.07212399 0.020756647 -0.015847582 0.028244466 -0.05953718 0.05386146 -0.05325385
-0.012527041 0.015152998 0.03745284 0.05856844 0.066087924 -0.057524614 0.018257864 -0.031204615
-0.00795012 -0.054301176 0.06608062 -0.053246364 0.038773164 0.02549611 0.023574784 -0.039222594
0.065942265 0.015942372 0.00933253 -0.06393294 0.030454658 -0.010883637 -0.033235826 0.062314533
0.016174406 -0.04013889 -0.036719177 -0.0034645647 0.040507786 -0.01853837 -0.04139385 -0.024843417
-0.054198503 0.025872834 0.05615478 -0.068299256 0.016849235 0.03747751 0.013155013 -0.025835995
0.03786566 0.038124733 0.027127534 -0.012748171 -0.019210704 0.00776121 -0.012815833 -0.021619268
0.046372943 0.06234739 -0.0071820244 -0.016243186 0.0010586381 -0.004331693 0.017441265 0.02033028
-0.06589187 -0.026772812 0.061094485 0.028261289 -0.003608346 -0.04373938 -0.044385 -0.06498575
-0.0236478 0.024499632 0.046257935 0.033495046 -0.06412804 -0.04362742 -0.0114492215 0.0701789
0.01049456 -0.018787712 0.03001406 -0.02763205 -0.04695686 0.05295158 -0.03298753 -0.014543384
-0.07217068 0.048553996 0.054964595 0.026439853 -0.050585587 -0.07160015 -0.058921654 0.054098777
0.034830533 0.06104914 0.038005516 0.018361233 -0.0007104352 -0.055172905 -0.062156785 -0.06785732
0.029698238 -0.03561856 -0.014600396 -0.041751537 -0.0132198855 -0.05106155 -0.047403753 0.024064831
-0.021560892 0.04478678 -0.023273915 -0.05321856 -0.012800224 -0.035167273 -0.022195335 -0.06906502
00000000: be2f 633d 1aa4 763d 023b 8bbc 297c 883d
00000010: 2a37 82bc 40da 6f3c e3ab 10bd 9683 2e3d
00000020: 3bfa 823d 5600 5abd 9d24 813d 1876 5e3c
00000030: 728a 5b3d b8f9 203c de48 0f3d 90d2 27bc
00000040: 9612 653d 50b0 2f3c 4eb9 0abd 187d 973c
00000050: 04e9 08bd 9864 0bbc 4e62 f1bc c21f 453d
00000060: ba90 6abd d6fd 08bd 74d1 a7bc d1ab 32bd
00000070: 105f e03b 36bf 92bd 852e 863d 7d6c 7cbd
00000080: 6e69 653d 28cf 453c a6f9 c0bc 80a0 373d
00000090: 583f 393c 2617 703d 88f0 013c f26d bbbc
000000a0: 70ae 9f3c 282a a1bc b01e fa3c 3fa7 843d
000000b0: f8c5 2b3d 75e8 01bd 8089 2b3d e0ac 543c
000000c0: e0e7 163d 161e 35bd 0214 93bd 349e e5bc
000000d0: baec 63bd cad3 733d 102e ab3c dc2b f63c
000000e0: 0cf5 bb3c 006b a5ba 568e 683d f921 53bd
000000f0: 10ae 953b fdd1 4abd b841 b73c 7eab ccbc
00000100: 341b b63c 90a3 77bc 3e75 763d d71f 30bd
00000110: 0239 31bd bf3b 31bd 11a3 853d f40d c63c
00000120: 05f8 8e3d 2a3c 75bd d95e 93bd bd7b 68bd
00000130: 9ae4 47bd 30b8 f03c e0ce d43c d2e9 763d
00000140: 5a75 19bd f992 4abd faa9 1d3d 0a39 f0bc
00000150: ba59 343d ba07 8dbc 80fc 293d 46e1 66bd
00000160: 90f5 15bd f030 b53c 8848 7b3c 4a86 97bc
00000170: 0420 313d 3e02 4a3d 2a7d 57bd 42a4 1ebd
00000180: fb0b 883d 208a c8bc 54b1 d2bc 48c3 8fbd
00000190: fe2b 2abd f875 943c c8e3 1cbc 60b3 57bd
000001a0: 800c df3a 2bfb 4abd f91a 7cbd d7a1 23bd
000001b0: 6f09 82bd be35 3dbd f984 943d 2880 603c
000001c0: 7824 b73c 7093 8abd e629 43bd d0d1 c5bc
000001d0: a8dd 393c 8ebc 82bd 3e09 00bd bce5 31bd
000001e0: 00d0 5239 0c25 ddbc 90bb a4bb 715c 49bd
000001f0: 3ef7 4bbd 5d5c 2dbd 4a6e cbbc f089 6abd
00000200: d227 793d fce5 6bbc d6ab 7f3d 282d b93c
00000210: 48a1 7bbd 4aa4 4d3d 7885 a3bc 86d0 e3bc
00000220: dfa8 76bd beb5 93bd d809 aa3c cad2 81bc
00000230: f060 e73c 42dd 73bd d69d 5c3d b620 5abd
00000240: 383e 4dbc 4844 783c 2668 193d 76e5 6f3d
00000250: 1b59 873d ee9e 6bbd 8491 953c d2a0 ffbc
00000260: 3841 02bc e96a 5ebd 4755 873d dc18 5abd
00000270: 9cd0 1e3d 38dd d03c e81f c13c dfa7 20bd
00000280: bd0c 873d 9499 823c 78e7 183c 46ef 82bd
00000290: 0c7c f93c 4851 32bc 4a22 08bd 863d 7f3d
000002a0: 3080 843c ad68 24bd d966 16bd c00d 63bb
000002b0: 7eeb 253d c8dd 97bc 998c 29bd 6c84 cbbc
000002c0: 40ff 5dbd 44f3 d33c 8e02 663d 7be0 8bbd
000002d0: 6807 8a3c 0482 193d 2088 573c 02a6 d3bc
000002e0: 0619 1b3d ae28 1c3d 903a de3c b4dd 50bc
000002f0: c45f 9dbc c051 fe3b 80f9 51bc e41a b1bc
00000300: 8ef1 3d3d fa5f 7f3d 3057 ebbb 6e10 85bc
00000310: 00c2 8a3a e0f0 8dbb fce0 8e3c b08b a63c
00000320: 51f2 86bd a852 dbbc 363e 7a3d 3884 e73c
00000330: 007a 6cbb 1028 33bd 0ccd 35bd 4017 85bd
00000340: 08b9 c1bc 74b3 c83c f678 3d3d 1a32 093d
00000350: 9055 83bd aab2 32bd 8495 3bbc f5b9 8f3d
00000360: 60f1 2b3c b0e8 99bc 0ce0 f53c 9c5c e2bc
00000370: d655 40bd c2e3 583d ef1d 07bd 6047 6ebc
00000380: 39ce 93bd 8ee0 463d 8e22 613d 6498 d83c
00000390: d532 4fbd 19a3 92bd d557 71bd ae96 5d3d
000003a0: 76aa 0e3d aa0e 7a3d acab 1b3d 4c6a 963c
000003b0: 803c 3aba fcfc 61bd 1d98 7ebd c7f8 8abd
000003c0: b849 f33c c4e4 11bd 8036 6fbc a903 2bbd
000003d0: 3898 58bc ea25 51bd 702a 42bd 9c23 c53c
000003e0: 78a0 b0bc 5872 373d f0a8 bebc b4fb 59bd
000003f0: 08b8 51bc 8f0b 10bd fed2 b5bc f671 8dbd

model.0.bias f4 [256]
0.0511178 0.06989626 -0.05350744 0.06761495 -0.06886541 -0.026286531 -0.040199947 0.0702567
-0.047688242 0.010867655 0.035263672 -0.023837432 0.052176476 -0.0061735287 -0.02357541 -0.025440075
0.018122904 -0.62031496 0.027903534 -0.033529025 0.029645532 0.010746539 -0.0517207 0.04438828
0.013563909 -0.04770455 -0.066432774 0.035745516 0.01882951 -0.014676042 0.5281175 -0.6402296
0.016497076 0.019997813 0.04773219 -0.07080367 -0.056158766 0.07045711 0.067915045 0.01395382
0.031061321 -0.002941236 0.59968257 0.04620845 -0.042651113 0.06132128 0.027165651 0.02203685
0.009316444 0.0033710897 0.02381906 -0.033312496 0.04994212 -0.03759865 0.058238305 -0.0271651
0.043717593 0.037500747 0.013487957 -0.016160429 -0.04075057 0.6726315 0.057692967 -0.05524364
0.011747524 -0.02588645 -0.027924746 0.04038705 0.035651468 -0.014098257 -0.0030235052 0.008778453
0.017234012 -0.022353217 -0.05446439 -0.06606709 -0.031495415 -0.57868755 0.033753723 0.03799376
-0.04568228 0.0066563785 0.029905677 0.05558265 0.06102813 -0.06030742 -0.051409315 -0.07101714
-0.5430502 -0.040710147 -0.02877837 0.066639595 0.021589704 0.04987377 0.023639143 -0.039851278
-0.036049474 0.03847743 -0.011630371 0.03521309 -0.051696908 0.027181737 -0.03408249 -0.027823057
0.5973218 -0.0542318 0.0355405 0.059070103 0.072508864 0.06417481 0.013911173 -0.05275126
-0.06057814 -0.033911914 0.056206904 0.03506743 0.06328464 -0.012529261 0.04876087 0.056178726
-0.051842354 -0.047958173 0.027516492 -0.048135735 -0.61662287 -0.027366485 -0.5507884 -0.06254905
-0.67196983 -0.6634608 0.0049675778 -0.053091392 0.0027007237 0.01821857 -0.03793581 0.04195016
-0.004585013 -0.034079853 -0.014121406 -0.046538875 0.071077876 0.03907138 0.6208703 -0.006549701
0.045185573 0.6068252 0.0087123215 0.017884478 -8.493662e-07 0.030771956 -0.6069069 -0.03654967
-0.046876483 -0.011492759 -0.008307271 0.5347846 0.001937978 -0.005556032 -0.55327284 -0.030339953
-0.03496913 -0.010007098 -0.02428167 -0.010437399 0.032198243 0.02351375 0.026465662 0.048770666
0.0115797445 -0.06774903 -0.067419834 0.062230535 -0.018539175 0.037221514 0.061685152 -0.0035168827
0.07186917 -0.048280645 -0.060347844 -0.05710651 -0.050346848 0.028863274 0.016520604 -0.026200678
-0.008924529 0.06869813 0.02791775 0.04768713 -0.036943626 -0.030159228 0.018172972 0.5383163
-0.06456831 -0.039659675 -0.015947264 -0.0003177598 -0.009334527 0.016507067 -0.03642168 -0.009297758
0.04239545 -0.04185102 -0.06618071 0.007868342 -0.056750037 -0.051408224 -0.008881435 0.037526377
0.07092441 0.65469295 -0.0022513643 -0.02180526 -0.598961 -0.016010702 0.04112111 -0.046883874
0.019687742 0.0029962063 0.011650771 -0.5855605 -0.00523749 -0.0236593 0.010432012 0.059736855
0.01679086 0.6241257 -0.6505471 0.025091812 0.5379946 0.035243638 -0.5802839 0.0016641244
0.0059958175 0.041606642 -0.062711544 0.6228959 -0.07138111 0.59741116 0.06322437 -0.009919047
0.66737306 0.070385434 0.050282843 0.0036503598 -0.047937714 -0.02798025 0.013456672 -0.04143711
0.045822315 0.011347681 0.023891203 -0.025216922 0.0014388487 -0.06487874 0.022346579 -0.07136303
00000000: e660 513d c525 8f3d 9e2a 5bbd b579 8a3d
00000010: 4f09 8dbd da56 d7bc b3a8 24bd bfe2 8f3d
00000020: bf54 43bd 400e 323c a470 103d b846 c3bc
00000030: 00b7 553d 504b cabb 3821 c1bc b467 d0bc
00000040: 7c76 943c f6cc 1ebf f495 e43c bb55 09bd
00000050: 30db f23c 4012 303c 16d9 53bd 7cd0 353d
00000060: 283b 5e3c d965 43bd e80d 88bd e469 123d
00000070: 5840 9a3c c873 70bc b532 073f 16e6 23bf
00000080: e024 873c 74d2 a33c d482 433d 8401 91bd
00000090: bc06 66bd d14b 903d 0b17 8b3d 909e 643c
000000a0: 5074 fe3c c0c1 40bb cc84 193f 1245 3d3d
000000b0: efb2 2ebd 062c 7b3d 808a de3c a086 b43c
000000c0: 00a4 183c 80ed 5c3b 3020 c33c af72 08bd
000000d0: 1c90 4c3d 0b01 1abd 4a8b 6e3d 5889 debc
000000e0: 3811 333d 629a 193d 98fc 5c3c e062 84bc
000000f0: 12ea 26bd 9431 2c3f 764f 6c3d 2847 62bd
00000100: b078 403c d20f d4bc 70c2 e4bc e46c 253d
00000110: 4607 123d 60fc 66bc 0026 46bb 80d3 0f3c
00000120: 582e 8d3c 181e b7bc 0d16 5fbd 2f4e 87bd
00000130: 5601 01bd de24 14bf 5841 0a3d 589f 1b3d
00000140: 581d 3bbd c01d da3b c0fc f43c a2aa 633d
00000150: a2f8 793d ea04 77bd 9392 52bd 6f71 91bd
00000160: 5705 0bbf afbf 26bd 9ec0 ebbc 577a 883d
00000170: e4dc b03c 7048 4c3d e0a6 c13c 183b 23bd
00000180: 9da8 13bd 829a 1d3d 508d 3ebc 9a3b 103d
00000190: 23c0 53bd 3cac de3c 159a 0bbd 2eed e3bc
000001a0: 15ea 183f 2a22 5ebd ea92 113d 7ef3 713d
000001b0: 877f 943d 156e 833d b0eb 633c b511 58bd
000001c0: c920 78bd 38e7 0abd 3639 663d dea2 0f3d
000001d0: 619b 813d 8847 4dbc 7ab9 473d aa1b 663d
000001e0: a658 54bd ca6f 44bd 446a e13c fa29 45bd
000001f0: ffda 1dbf ae2f e0bc 7800 0dbf b719 80bd
00000200: 3706 2cbf 91d8 29bf 10c7 a23b 5c76 59bd
00000210: a0fe 303b 1c3f 953c 9462 1bbd eed3 2b3d
00000220: e03d 96bb 5197 0bbd 785d 67bc 8c9f 3ebd
00000230: 4791 913d 5009 203d 5bf1 1e3f e09e d6bb
00000240: 8214 393d e558 1b3f 20be 0e3c 7882 923c
00000250: 0000 64b5 7815 fc3c 405e 1bbf 1bb5 15bd
00000260: 8e01 40bd 204c 3cbc 381b 08bc a5e7 083f
00000270: c003 fe3a 600f b6bb 4aa3 0dbf 7e8b f8bc
00000280: ca3b 0fbd d0f4 23bc 5aea c6bc a001 2bbc
00000290: 4ee2 033d e89f c03c 84ce d83c c0c3 473d
000002a0: f8b8 3d3c 01c0 8abd 6913 8abd 72e5 7e3d
000002b0: 78df 97bc 9675 183d 92a9 7c3d 807b 66bb
000002c0: 2530 933d edc1 45bd 4d2f 77bd 84e8 69bd
000002d0: 7f38 4ebd ac72 ec3c 3856 873c cea2 d6bc
000002e0: 3038 12bc 9bb1 8c3d c4b3 e43c 9453 433d
000002f0: 3352 17bd 7c10 f7bc 7cdf 943c 19cf 093f
00000300: 643c 84bd 2f72 22bd d6a3 82bc 0099 a6b9
00000310: d8ef 18bc d439 873c e62e 15bd a055 18bc
00000320: daa6 2d3d fa6b 2bbd c189 87bd 38ea 003c
00000330: ba72 68bd 6e91 52bd 7083 11bc 42b5 193d
00000340: d140 913d f599 273f a08b 13bb f2a0 b2bc
00000350: 8255 19bf e028 83bc 9c6e 283d 4e09 40bd
00000360: 3048 a13c 005c 443b e0e2 3e3c 4be7 15bf
00000370: 409f abbb 26d1 c1bc 08eb 2a3c a2ae 743d
00000380: fc8c 893c b4c6 1f3f 418a 26bf 588d cd3c
00000390: 04ba 093f a25b 103d 7c8d 14bf c01e da3a
000003a0: 9078 c43b ba6b 2a3d e96e 80bd 1b76 1f3f
000003b0: 4230 92bd f0ef 183f c77b 813d 8083 22bc
000003c0: f6d8 2a3f 3d26 903d 62f5 4d3d e03a 6f3b
000003d0: 565a 44bd d636 e5bc 6079 5c3c f6b9 29bd
000003e0: 2eb0 3b3d a0eb 393c 7cb7 c33c b893 cebc
000003f0: c097 bc3a 25df 84bd 2c10 b73c c826 92bd

model.2.weight f4 [256, 256]
-0.57854766 -0.5697726 -0.6289561 0.55951154 0.57454723 -0.62695175 0.57576585 -0.5571486
-0.5463352 -0.6088575 0.5947686 -0.6378948 0.55802053 0.5517934 0.6097446 0.6171786
0.62258834 0.5761203 -0.6448267 0.6115447 0.5992787 0.6515107 -0.59858984 0.6338536
-0.61664665 -0.5967102 -0.5401776 0.5711488 0.60481757 0.6374383 -0.59069526 0.5542064
-0.6490042 -0.5505671 -0.6181556 0.56587535 -0.613485 0.6303334 0.6556226 0.64372927
-0.58405685 0.60691696 0.65467995 0.5488059 0.6505205 -0.6170316 -0.63790596 0.56180066
0.6395102 0.655705 -0.55772203 -0.6596741 0.59957266 0.60950387 0.64596677 0.56937176
0.5730397 -0.6074005 0.589155 0.60881364 -0.62445337 0.58575064 0.5593129 0.65587926
0.5824944 -0.6327622 -0.650737 0.56109834 -0.5650084 0.6423548 -0.5912008 -0.6560877
0.54095566 0.5778272 -0.62182635 0.57681954 0.5802176 0.56563944 0.55689555 0.60494167
0.55054533 0.56096995 0.5985706 0.60248643 0.6551033 0.5962475 -0.56128395 0.5937269
-0.5708936 0.5893771 0.63255584 -0.56592315 0.5403919 -0.5990438 -0.5992388 -0.58861107
-0.65954286 0.5386282 -0.650519 0.5946568 0.64363664 0.5659524 0.57361096 -0.63681453
0.6331792 0.6465707 -0.5964487 0.63414365 0.6581171 0.591867 -0.62707096 -0.63628393
-0.5556558 -0.56273454 0.558562 -0.5648493 -0.5722594 -0.5717078 0.62210125 0.5909757
-0.572017 0.560876 0.59341633 0.62549114 0.6250683 -0.6314781 -0.6539025 -0.56958294
0.5693011 -0.56627667 -0.65970874 0.5465206 0.6586975 0.65672374 0.5799731 0.63767356
-0.55953515 -0.6171891 0.6494588 -0.5561637 -0.53996146 0.5926422 0.5452401 -0.6330461
-0.6105234 0.5746623 0.64008063 0.6527003 0.6484984 0.61451584 0.5713546 -0.63847345
-0.6079057 -0.6363072 0.650382 0.55260426 -0.6493183 0.56424296 -0.64171785 -0.63893497
0.62345827 0.5746583 0.56055224 0.64614373 0.57514906 0.6564571 0.64760333 -0.5469924
0.5444636 -0.5591883 -0.6418882 -0.5812896 -0.6405458 0.653499 0.6587288 -0.64145684
0.62366766 0.5704374 0.5932443 -0.5436856 -0.54937273 -0.6535829 0.6286976 -0.6373836
0.5740014 0.65168077 -0.6301222 0.6195395 0.5480615 -0.64736885 -0.66084003 -0.57670665
-0.65154415 -0.5508983 -0.5857892 0.55836874 -0.5435973 0.6035583 -0.62186253 -0.56040627
0.56081945 -0.6389027 0.57310295 0.5887956 -0.55731374 0.60093635 0.56198686 0.54937214
-0.6034732 0.6268899 -0.66269976 -0.5802917 -0.59235615 0.57874054 -0.57110953 -0.6299172
0.57131016 -0.62759936 0.6219346 -0.5482988 -0.59862953 -0.58037204 -0.5637009 0.63656706
0.551651 -0.62332004 -0.5779294 -0.5437769 -0.6558456 0.5383915 0.5854289 0.62578404
-0.5896987 -0.6059802 -0.5543481 -0.64184695 0.5703522 0.58607846 -0.5591251 -0.64519733
-0.5750567 0.6578343 -0.64469296 -0.5622277 0.5393175 0.6621735 0.5825424 -0.5567497
-0.56062824 -0.5946454 0.65023 0.6402264 0.5898526 -0.620356 0.57213914 0.5897754
00000000: b31b 14bf 9edc 11bf 4403 21bf 263c 0f3f
00000010: 8715 133f e97f 20bf 6465 133f 4aa1 0ebf
00000020: a0dc 0bbf 16de 1bbf c142 183f 134d 23bf
00000030: 6fda 0e3f 5542 0d3f 3918 1c3f 6bff 1d3f
00000040: f361 1f3f 9f7c 133f 5d13 25bf 328e 1c3f
00000050: 546a 193f 68c9 263f 2f3d 19bf 3b44 223f
00000060: 8edc 1dbf 00c2 18bf 1449 0abf cf36 123f
00000070: 53d5 1a3f 282f 233f ce37 17bf 78e0 0d3f
00000080: 2425 26bf f7f1 0cbf 723f 1ebf 35dd 103f
00000090: 5a0d 1dbf 885d 213f e2d6 273f 71cb 243f
000000a0: c084 15bf e95e 1b3f 1b99 273f 8b7e 0c3f
000000b0: 8388 263f c8f5 1dbf ce4d 23bf 2bd2 0f3f
000000c0: f1b6 233f 48dc 273f dfc6 0ebf 67e0 28bf
000000d0: 987d 193f 7208 1c3f 145e 253f 59c2 113f
000000e0: bbb2 123f 997e 1bbf ddd2 163f 36db 1b3f
000000f0: 2ddc 1fbf c1f3 153f 212f 0f3f b4e7 273f
00000100: 5a1e 153f b4fc 21bf b396 26bf 24a4 0f3f
00000110: 64a4 10bf 5d71 243f f058 17bf 5df5 27bf
00000120: 127c 0a3f 7cec 133f 0330 1fbf 72aa 133f
00000130: 2489 143f bfcd 103f b590 0e3f 75dd 1a3f
00000140: 8af0 0c3f ba9b 0f3f ec3b 193f 8d3c 1a3f
00000150: dab4 273f ada3 183f 4eb0 0fbf 7cfe 173f
00000160: 1526 12bf 6be1 163f 2eef 213f 57e0 10bf
00000170: 2057 0a3f ef5a 19bf b767 19bf 37af 16bf
00000180: cdd7 28bf 8ae3 093f 6a88 26bf 6e3b 183f
00000190: 5fc5 243f 42e2 103f 2bd8 123f 4706 23bf
000001a0: 0818 223f a885 253f ddb0 18bf 3d57 223f
000001b0: 5d7a 283f 9984 173f b987 20bf 81e3 22bf
000001c0: 753f 0ebf 5f0f 10bf ebfd 0e3f f799 10bf
000001d0: 987f 12bf 715b 12bf 0742 1f3f 2f4a 173f
000001e0: b56f 12bf 9295 0f3f 22ea 173f 3020 203f
000001f0: 7a04 203f 8ca8 21bf 2766 27bf 30d0 11bf
00000200: b8bd 113f 82f7 10bf ace2 28bf c6e8 0b3f
00000210: 66a0 283f 0c1f 283f 1e79 143f 933e 233f
00000220: b23d 0fbf 1b00 1ebf ef42 263f bf60 0ebf
00000230: ea3a 0abf 66b7 173f db94 0b3f 4f0f 22bf
00000240: 434b 1cbf 121d 133f 53dc 233f 5e17 273f
00000250: fe03 263f e950 1d3f 4c44 123f ff72 23bf
00000260: b59f 1bbf 07e5 22bf 6f7f 263f 7977 0d3f
00000270: b939 26bf 3a72 103f 9f47 24bf 3e91 23bf
00000280: f69a 1f3f ce1c 133f 5a80 0f3f ad69 253f
00000290: f83c 133f 930d 283f 55c9 253f b207 0cbf
000002a0: f761 0b3f f726 0fbf c952 24bf 65cf 14bf
000002b0: cffa 23bf b64b 273f 73a2 283f 8436 24bf
000002c0: afa8 1f3f 2f08 123f dcde 173f fb2e 0bbf
000002d0: b1a3 0cbf 3551 27bf 53f2 203f 922b 23bf
000002e0: c1f1 123f 8dd4 263f b04f 21bf 249a 1e3f
000002f0: c24d 0c3f f7b9 25bf d02c 29bf 0ca3 13bf
00000300: 99cb 26bf ac07 0dbf 48f6 15bf 41f1 0e3f
00000310: 3129 0bbf cc82 1a3f 6232 1fbf c976 0fbf
00000320: dd91 0f3f 218f 23bf e0b6 123f 4fbb 163f
00000330: 1dac 0ebf f7d6 193f 5fde 0f3f a7a3 0c3f
00000340: 387d 1abf db7b 203f b1a6 29bf ff8d 14bf
00000350: a7a4 17bf 5728 143f 3c34 12bf 4142 21bf
00000360: 6241 123f 5aaa 20bf 1b37 1f3f 4f5d 0cbf
00000370: c93f 19bf 4393 14bf b44e 10bf 0ff6 223f
00000380: 0039 0d3f e791 1fbf 2ef3 13bf f734 0bbf
00000390: 7fe5 27bf 06d4 093f abde 153f 6233 203f
000003a0: 7ef6 16bf 8521 1bbf c2e9 0dbf 1550 24bf
000003b0: 9a02 123f 3d09 163f d322 0fbf a72b 25bf
000003c0: ea36 13bf d467 283f 990a 25bf 28ee 0fbf
000003d0: b610 0a3f 3484 293f 8021 153f 2687 0ebf
000003e0: 5585 0fbf ae3a 18bf 7975 263f e1e5 233f
000003f0: 9400 173f a7cf 1ebf b677 123f 85fb 163f

model.2.bias f4 [256]
-0.6144934 -0.5404884 0.57389164 0.6254416 0.6604802 0.6102304 0.53946483 0.5932365
-0.5563528 -0.59582925 0.59027815 0.6442866 0.6146955 -0.5946932 0.65605 0.63963675
-0.6001827 -0.59500194 -0.616448 0.6394359 -0.54873765 0.5381037 0.55094486 0.5830829
0.6310988 -0.6411061 -0.5795661 -0.5856587 -0.5706456 0.6321727 -0.59238964 0.60118926
0.5964378 0.6142145 0.6109127 0.5672385 0.64256495 0.6487005 -0.5557532 0.61213386
-0.5657482 -0.6592115 -0.59021705 0.57768583 -0.6269474 0.6573205 0.59631 -0.6626952
0.5764175 0.5937662 0.6426248 -0.5995658 -0.5569012 -0.6380319 0.5751032 0.5551509
0.6151786 0.6263717 -0.62429744 -0.60332 0.6371989 -0.65658134 0.65170443 -0.6501023
-0.62306786 -0.5643444 -0.64861023 0.5842982 -0.6367984 0.59725887 0.6587195 -0.5415199
0.59521985 0.6456907 -0.6461216 0.58165944 -0.5399025 -0.5706434 0.56284654 0.6101958
0.6143339 0.54534256 0.60024875 -0.5399049 -0.64350474 -0.5990101 0.55059165 -0.62179357
0.57142407 -0.5986211 -0.626646 -0.5985432 0.5779804 0.6510123 0.63531435 0.5804391
0.65400034 0.5850108 -0.62359464 0.6054944 0.5969019 0.5678813 0.5562792 -0.64475846
-0.5894906 0.5873488 0.57020193 -0.6261868 -0.5607136 -0.58475846 -0.56262094 0.6183781
-0.6455412 -0.63106805 -0.5884228 -0.6157378 -0.61380637 0.6592241 -0.5485864 -0.6411869
-0.6457939 -0.59156495 -0.61625713 0.5741757 -0.62444085 0.55717826 0.55626523 -0.57768434
-0.57604164 0.5780287 0.57281494 -0.5561115 0.6440643 -0.6420291 0.5875551 -0.55190337
0.6541275 0.63266915 0.6534705 0.5480656 -0.6053076 -0.54068166 0.5474199 0.615388
-0.5516875 -0.5718452 -0.62478375 0.5992697 0.65639704 0.6563729 -0.5492744 0.6161663
0.6312373 -0.649544 0.58575565 -0.65146935 0.6530886 0.6130291 0.57544637 0.645214
-0.5586191 0.6625843 0.6139478 0.6483494 -0.6599979 -0.54006535 -0.58101404 -0.5657083
-0.6053716 0.6432893 0.53883404 0.6413517 -0.5923614 0.6124329 0.6165589 0.5908348
0.5729644 0.5740833 -0.65621656 0.60972905 0.6200759 0.6598044 -0.59574115 -0.63692486
0.6618692 0.56787634 0.544161 -0.6478181 0.57231295 -0.5635022 -0.55055666 0.63947374
0.59000385 -0.61608833 -0.5953269 0.64203936 0.6620986 0.6598722 -0.5878045 0.6368449
-0.63443863 0.5691962 -0.6370076 -0.5432027 -0.63104254 0.5997784 0.5939233 0.5868683
-0.566952 0.60428494 -0.6208604 -0.62014073 0.58260065 0.6079734 0.59302664 -0.6240406
-0.5634613 -0.56006247 0.56436944 0.5523791 0.57548 -0.5969274 0.6050291 -0.58430177
-0.63641727 0.64942706 -0.58423233 -0.63117385 -0.6323932 0.58039016 -0.62182873 0.55831003
-0.6538737 -0.6515004 -0.55872786 -0.65706426 -0.5563621 0.62977195 0.66019917 0.6066909
-0.5743858 -0.6450834 -0.6366541 -0.6573487 0.595858 0.5737787 -0.59686977 -0.57033354
-0.62759477 -0.64129025 -0.6576938 -0.651344 -0.63368917 -0.5877627 -0.5977992 -0.60288924
00000000: 714f 1dbf 735d 0abf 90ea 123f f11c 203f
00000010: 3b15 293f 0f38 1c3f 5e1a 0a3f 59de 173f
00000020: 236d 0ebf 4488 18bf 781c 173f f7ef 243f
00000030: af5c 1d3f d03d 18bf e5f2 273f 3cbf 233f
00000040: 93a5 19bf 0c52 18bf 89cf 1dbf 12b2 233f
00000050: 127a 0cbf 2ac1 093f b90a 0d3f ec44 153f
00000060: b18f 213f 881f 24bf 725e 14bf bbed 15bf
00000070: d415 12bf 12d6 213f d9a6 17bf 8ae7 193f
00000080: 26b0 183f 293d 1d3f c664 1c3f 8b36 113f
00000090: 237f 243f 3c11 263f d745 0ebf ceb4 1c3f
000000a0: e0d4 10bf 16c2 28bf 7718 17bf 38e3 133f
000000b0: a07f 20bf 2846 283f c6a7 183f 65a6 29bf
000000c0: 1990 133f 1001 183f 0f83 243f 257d 19bf
000000d0: 1491 0ebf 0f56 23bf f739 133f 5f1e 0e3f
000000e0: 587c 1d3f e559 203f f5d1 1fbf 2e73 1abf
000000f0: 781f 233f b715 28bf 1ad6 263f 1b6d 26bf
00000100: 6081 1fbf e078 10bf 520b 26bf 9194 153f
00000110: 3805 23bf f5e5 183f d7a1 283f 0ca1 0abf
00000120: 5460 183f fc4b 253f 3a68 25bf a2e7 143f
00000130: 0d37 0abf b015 12bf b616 103f cb35 1c3f
00000140: fd44 1d3f 929b 0b3f e7a9 193f 3537 0abf
00000150: babc 24bf ba58 19bf 93f3 0c3f dd2d 1fbf
00000160: d948 123f 3b3f 19bf df6b 20bf 213a 19bf
00000170: 86f6 133f bea8 263f f6a3 223f a897 143f
00000180: 916c 273f 45c3 153f e6a3 1fbf ae01 1b3f
00000190: 90ce 183f ab60 113f 5068 0e3f e40e 25bf
000001a0: dbe8 16bf 7e5c 163f c1f8 113f c74d 20bf
000001b0: ed8a 0fbf bbb2 15bf ed07 10bf 074e 1e3f
000001c0: 3042 25bf ad8d 21bf e0a2 16bf fea0 1dbf
000001d0: 6a22 1dbf e9c2 283f 2970 0cbf d324 24bf
000001e0: c052 25bf cd70 17bf 07c3 1dbf 2efd 123f
000001f0: 5bdb 1fbf 3ca3 0e3f 6667 0e3f 1fe3 13bf
00000200: 7777 13bf b0f9 133f 00a4 123f 535d 0ebf
00000210: 66e1 243f 055c 24bf 036a 163f 8a49 0dbf
00000220: e674 273f 9bf6 213f d849 273f 074e 0c3f
00000230: 70f5 1abf 1d6a 0abf b623 0c3f 118a 1d3f
00000240: 643b 0dbf 7264 12bf d4f1 1fbf bd69 193f
00000250: a309 283f 0e08 283f 3f9d 0cbf 13bd 1d3f
00000260: c598 213f 8448 26bf 15f4 153f b2c6 26bf
00000270: d130 273f 7aef 1c3f 7450 133f bf2c 253f
00000280: a901 0fbf 209f 293f af2b 1d3f 3afa 253f
00000290: 9ff5 28bf b941 0abf 56bd 14bf 42d2 10bf
000002a0: a2f9 1abf 9cae 243f 07f1 093f a02f 243f
000002b0: ffa4 17bf 67c8 1c3f ced6 1d3f f340 173f
000002c0: cbad 123f 20f7 123f cffd 27bf 3417 1c3f
000002d0: 4bbd 1e3f f1e8 283f 7e82 18bf 820d 23bf
000002e0: 4370 293f 5860 113f 234e 0b3f 68d7 25bf
000002f0: 1a83 123f ae41 10bf 48f1 0cbf 8db4 233f
00000300: 7e0a 173f f7b7 1dbf 5867 18bf b15c 243f
00000310: 4b7f 293f 62ed 283f 5b7a 16bf 4408 233f
00000320: 926a 22bf d8b6 113f ee12 23bf 550f 0bbf
00000330: 018c 21bf 148b 193f 5b0b 183f 003d 163f
00000340: c423 11bf 6bb2 1a3f b5f0 1ebf 8bc1 1ebf
00000350: 5125 153f 25a4 1b3f 98d0 173f 20c1 1fbf
00000360: 003f 10bf 4160 0fbf 847a 103f b768 0d3f
00000370: a852 133f 3cd0 18bf 30e3 1a3f cd94 15bf
00000380: 3eec 22bf da40 263f 4090 15bf 9c94 21bf
00000390: 85e4 21bf 7394 143f 2b30 1fbf 68ed 0e3f
000003a0: 4464 27bf bbc8 26bf ca08 0fbf 5d35 28bf
000003b0: bf6d 0ebf bc38 213f d002 293f 1850 1b3f
000003c0: f30a 13bf 3024 25bf c3fb 22bf 0148 28bf
000003d0: 268a 183f 29e3 123f 75cc 18bf 6101 12bf
000003e0: 0daa 20bf 992b 24bf 9f5e 28bf 7bbe 26bf
000003f0: 7439 22bf 9e77 16bf 5e09 19bf f356 1abf

model.4.weight f4 [190, 256]
-141.11644 -141.15404 140.9423 140.89372 140.88232 140.68503 141.15318 141.0855
-141.18309 -141.1119 140.72073 140.74927 140.66263 -140.57686 141.0952 141.1993
-140.84572 -140.46892 -141.17155 140.8462 -141.09677 140.93517 141.0694 140.84442
141.09639 -141.08823 -141.05713 -140.85397 -141.05421 141.10876 -140.8344 140.94794
140.92216 140.58366 141.17325 140.90497 140.93114 141.08475 -141.19975 141.14276
-141.07559 -141.17596 -141.148 141.20357 -141.0981 141.07693 140.67899 -140.63208
140.76498 141.1313 140.93207 -140.68376 -141.19429 -140.74043 140.80473 140.90225
140.69417 141.13258 -140.77664 -141.20107 140.42183 -141.12108 140.6963 -140.71312
-140.79552 -140.75746 -140.83809 141.16655 -140.91617 140.77242 141.02585 -141.14754
141.19102 141.14699 -141.0844 140.84337 -140.84515 -141.11662 141.02539 140.87584
141.12022 141.10464 141.14618 -140.82123 -141.14066 -141.10767 140.81885 -141.16681
140.80525 -140.81415 -140.87312 -141.10301 141.18417 141.11172 140.75403 140.47917
141.08041 141.16316 -141.07722 141.17567 141.1775 140.86957 140.71759 -141.09218
-141.15582 141.15964 141.1419 -140.55719 -140.59045 -140.70082 -140.87183 141.14134
-140.9744 -141.16737 -141.15651 -140.8815 -140.8684 141.08244 -140.57343 -141.0922
-141.12904 -140.81158 -140.93251 141.0898 -140.87749 141.17549 140.82712 -141.16582
-140.95177 140.90329 140.50273 -140.5372 141.10735 -140.90385 140.80765 -141.2056
141.08672 140.7389 141.16551 140.7899 -140.54857 -140.84425 141.10735 141.10333
-141.1001 -141.10985 -140.70197 141.08836 140.89253 140.55807 -141.16156 141.08638
141.08722 -141.09691 140.54485 -140.9084 140.94017 140.88306 141.15625 141.1859
-141.15767 140.65933 140.99393 141.1387 -140.87506 -140.53635 -140.58856 -140.55215
-140.64589 140.83556 140.67514 141.18996 -140.53621 141.13753 140.84018 141.07411
140.82384 140.79527 -140.72144 140.8648 141.18538 141.19516 -140.58447 -141.05742
141.1741 141.15474 141.19118 -141.1043 141.16414 -141.18326 -141.07396 140.86877
140.73277 -141.18484 -140.53612 140.4898 140.8983 140.63367 -140.70387 141.05145
-141.14455 140.90851 -141.1392 -141.10487 -141.10063 140.75676 140.89334 141.11293
-141.10039 141.0698 -141.0974 -140.81192 141.1941 141.16035 141.06934 -140.83995
-140.8925 -141.12778 140.92177 141.11308 141.16255 -141.12692 140.87935 -141.1184
-141.18907 140.82918 -141.20583 -140.58736 -140.6602 140.86404 -140.89005 141.17624
-140.91754 -141.10269 -140.74426 -140.82947 -141.1315 141.18948 140.87299 140.81778
-141.07063 -141.12193 -141.12282 -141.14256 140.66603 140.81017 -140.84377 -141.15225
-141.04143 -140.80585 -141.13885 -140.85431 -141.0578 -141.10472 -140.78874 -140.79637
00000000: cf1d 0dc3 6f27 0dc3 3bf1 0c43 cbe4 0c43
00000010: e0e1 0c43 5eaf 0c43 3727 0d43 e315 0d43
00000020: df2e 0dc3 a51c 0dc3 82b8 0c43 d0bf 0c43
00000030: a2a9 0c43 ad93 0cc3 5f18 0d43 0533 0d43
00000040: 81d8 0cc3 0b78 0cc3 eb2b 0dc3 a1d8 0c43
00000050: c618 0dc3 67ef 0c43 c411 0d43 2cd8 0c43
00000060: ad18 0d43 9616 0dc3 a00e 0dc3 9eda 0cc3
00000070: e10d 0dc3 d81b 0d43 9bd5 0cc3 acf2 0c43
00000080: 13ec 0c43 6b95 0c43 5a2c 0d43 ace7 0c43
00000090: 5fee 0c43 b215 0d43 2333 0dc3 8c24 0d43
000000a0: 5a13 0dc3 0c2d 0dc3 e325 0dc3 1d34 0d43
000000b0: 1d19 0dc3 b213 0d43 d2ad 0c43 d0a1 0cc3
000000c0: d6c3 0c43 9d21 0d43 9cee 0c43 0baf 0cc3
000000d0: bd31 0dc3 8dbd 0cc3 03ce 0c43 fae6 0c43
000000e0: b5b1 0c43 f121 0d43 d2c6 0cc3 7933 0dc3
000000f0: fd6b 0c43 ff1e 0dc3 41b2 0c43 8fb6 0cc3
00000100: a7cb 0cc3 e9c1 0cc3 8dd6 0cc3 a32a 0d43
00000110: 8aea 0cc3 bdc5 0c43 9e06 0d43 c525 0dc3
00000120: e730 0d43 a125 0d43 9b15 0dc3 e7d7 0c43
00000130: 5cd8 0cc3 db1d 0dc3 8006 0d43 37e0 0c43
00000140: c71e 0d43 ca1a 0d43 6c25 0d43 3cd2 0cc3
00000150: 0224 0dc3 901b 0dc3 a0d1 0c43 b42a 0dc3
00000160: 25ce 0c43 6cd0 0cc3 85df 0cc3 5f1a 0dc3
00000170: 262f 0d43 9a1c 0d43 08c1 0c43 ab7a 0c43
00000180: 9614 0d43 c529 0d43 c513 0dc3 f92c 0d43
00000190: 712d 0d43 9cde 0c43 b4b7 0c43 9917 0dc3
000001a0: e427 0dc3 de28 0d43 5424 0d43 a48e 0cc3
000001b0: 2897 0cc3 69b3 0cc3 30df 0cc3 2f24 0d43
000001c0: 72f9 0cc3 d92a 0dc3 1128 0dc3 aae1 0cc3
000001d0: 4fde 0cc3 1b15 0d43 cc92 0cc3 9a17 0dc3
000001e0: 0921 0dc3 c4cf 0cc3 b9ee 0cc3 fd16 0d43
000001f0: a3e0 0cc3 ed2c 0d43 bed3 0c43 732a 0dc3
00000200: a7f3 0cc3 3ee7 0c43 b380 0c43 8689 0cc3
00000210: 7b1b 0d43 63e7 0cc3 c2ce 0c43 a234 0dc3
00000220: 3316 0d43 29bd 0c43 5f2a 0d43 37ca 0c43
00000230: 6f8c 0cc3 21d8 0cc3 7b1b 0d43 741a 0d43
00000240: a019 0dc3 1f1c 0dc3 b4b3 0cc3 9f16 0d43
00000250: 7de4 0c43 de8e 0c43 5c29 0dc3 1d16 0d43
00000260: 5416 0d43 cf18 0dc3 7b8b 0c43 8de8 0cc3
00000270: aff0 0c43 10e2 0c43 0028 0d43 972f 0d43
00000280: 5d28 0dc3 caa8 0c43 72fe 0c43 8223 0d43
00000290: 04e0 0cc3 4e89 0cc3 ac96 0cc3 5a8d 0cc3
000002a0: 59a5 0cc3 e7d5 0c43 d6ac 0c43 a130 0d43
000002b0: 4589 0cc3 3523 0d43 16d7 0c43 f912 0d43
000002c0: e7d2 0c43 97cb 0c43 b0b8 0cc3 64dd 0c43
000002d0: 752f 0d43 f631 0d43 a095 0cc3 b30e 0dc3
000002e0: 922c 0d43 9d27 0d43 f130 0d43 b31a 0dc3
000002f0: 052a 0d43 ea2e 0dc3 ef12 0dc3 68de 0c43
00000300: 97bb 0c43 522f 0dc3 3f89 0cc3 647d 0c43
00000310: f7e5 0c43 38a2 0c43 31b4 0cc3 2c0d 0d43
00000320: 0125 0dc3 94e8 0c43 a323 0dc3 d91a 0dc3
00000330: c319 0dc3 bbc1 0c43 b2e4 0c43 e91c 0d43
00000340: b319 0dc3 de11 0d43 ef18 0dc3 dacf 0cc3
00000350: b131 0d43 0d29 0d43 c011 0d43 07d7 0cc3
00000360: 7be4 0cc3 b620 0dc3 f9eb 0c43 f31c 0d43
00000370: 9d29 0d43 7e20 0dc3 1de1 0c43 4f1e 0dc3
00000380: 6730 0dc3 45d4 0c43 b134 0dc3 5d96 0cc3
00000390: 03a9 0cc3 32dd 0c43 dae3 0cc3 1e2d 0d43
000003a0: e4ea 0cc3 4a1a 0dc3 88be 0cc3 58d4 0cc3
000003b0: aa21 0dc3 8230 0d43 7cdf 0c43 5ad1 0c43
000003c0: 1512 0dc3 371f 0dc3 711f 0dc3 7f24 0dc3
000003d0: 81aa 0c43 67cf 0c43 01d8 0cc3 fa26 0dc3
000003e0: 9b0a 0dc3 4cce 0cc3 8c23 0dc3 b4da 0cc3
000003f0: cc0e 0dc3 cf1a 0dc3 ebc9 0cc3 dfcb 0cc3

model.4.bias f4 [190]
140.98495 -0.06647532 -140.8998 58.80852 -29.399073 -29.477947 58.59041 -29.449791
-29.311222 58.540493 -29.476519 -29.298502 56.750187 -29.70669 -28.26171 -29.722351
54.643776 -29.9363 -26.95824 53.010567 -30.157684 -26.096235 56.87157 -31.087574
-26.838709 56.856018 -31.017752 -26.81791 56.887238 56.883373 -30.988697 -26.873192
56.348747 -30.999813 -26.371738 55.562943 55.375607 -30.926981 56.35998 -30.87735
-26.39131 55.32377 -30.782492 -25.4839 55.291336 -30.817636 -25.524725 57.90951
-32.51733 -25.780819 57.818726 -32.616547 -25.63941 57.691887 -32.61073 -25.375328
57.563057 -32.569588 -25.469395 57.677063 -32.58474 -25.440037 57.55355 -32.53021
-25.47511 57.639175 -32.51598 -25.469383 57.54412 -32.586414 -25.458998 57.622726
-32.58402 -25.401442 57.681446 -32.661438 -25.33701 57.595604 -32.67967 -25.392727
57.883053 -32.526966 -25.753134 9.454307 -5.610872 -4.0265365 -30.752792 53.56153
-30.485838 -23.977827 57.7825 -32.570557 8.581404 -5.3419614 -3.5932117 81.43729
-162.71474 81.432014 -0.09228087 -50.928947 50.85854 -0.41577512 -50.766422 50.881245
-0.4060067 -50.725395 50.822067 -1.0367246 -49.401733 50.1676 -49.4626 -1.7343361
-48.006813 49.475964 -2.2574384 -46.92695 48.838985 -2.4458535 -48.355225 50.3607
-2.4045494 -48.319416 50.44324 -2.403864 -2.4758573 -48.275936 50.397167 -2.568706
-47.77315 50.11209 -2.472828 -2.3497376 -47.780087 -2.5130355 -47.73134 50.039173
-2.6964712 -46.735207 49.49427 -2.7221613 -46.68128 49.37791 -3.3260374 -47.98925
51.92102 -3.343499 -47.792664 51.878662 -3.3666399 -47.569393 51.83674 -3.4246194
-47.62206 51.743923 -3.4599366 -47.54801 51.785187 -3.4619832 -47.558155 51.778008
-3.3540149 -47.501614 51.739872 -3.3538625 -47.605446 51.761623 -3.4651372 -47.552017
51.871243 -3.4578102 -47.47981 51.84291 -3.4946556 -47.55604 51.871952 -3.3272674
-47.976276 51.930157 -1.0201355 -7.6366763 8.540247 -46.624752 -3.0882568 -44.913483
48.365185 -3.3188124 -47.508114 -1.0080192 -6.9674945 7.944344
00000000: 26fc 0c43 3624 88bd 59e6 0cc3 ed3b 6b42
00000010: 4d31 ebc1 d6d2 ebc1 945c 6a42 2c99 ebc1
00000020: 627d eac1 7729 6a42 e9cf ebc1 5563 eac1
00000030: 3100 6342 4da7 edc1 fb17 e2c1 60c7 edc1
00000040: 3a93 5a42 8b7d efc1 7aaa d7c1 d20a 5442
00000050: f042 f1c1 17c5 d0c1 7d7c 6342 5ab3 f8c1
00000060: adb5 d6c1 906c 6342 5b24 f8c1 148b d6c1
00000070: 888c 6342 9388 6342 dae8 f7c1 4cfc d6c1
00000080: 1e65 6142 9eff f7c1 52f9 d2c1 7440 5e42
00000090: 9f80 5d42 756a f7c1 9f70 6142 d004 f7c1
000000a0: 6721 d3c1 8a4b 5d42 8b42 f6c1 07df cbc1
000000b0: 542a 5d42 858a f6c1 a332 ccc1 57a3 6742
000000c0: bf11 02c2 1e3f cec1 6046 6742 5877 02c2
000000d0: 831d cdc1 7ec4 6642 6371 02c2 ac00 cbc1
000000e0: 9240 6642 4247 02c2 52c1 cbc1 50b5 6642
000000f0: c656 02c2 3285 cbc1 d636 6642 ef1e 02c2
00000100: 06cd cbc1 848e 6642 5d10 02c2 4cc1 cbc1
00000110: 2e2d 6642 7d58 02c2 07ac cbc1 ac7d 6642
00000120: 0956 02c2 2736 cbc1 cdb9 6642 50a5 02c2
00000130: 32b2 cac1 e661 6642 fbb7 02c2 4e24 cbc1
00000140: 3f88 6742 9d1b 02c2 6b06 cec1 d744 1741
00000150: 438c b3c0 63d9 80c0 b805 f6c1 023f 5642
00000160: ffe2 f3c1 97d2 bfc1 4821 6742 4048 02c2
00000170: 6e4d 0941 59f1 aac0 2ef7 65c0 e4df a242
00000180: f9b6 22c3 31dd a242 c1fd bcbd 3eb7 4bc2
00000190: 256f 4b42 7ae0 d4be d110 4bc2 6586 4b42
000001a0: 1ce0 cfbe cee6 4ac2 cc49 4b42 64b3 84bf
000001b0: 609b 45c2 9fab 4842 b4d9 45c2 bafe ddbf
000001c0: fa06 40c2 63e7 4542 df79 10c0 32b5 3bc2
000001d0: 1f5b 4342 dd88 1cc0 c06b 41c2 5b71 4942
000001e0: 23e4 19c0 1547 41c2 e1c5 4942 e8d8 19c0
000001f0: 7274 1ec0 8f1a 41c2 b396 4942 ae65 24c0
00000200: b517 3fc2 c872 4842 d042 1ec0 1a62 16c0
00000210: cf1e 3fc2 93d5 20c0 e4ec 3ec2 1d28 4842
00000220: fc92 2cc0 daf0 3ac2 22fa 4542 e437 2ec0
00000230: a1b9 3ac2 fb82 4542 ccdd 54c0 fef4 3fc2
00000240: 20af 4f42 e3fb 55c0 b02b 3fc2 c083 4f42
00000250: 0777 57c0 0f47 3ec2 d258 4f42 f72c 5bc0
00000260: fd7c 3ec2 c7f9 4e42 9a6f 5dc0 2a31 3ec2
00000270: 0824 4f42 2291 5dc0 8d3b 3ec2 ae1c 4f42
00000280: 2ea8 56c0 a701 3ec2 a1f5 4e42 afa5 56c0
00000290: fa6b 3ec2 e70b 4f42 cfc4 5dc0 4435 3ec2
000002a0: 277c 4f42 c34c 5dc0 53eb 3dc2 245f 4f42
000002b0: 70a8 5fc0 6339 3ec2 e17c 4f42 f3f1 54c0
000002c0: b5e7 3fc2 7bb8 4f42 cd93 82bf a75f f4c0
000002d0: daa4 0841 bf7f 3ac2 00a6 45c0 68a7 33c2
000002e0: f375 4142 6c67 54c0 4f08 3ec2 c606 81bf
000002f0: b7f5 dec0 1138 fe40
