results_ann/37Bus/pinn_model0.01.pth (torch, 747561 bytes, 6 tensors)

model.0.weight f4 [256, 234]
000000 40 b7 4c 3d 04 3f 5e 3d 38 eb 7a bc 8e f8 75 3d
       0.04997945 0.054259315 -0.01531487 0.060051493
000010 10 ac 6a bc 08 21 58 3c b9 5c 02 bd ca 40 1d 3d
       -0.014323249 0.013191469 -0.03182671 0.038391866
000020 9c 0b 6c 3d 6a 70 44 bd 46 bd 68 3d 40 75 48 3c
       0.05762826 -0.04795877 0.05682113 0.012234986
000030 8a d3 45 3d c0 0d 11 3c d0 1c 01 3d 30 39 17 bc
       0.048297442 0.008853376 0.03152162 -0.009229943
000040 56 6a 4e 3d c0 4f 1e 3c 78 01 fa bc 50 81 88 3c
       0.05039438 0.009662569 -0.030518278 0.016663224
000050 be bc f6 bc 20 36 fb bb 52 82 d9 bc 76 a0 31 3d
       -0.030119296 -0.0076663643 -0.0265514 0.043365918
000060 65 5d 53 bd 44 e2 f6 bc 32 38 97 bc c2 ff 20 bd
       -0.05160274 -0.030137189 -0.018459413 -0.03930641
000070 e0 2d ca 3b 7f 3b 84 bd ec d1 71 3d f8 74 63 bd
       0.0061700195 -0.064566605 0.059038088 -0.055531472
000080 96 b8 4e 3d 80 3e 32 3c 68 e3 ad bc f6 76 25 3d
       0.050469004 0.010879159 -0.0212266 0.040396653
000090 c0 ec 26 3c ea 57 58 3d c0 2c ea 3b 1e e4 a8 bc
       0.010188282 0.052818216 0.007146448 -0.020616587
0000a0 38 e3 8f 3c 60 39 91 bc 84 61 e1 3c c6 10 6f 3d
       0.017564401 -0.017727554 0.02751232 0.058365606
0000b0 92 c8 1a 3d 38 1e ea bc 14 92 1a 3d d0 a3 3f 3c
       0.037788935 -0.028578863 0.037736967 0.011696771
0000c0 da fa 07 3d 15 34 23 bd e7 87 84 bd 24 e8 ce bc
       0.033198215 -0.03984459 -0.06471234 -0.025257178
0000d0 8a 61 4d bd f0 b5 5b 3d b0 3f 9a 3c a8 d2 dd 3c
       -0.05014185 0.053640306 0.018829197 0.027077988
0000e0 dc 5d a9 3c 80 0e 95 ba e2 8d 51 3d f8 3f 3e bd
       0.020674638 -0.0011372119 0.0511607 -0.046447724
0000f0 10 e0 86 3b 76 c2 36 bd 8c 21 a5 3c 20 6d b8 bc
       0.004116066 -0.044619046 0.020157598 -0.022512972
000100 2c 18 a4 3c 34 25 5f bc c8 14 5e 3d 44 b4 1e bd
       0.020031057 -0.01361971 0.054219037 -0.038746133
000110 a0 b1 1f bd 18 b4 1f bd 9a d6 70 3d 18 77 b2 3c
       -0.038987756 -0.03899011 0.05879841 0.021785304
000120 f7 d3 80 3d ab fa 5c bd 57 cb 84 bd 20 7d 51 bd
       0.06290429 -0.053949993 -0.064840965 -0.05114472
000130 31 1f 34 bd 04 e9 d8 3c 74 c2 bf 3c d6 7d 5e 3d
       -0.04397506 0.026478298 0.023408152 0.054319225
000140 b2 47 0a bd ad 89 36 bd d6 11 0e 3d 76 76 d8 bc
       -0.03375978 -0.04456489 0.03468498 -0.026423674
000150 24 83 22 3d 84 29 7e bc 5a 2c 19 3d 42 0b 50 bd
       0.039675847 -0.015512828 0.037395813 -0.050791986
000160 82 20 07 bd 10 45 a3 3c e0 6d 62 3c 98 89 88 bc
       -0.032989986 0.019930393 0.013820142 -0.016667172
000170 1a 9b 1f 3d 42 07 36 3d dc 2c 42 bd 5c f3 0e bd
       0.038966276 0.044440515 -0.047406062 -0.034900054
000180 62 2e 75 3d 58 b4 b4 bc 76 da bd bc 1f 8b 81 bd
       0.059858687 -0.02205865 -0.02317546 -0.06325363
000190 24 57 19 bd dc c6 85 3c 3c 5f 0d bc b6 5d 42 bd
       -0.03743662 0.016330175 -0.008628663 -0.04745265
0001a0 c0 fc c8 3a 91 e7 36 bd 84 2b 63 bd 94 72 13 bd
       0.0015334114 -0.044654433 -0.05546142 -0.035997942
0001b0 a6 59 6a bd d6 7e 2a bd 5f d4 85 3d a8 4b 4a 3c
       -0.0572144 -0.041624866 0.06534647 0.012347139
0001c0 30 07 a5 3c 3a bd 79 bd 3d dc 2f bd e8 40 b2 bc
       0.020145029 -0.060971476 -0.042934645 -0.021759465
0001d0 70 7b 27 3c 74 9c 6b bd 96 be e6 bc 44 4d 20 bd
       0.010222301 -0.057522252 -0.02816705 -0.039136186
0001e0 00 f6 3d 39 88 45 c7 bc 70 70 94 bb dc 71 35 bd
       0.00018116087 -0.024325147 -0.004530005 -0.044298038
0001f0 b6 ca 37 bd c4 36 1c bd 4e 4f b7 bc 46 57 53 bd
       -0.044871055 -0.038138166 -0.022376683 -0.051596902
000200 10 83 60 3d e4 90 54 bc 18 62 66 3d 60 dc a6 3c
       0.05481249 -0.012973998 0.056245893 0.020368755
000210 dd bd 62 bd 52 4d 39 3d 02 59 93 bc 20 48 cd bc
       -0.05535685 0.045239754 -0.017986778 -0.025058806
000220 4e 43 5e bd a4 19 85 bd 60 38 99 3c 2c f7 69 bc
       -0.054263406 -0.06499031 0.01870364 -0.014280122
000230 4c 7e d0 3c 79 be 5b bd b4 cb 46 3d 96 8d 44 bd
       0.025450848 -0.053648446 0.04853411 -0.04798659
000240 58 f1 38 bc 08 b6 5f 3c cc 3b 0a 3d 26 2b 58 3d
       -0.01128801 0.0136542395 0.033748433 0.052775525
000250 08 ec 73 3d e0 50 54 bd 58 c6 86 3c 2a 58 e6 bc
       0.05955127 -0.05183494 0.016452 -0.028118212
000260 28 be ea bb 2a 6b 48 bd 22 e5 73 3d 83 86 44 bd
       -0.0071637817 -0.048930325 0.05954469 -0.047979843
000270 54 1b 0f 3d a8 34 bc 3c e0 05 ae 3c fa c3 10 bd
       0.03493817 0.022974327 0.021243036 -0.035343148
000280 68 62 73 3d 68 5d 6b 3c d8 c7 09 3c dc f7 6b bd
       0.05942002 0.0143655315 0.008409463 -0.057609424
000290 f4 ce e0 3c 30 ae 20 bc 9a 56 f5 bc b0 fe 65 3d
       0.027442433 -0.009807155 -0.029948521 0.056151092
0002a0 60 ca 6e 3c bf 25 14 bd 96 86 07 bd a0 98 4c bb
       0.014574617 -0.03616881 -0.033087336 -0.0031218901
0002b0 4e 82 15 3d 70 d8 88 bc 84 c7 18 bd 3e 63 b7 bc
       0.03650122 -0.016704768 -0.037299648 -0.02238619
0002c0 28 0a 48 bd 90 fc be 3c 90 42 4f 3d 6f 15 7c bd
       -0.04883781 0.02331379 0.05060059 -0.06154388
0002d0 e0 c0 78 3c 1a 53 0a 3d c0 36 42 3c f2 b6 be bc
       0.015182704 0.033770658 0.011853874 -0.023280594
0002e0 dc c1 0b 3d a4 b6 0c 3d 98 3f c8 3c 18 35 3c bc
       0.034120426 0.034353867 0.024444386 -0.011487268
0002f0 f6 ce 8d bc 40 2a e5 3b d4 34 3d bc 7c 96 9f bc
       -0.0173106 0.006993562 -0.01154824 -0.019480936
000300 12 28 2b 3d bc 1d 66 3d 38 10 d4 bb 54 ce 6f bc
       0.04178626 0.0561807 -0.00647166 -0.014636595
000310 00 11 7a 3a b0 cd 7f bb 38 bf 80 3c a8 12 96 3c
       0.00095392764 -0.0039032511 0.01571618 0.018319443
000320 c8 32 73 bd 46 a1 c5 bc ea 7d 61 3d 14 9e d0 3c
       -0.0593746 -0.024124753 0.05505172 0.025466003
000330 40 16 55 bb b7 6f 21 bd be d1 23 bd a1 da 6f bd
       -0.0032514483 -0.03941318 -0.039994948 -0.05855811
000340 da 8f ae bc 98 d9 b4 3c 68 bb 2a 3d 74 40 f7 3c
       -0.021308828 0.022076413 0.04168263 0.0301821
000350 34 b0 6c bd ed 05 21 bd c8 07 29 bc b9 82 81 3d
       -0.057785228 -0.039312292 -0.010316797 0.063237615
000360 a8 ef 1a 3c a0 af 8a bc 58 8e dd 3c 00 f9 cb bc
       0.009456553 -0.016929448 0.027045414 -0.024899006
000370 cb 4f 2d bd fc 6f 43 3d 64 81 f3 bc 04 b6 56 bc
       -0.042312425 0.04771422 -0.029724784 -0.013104919
000380 b3 2f 85 bd de 34 33 3d 00 de 4a 3d 10 2c c3 3c
       -0.065032385 0.04375159 0.049528122 0.023824722
000390 71 b4 3a bd 29 22 84 bd e2 78 59 bd ee ab 47 3d
       -0.04558224 -0.06451828 -0.0530938 0.04874795
0003a0 14 8e 00 3d 12 53 61 3d 00 46 0c 3d b4 89 87 3c
       0.031385496 0.055010863 0.034246445 0.016545154
0003b0 00 d1 27 ba d4 a2 4b bd a3 69 65 bd dc 73 7a bd
       -0.0006401688 -0.049715832 -0.056008946 -0.06114565
0003c0 84 39 db 3c a8 76 03 bd 7c 8d 57 bc 7a 19 1a bd
       0.026760824 -0.03209558 -0.013156291 -0.037621953
0003d0 ec 2b 43 bc 29 76 3c bd 0c f6 2e bd f0 a3 b1 3c
       -0.011912327 -0.046011124 -0.042715117 0.021684617
0003e0 2c 28 9f bc 5e 4d 25 3d 50 cd ab bc 3e 6c 44 bd
       -0.019428335 0.040356986 -0.020971924 -0.04795479
0003f0 d4 f9 3c bc 40 cc 01 bd 18 d7 a3 bc f9 e8 7e bd
       -0.011534173 -0.03168893 -0.020000026 -0.0622339

model.0.bias f4 [256]
000000 12 38 77 3d 34 5f 0e bc b7 51 07 bd d9 29 0c bf
       0.060356207 -0.00868969 -0.033036914 -0.54751354
000010 65 08 21 bf 5c 0f d9 3c b1 2c 19 3f e8 f5 01 bd
       -0.62903434 0.026496582 0.5983382 -0.031728655
000020 50 ef 4f 3c 62 49 33 3d 8c cb 41 bd 73 dd e8 3e
       0.012691334 0.043771155 -0.047313258 0.45481452
000030 be 37 2a bd 3f a8 66 bd 19 7e 76 bd 64 6c 9d 3c
       -0.041557066 -0.056312796 -0.06017885 0.019216724
000040 80 68 2e 3d bd 5b 7a bd 50 82 46 3d ac 7e 50 3d
       0.042580128 -0.061122645 0.04846412 0.050902054
000050 30 8e ce bb 3e 14 d2 bc 22 26 4a 3d c6 8c 1e 3d
       -0.006303571 -0.025644418 0.049352773 0.03870847
000060 3c dc 4a bd 7f fa 2d bd 94 09 60 3d f0 2b ad 3b
       -0.049526438 -0.04247522 0.054696634 0.005284779
000070 be 85 91 bc 3c 94 9f bc ba ed 09 bf 90 74 0a bc
       -0.017763969 -0.019479863 -0.53878367 -0.008450642
000080 4c ec 68 3d 20 a9 53 3b e4 52 0d 3e 8e 96 1d bf
       0.056865975 0.0032296851 0.13801152 -0.61557853
000090 1c 64 9a 3c 88 57 1c 3d 08 da 82 3c f0 27 78 3c
       0.018846564 0.038169414 0.015973106 0.015146241
0000a0 69 82 0a bd cc 1a 56 bd ce 79 f9 bc 20 cb 67 3d
       -0.033815775 -0.05227165 -0.030453589 0.0565902
0000b0 f8 64 6f 3d 50 d0 2d 3c 22 bc 66 3d 59 13 35 bd
       0.0584459 0.010608748 0.05633176 -0.044207904
0000c0 fe f5 00 bd 60 31 2e bb 46 59 0d 3f 48 92 52 3d
       -0.031484596 -0.0026579723 0.55214345 0.051409036
0000d0 3c 33 b9 bc 22 e5 24 bd 69 3b 83 3d a8 7d d1 bb
       -0.022607438 -0.04025758 0.06407816 -0.006393153
0000e0 5c 03 47 bd af 28 21 3f c4 3e db bc bb d7 53 bd
       -0.048587188 0.62952703 -0.026763327 -0.05171941
0000f0 90 95 cd bc 74 bb ec 3c 58 20 36 bd e6 17 2a 3d
       -0.025095731 0.028897978 -0.04446444 0.041526698
000100 70 3d 21 3c 6c c9 40 bd 60 ff 1c 3c 24 ce 65 bd
       0.009841308 -0.04706709 0.0095823705 -0.056104794
000110 d2 59 67 3d 76 95 85 bd 64 68 28 bd 16 38 5d 3d
       0.056482144 -0.06522648 -0.04111518 0.054008566
000120 63 e4 07 bd c2 25 c3 bc e0 87 f7 3c 6a 7a 6e 3d
       -0.03317679 -0.023821715 0.030216157 0.058222212
000130 78 c1 36 3c 5c 34 36 bd 82 5e 66 3d 19 e2 17 bd
       0.011154525 -0.044483528 0.056242473 -0.037080858
000140 80 91 f7 3a 62 89 c3 bc 40 1d 0d 3c 48 02 c0 3c
       0.0018887967 -0.02386922 0.008612931 0.023438588
000150 aa 52 6e 3d 76 3a 80 bd 74 4b 17 3d 0c 74 2c bd
       0.058184303 -0.062611505 0.036937192 -0.04210286
000160 c8 35 f4 bb 60 00 19 3c df b6 80 3d c7 e1 7a bd
       -0.0074527003 0.009338468 0.0628488 -0.061250474
000170 34 ce 1d 3f 0a c4 7b bd 62 ef 52 3d 14 ea a4 3c
       0.61642766 -0.061466254 0.051497824 0.020131148
000180 ee 94 90 bc 78 90 11 bd 40 f1 28 3c f6 9e 31 3d
       -0.01764914 -0.035538167 0.010311425 0.043364488
000190 48 6f 5c 3d 64 64 9d 3c b5 71 6c bd d3 e0 71 bd
       0.053817064 0.019212909 -0.057725627 -0.0590523
0001a0 40 13 96 ba a5 ec 13 bf d4 dd 03 bd a8 db e8 3c
       -0.0011449829 -0.57782966 -0.032193974 0.028425053
0001b0 7b f1 1e bf 04 bf 2a 3d 06 ea 28 bd 82 b2 41 3d
       -0.6208722 0.041686073 -0.041238807 0.04728938
0001c0 a4 82 3c 3d 76 87 97 bc b4 12 80 3c 90 78 f2 3b
       0.046023026 -0.01849721 0.015633918 0.007399626
0001d0 00 43 1b bb 68 a9 65 bd 40 0c eb bc 00 0b 1c bf
       -0.0023691058 -0.05606976 -0.028692365 -0.60954285
0001e0 14 53 2d bd d4 98 78 bc db 43 81 bd 52 09 21 3d
       -0.042315558 -0.015173156 -0.063117705 0.03931553
0001f0 38 e9 32 3d 1c 7c 91 3c 29 4b 28 3f 8e db 30 bd
       0.043679446 0.017759375 0.65739685 -0.043178134
000200 c8 a3 82 3c 8e e6 16 bf 96 0c d3 bc 40 e5 0c 3b
       0.015947238 -0.5894555 -0.025762837 0.0021498948
000210 7a b4 c9 bc 72 7d bc bc 10 7e ff 3b 3c 03 b4 bc
       -0.02462219 -0.023009036 0.0077970102 -0.021974199
000220 d2 93 1b 3f 8f 5e 35 bd 5c dc 8c 3c 40 1a 60 bd
       0.6077243 -0.04427963 0.01719492 -0.054712534
000230 92 86 5f 3d d7 a8 84 3d b8 43 3d 3c 6b c7 02 bf
       0.054571696 0.06477516 0.01155179 -0.5108554
000240 00 d0 a7 b9 44 9a a8 bc 2a 27 02 3d 98 34 16 bf
       -0.00032007694 -0.020581372 0.03177563 -0.58674
000250 92 36 18 3d c0 14 14 3f 1e 19 7a 3d 12 35 0e 3d
       0.037161417 0.5784416 0.06105911 0.03471858
000260 52 39 83 bd 00 75 e0 3a 0d c0 0e bf ea 0f 9a bc
       -0.06407417 0.0017124712 -0.55761796 -0.018806417
000270 e8 17 d6 3c d0 bf 9f 3b 22 3b 0e 3f b8 d1 18 bd
       0.026134446 0.0048751608 0.5555898 -0.03730938
000280 f0 19 b2 3c 7a 32 82 bd 60 d6 52 3d 04 0d 36 3d
       0.021740884 -0.06357284 0.051473975 0.044446006
000290 40 3b 6d bc 0e 86 6e bd ac 7a 09 3d 80 0e 94 bc
       -0.014479458 -0.058233313 0.033564255 -0.01807332
0002a0 70 a7 89 3c 6f a5 39 bd ac d6 fc bc 20 6c 19 bd
       0.016803473 -0.045323785 -0.030864082 -0.03745663
0002b0 b0 fd 16 3f ee 6a 23 3f a8 42 f0 bb 10 8c 93 3b
       0.58980846 0.63835037 -0.007332165 0.0045027807
0002c0 74 3f 2a bf 40 db 2d 3d c9 60 06 bd aa 2f 26 3d
       -0.6650307 0.04244542 -0.032807145 0.0405728
0002d0 8d 30 4e bd c0 79 9b ba f6 25 36 3d 58 2d 73 3d
       -0.05033927 -0.0011861846 0.044469796 0.059369415
0002e0 0a 78 61 3d 4a 42 48 bd 58 3e e7 3c 10 ee 94 3c
       0.05504612 -0.048891343 0.02822797 0.018179923
0002f0 24 89 07 3d f4 32 e3 3c 28 7d 0c bd 2d 00 81 3d
       0.033089772 0.027734257 -0.034299046 0.06298862
000300 e9 db 85 3d 48 19 c1 3c 0a d4 12 bd 7c 7a 46 bc
       0.06536085 0.023571625 -0.035846747 -0.0121141635
000310 a0 e8 57 bc 78 0a a2 bb d0 bd 20 3c 74 84 fe 3c
       -0.013178021 -0.0049450956 0.00981088 0.031069018
000320 c8 c4 3c bc 70 c5 38 bd 3c 88 25 bd 00 e9 d1 39
       -0.011521526 -0.045110166 -0.040413126 0.00040037185
000330 f0 f3 64 3d fe 5e 48 bd 9c de 93 bc 86 d5 26 bd
       0.0558967 -0.048918717 -0.018050484 -0.040730976
000340 3d 40 6e bd 16 0d 85 bc d8 b0 70 3c dc 67 8a bc
       -0.05816673 -0.016241591 0.0146906 -0.016895227
000350 13 3e 10 3f 1a 28 16 bf 30 2e d9 bc 12 3f 7a 3d
       0.5634472 -0.5865494 -0.026511282 0.061095305
000360 a4 dc 86 3c e5 cc 80 3d 7e 5a af bc 34 88 a5 3c
       0.016462632 0.062890805 -0.021405455 0.020206548
000370 40 bc 40 3b 1c 5c ee bc 00 8d db 3a d2 a3 27 bf
       0.002940908 -0.029096656 0.0016750395 -0.65484345
000380 94 29 f4 bc ae 12 02 3d 8a 65 81 bd 64 bd d7 bc
       -0.029804982 0.031756096 -0.06318195 -0.026335426
000390 ea b9 2e bd ba e3 78 3d 04 36 1b bc 28 20 15 bc
       -0.04265777 0.060764052 -0.009473328 -0.009101905
0003a0 fa 0b 40 bd 80 6d 33 3c 0c e1 6f 3d d0 72 cc 3b
       -0.04688642 0.0109514 0.05856423 0.0062392727
0003b0 01 a9 34 bd bb 85 23 3f 80 14 8e 3b a2 12 d9 bc
       -0.044106487 0.6387593 0.00433594 -0.026498143
0003c0 ac 30 14 bc 62 e2 a4 bc 32 27 65 bd d8 1f 3b 3c
       -0.009044807 -0.020127479 -0.055945583 0.011421166
0003d0 20 0a 6e 3c 4a a3 70 3d 94 99 b3 bc cc 26 33 bd
       0.014528781 0.058749475 -0.021923818 -0.04373817
0003e0 ac 21 b4 3c fc ed 28 3d c8 b7 cf 3c b9 47 7b bd
       0.021988712 0.041242585 0.025356188 -0.061347697
0003f0 c5 25 13 bf 24 14 09 3d de 15 3d bd 8b 68 18 3f
       -0.57479507 0.033466473 -0.046163432 0.5953452

model.2.weight f4 [256, 256]
000000 a8 43 25 3f 1b 28 25 bf f1 3c 16 bf f5 9a 18 bf
       0.6455636 -0.6451432 -0.5868674 -0.59611446
000010 06 28 18 3f 62 92 0d 3f b6 c4 1c bf 86 4e 27 bf
       0.5943607 0.5530149 -0.6123766 -0.6535419
000020 99 3a 26 bf 01 03 16 bf 22 23 29 bf 0d 6e 25 bf
       -0.6493316 -0.58598334 -0.66069233 -0.6462105
000030 de 6c 23 bf 89 ba 25 3f da 11 20 3f 78 2e 26 3f
       -0.63837993 0.64737755 0.6252724 0.64914656
000040 dc f3 28 bf 47 80 26 bf a5 55 1e bf 5d 6b 0b bf
       -0.659971 -0.65039486 -0.61849433 -0.544607
000050 d6 6a 19 3f b5 d0 27 3f 28 e9 20 bf c6 b4 1e 3f
       0.59928644 0.65552837 -0.6285577 0.6199459
000060 32 ef 27 bf c3 99 29 bf 24 e8 24 3f a7 46 29 bf
       -0.6559936 -0.66250247 0.6441672 -0.6612343
000070 2c 35 1e 3f 7a 60 28 3f 8d 91 0d 3f 0b cf 09 bf
       0.61799884 0.6577221 0.5530022 -0.5383155
000080 01 ec 10 3f a7 a1 28 bf 50 8e 13 3f 05 53 10 3f
       0.56610113 -0.6587166 0.57639027 0.5637668
000090 ca 26 20 bf f0 95 0b 3f 69 43 16 3f 57 88 21 3f
       -0.6255919 0.5452566 0.5869661 0.63098663
0000a0 82 d1 18 3f c8 1d 24 3f 2b b2 27 3f 0a 10 19 bf
       0.59694684 0.6410794 0.6550624 -0.597901
0000b0 86 cc 11 bf ce c7 27 3f 47 33 0e bf d1 6b 0c bf
       -0.56952703 0.6553925 -0.55546993 -0.54852015
0000c0 d0 5a 0b 3f 79 3c 28 bf 50 c4 15 3f fd 0b 16 bf
       0.54435444 -0.65717274 0.58502674 -0.5861204
0000d0 c6 6b 10 3f f6 01 0d 3f be 4c 13 bf a0 52 17 bf
       0.5641445 0.5508112 -0.57538974 -0.5911045
0000e0 4a 39 18 bf 66 6f 13 bf 2b 68 1f bf dc a5 1f 3f
       -0.59462416 -0.57591856 -0.6226832 0.62362456
0000f0 bd 95 12 3f 8d a6 0c 3f 92 0e 17 3f 36 d2 28 3f
       0.5725973 0.54941636 0.5900661 0.65945756
000100 68 f3 24 3f a7 d9 1f 3f 33 00 28 bf ba 7f 22 3f
       0.6443391 0.62441486 -0.65625304 0.63476145
000110 aa e0 26 bf 2f 10 1a bf e3 25 19 3f c8 91 18 3f
       -0.6518656 -0.60180944 0.59823436 0.59597445
000120 a1 d3 0c 3f 9f 31 14 bf c3 d5 1d 3f b8 6d 20 bf
       0.5501042 -0.57888216 0.616543 -0.6266742
000130 bf b3 23 3f cc 3d 1f 3f 9f db 1e bf 1b 51 0a 3f
       0.63946146 0.6220367 -0.62053865 0.5403001
000140 f0 5b 14 3f 82 80 1e bf b1 63 16 3f a9 8b 28 3f
       0.57952785 -0.6191484 0.58745867 0.65838104
000150 e2 c5 23 3f 6a 46 1c bf d1 1f 25 bf 2c 23 20 3f
       0.6397382 -0.61044943 -0.64501673 0.6255367
000160 b8 ed 20 bf 8b 4c 0b 3f c3 2a 0b bf f6 9d 0e 3f
       -0.6286273 0.5441367 -0.54362124 0.5570978
000170 96 be 0c 3f 45 3b 26 3f 8e 1e 10 3f d2 fe 18 bf
       0.5497831 0.6493419 0.5629662 -0.59763825
000180 83 b1 14 bf 7b 91 0a bf 71 41 23 3f 7e 72 25 3f
       -0.5808336 -0.54128236 0.6377173 0.64627826
000190 ad 94 0e bf 64 c2 11 bf f1 05 1a 3f b9 df 13 bf
       -0.5569561 -0.5693724 0.60165316 -0.5776325
0001a0 18 e9 1a bf 03 de 10 3f 5c f7 24 3f 87 11 15 bf
       -0.6051192 0.56588763 0.6443994 -0.5822987
0001b0 e0 dd 26 3f 4b 83 20 3f 9d 7d 10 bf 5f cf 1d bf
       0.65182304 0.6270034 -0.5644167 -0.6164455
0001c0 ea f5 1e bf 85 be 19 bf 4e ba 16 3f a7 eb 28 bf
       -0.62093985 -0.60056335 0.5887803 -0.65984577
0001d0 9e fc 1a bf 70 50 1e bf df 3a 0a 3f 5b b7 23 bf
       -0.60541713 -0.6184149 0.5399608 -0.63951653
0001e0 af 92 1f 3f dd 92 0e 3f 49 6a 16 3f 28 94 1a 3f
       0.62333196 0.55692846 0.5875593 0.6038232
0001f0 c0 00 0d 3f a9 c6 16 3f ff 28 11 3f 9c 02 20 bf
       0.5507927 0.5889688 0.5670318 -0.6250398
000200 ad c1 0d 3f 44 4d 16 bf e2 49 26 3f 9c 3c 1f 3f
       0.5537365 -0.5871165 0.64956486 0.6220186
000210 61 f2 28 3f 17 00 1d 3f bd 10 27 3f cc 25 0a bf
       0.6599484 0.6132826 0.65259916 -0.53963923
000220 02 3e 29 bf 2d f1 10 3f a8 bb 13 3f 4e de 09 bf
       -0.6611024 0.56618005 0.57708216 -0.53854835
000230 99 a5 0c 3f 86 ef 17 bf ef 14 23 bf b8 bb 24 bf
       0.5494018 -0.5934986 -0.6370382 -0.64348936
000240 a0 35 11 bf 7c 1f 0e 3f cb 08 1b 3f 31 27 18 3f
       -0.5672245 0.5551679 0.6056029 0.594348
000250 80 ef 0a bf 5f 77 0f bf 37 dd 11 3f f1 ec 0a bf
       -0.542717 -0.5604152 0.5697817 -0.54267794
000260 49 97 20 3f 7a 25 24 bf d8 18 0e bf 1a cd 1c bf
       0.6273084 -0.64119685 -0.5550666 -0.6125046
000270 93 01 27 bf 93 6c 1b 3f 56 67 0a 3f ef 44 21 3f
       -0.6523678 0.60712546 0.5406393 0.6299581
000280 df 93 21 bf b3 13 14 3f 62 ea 28 bf 7e 7d 0c 3f
       -0.6311626 0.5784256 -0.6598264 0.54878986
000290 30 e9 26 3f 7b 85 21 3f 89 19 1d 3f 47 a2 1a 3f
       0.65199566 0.630943 0.6136709 0.60403866
0002a0 c5 e4 10 bf c6 9f 14 3f c9 a1 10 3f ed 01 12 bf
       -0.56599075 0.58056295 0.56496865 -0.5703419
0002b0 69 23 13 3f be 6f 23 3f 53 6d 13 bf 66 88 10 3f
       0.57475907 0.6384238 -0.5758869 0.5645813
0002c0 79 25 1d bf 48 3f 0f 3f 29 43 0d 3f 7a c9 1d 3f
       -0.61385304 0.55955935 0.55180603 0.61635554
0002d0 90 ac 29 3f ef 9d 18 3f 7e 33 29 3f 49 5b 1d 3f
       0.66278934 0.5961599 0.66094196 0.61467415
0002e0 9e 35 0c bf 87 46 16 3f 50 18 11 bf c7 3a 20 3f
       -0.54769313 0.58701366 -0.5667772 0.6258969
0002f0 7d 60 28 bf 05 96 1e 3f 67 8f 1b 3f 68 dc 10 3f
       -0.6577223 0.6194766 0.6076569 0.56586313
000300 73 df 15 3f f3 c8 19 3f 3e 69 1f bf cc 68 0a bf
       0.5854408 0.6007225 -0.6226996 -0.5406616
000310 84 f2 28 bf 8d 0b 0b 3f 79 3e 1c bf 6b 78 0e bf
       -0.6599505 0.543145 -0.61032826 -0.55652493
000320 58 93 18 bf d9 14 21 bf 5c e3 09 3f c5 9a 16 bf
       -0.5959983 -0.62922436 0.5386255 -0.5882991
000330 f7 cb 22 3f 2e 84 26 3f b8 3b 14 3f 81 79 29 3f
       0.63592476 0.6504544 0.57903624 0.66201025
000340 42 8a 19 bf 45 dc 15 3f 80 6f 0b 3f 38 87 29 bf
       -0.5997659 0.5853923 0.5446701 -0.6622195
000350 26 b1 13 3f 7d 2e 13 3f 91 8e 0a 3f 90 df 1c bf
       0.5769218 0.5749281 0.5412379 -0.6127863
000360 fb 50 17 bf 7e 1d 0c 3f c9 dc 19 3f dc e1 15 3f
       -0.5910794 0.547325 0.60102516 0.5854776
000370 41 cc 0d bf 3b ed 1c bf 7d 01 0d 3f c6 5b 20 bf
       -0.5538979 -0.61299485 0.55080396 -0.62640035
000380 23 69 21 3f aa ef 0c bf 0f 98 10 3f 0a ff 14 bf
       0.6305105 -0.550532 0.56482023 -0.5820166
000390 cd 01 18 3f fe d7 1c bf c1 6e 26 bf 0e 98 0d 3f
       0.5937775 -0.6126708 -0.6501275 0.5531014
0003a0 89 62 19 bf 0f 28 15 3f 3b 5c 23 3f b8 b4 16 3f
       -0.5991598 0.5826425 0.6381261 0.58869505
0003b0 ea d9 1b bf ce 35 17 3f d8 db 0b bf 78 19 1d 3f
       -0.60879385 0.59066474 -0.5463233 0.6136699
0003c0 a6 37 0c bf 54 84 0e bf 6b d8 1d bf 27 11 23 3f
       -0.5477241 -0.55670667 -0.6165835 0.6369805
0003d0 02 1d 19 3f 65 85 10 3f b9 dc 25 bf 2d 88 0c bf
       0.5980989 0.56453544 -0.6478992 -0.5489529
0003e0 34 2e 21 3f f2 c1 0a bf 40 50 0c 3f 85 dd 13 bf
       0.62961125 -0.5420219 0.5480995 -0.57759887
0003f0 40 9d 1c bf dc cf 13 3f 0e 21 27 bf 77 38 0f bf
       -0.61177444 0.57739043 -0.6528481 -0.55945534

model.2.bias f4 [256]
000000 09 c7 0f bf 0f ca 0b 3f 83 41 17 bf 9c 16 1e bf
       -0.5616308 0.5460519 -0.5908434 -0.6175325
000010 1c f6 27 3f 3f 71 26 3f cd 47 0d bf 1a 3d 0b bf
       0.6560991 0.6501655 -0.55187684 -0.5439011
000020 fb f1 13 3f 36 96 1f bf a6 8a 12 bf 18 5e 25 3f
       0.5779111 -0.6233858 -0.5724281 0.645967
000030 9b 7c 1a 3f 80 17 0b bf f9 4c 1d 3f e0 9a 15 3f
       0.6034638 -0.54332733 0.61445576 0.58439445
000040 60 de 23 bf a7 fa 25 3f c2 12 18 3f 1a 29 0b 3f
       -0.6401119 0.6483559 0.5940362 0.5435959
000050 02 d4 0a 3f 98 b1 17 3f f7 e4 0c bf 0b d9 11 bf
       0.5422975 0.5925536 -0.5503687 -0.56971806
000060 3e 01 28 3f 51 7a 14 bf cc ec 1b 3f 12 64 28 bf
       0.65626895 -0.5799914 0.609082 -0.65777695
000070 84 8c 0f bf 72 a6 0a bf 50 d3 1a 3f ed cb 0f bf
       -0.56073785 -0.54160225 0.6047869 -0.5617054
000080 65 64 14 bf 54 9b 28 3f 5f c8 12 bf 88 a5 21 bf
       -0.5796569 0.6586201 -0.5733699 -0.63143206
000090 86 94 26 3f bf 40 28 bf 35 bc 1b bf cd 5e 0c 3f
       0.6507038 -0.65723795 -0.60834056 0.54832155
0000a0 2c e5 0f bf 8c 31 1a bf ec 64 20 bf 62 ed 1c bf
       -0.56209064 -0.6023185 -0.62653995 -0.6129972
0000b0 d7 ea 10 bf de 0d 13 3f 3d 41 22 3f 58 a6 0a bf
       -0.5660834 0.57443035 0.63380796 -0.5416007
0000c0 2a 32 1f bf 75 2a 29 bf d5 1d 0a 3f ca c0 22 bf
       -0.6218592 -0.6608041 0.5395177 -0.6357542
0000d0 8a fd 24 3f 24 22 24 bf f7 48 18 3f 3b f4 19 3f
       0.6444937 -0.64114594 0.59486336 0.6013829
0000e0 e9 49 0b 3f fc 24 0a 3f b0 55 1e 3f 9d f7 25 bf
       0.5440965 0.53962684 0.618495 -0.6483095
0000f0 59 5c 1d 3f 67 c7 1c 3f 10 cd 19 3f 24 55 0a 3f
       0.61469036 0.61241764 0.60078526 0.54036164
000100 dc 8a 17 bf 0f de 28 bf 98 d1 23 bf 59 d0 26 bf
       -0.5919626 -0.65963835 -0.6399169 -0.65161663
000110 9d c9 1a 3f 7e 0a 25 3f 09 da 17 3f 9c 5c 0c bf
       0.6046389 0.64469135 0.5931707 -0.5482881
000120 b0 45 0b 3f 6f 95 13 3f 2e 77 12 3f 22 74 20 bf
       0.5440321 0.5764989 0.57213104 -0.62677205
000130 cf e0 1b bf fa c3 19 bf 42 6d 12 3f 8d fd 25 3f
       -0.60889906 -0.6006466 0.57197964 0.6484001
000140 e1 e4 27 3f cd 04 10 3f 85 1f 0a 3f 97 67 27 3f
       0.65583616 0.56257325 0.53954345 0.6539244
000150 b5 12 0e bf f4 db 23 3f 90 42 22 3f 4a 09 14 bf
       -0.55497295 0.64007497 0.63382816 -0.57826674
000160 2b 33 26 3f 44 d7 12 bf 8d 5e 27 bf f6 dd 14 3f
       0.64921826 -0.5735972 -0.6537865 0.58151186
000170 da 8b 24 3f d2 f4 1f bf cf 84 1f 3f 2f 53 1e 3f
       0.64275897 -0.6248294 0.62312025 0.6184568
000180 47 24 0b bf 44 2f 14 bf 39 6b 16 3f f7 92 24 3f
       -0.5435223 -0.5788462 0.5875736 0.6428675
000190 15 b4 29 3f 08 b6 1e bf 9d f5 18 bf 95 90 1e 3f
       0.6629041 -0.6199651 -0.59749776 0.61939365
0001a0 b3 77 21 bf f0 14 17 3f 32 c1 0b 3f c8 3d 18 3f
       -0.6307327 0.59016323 0.5459167 0.5946927
0001b0 ae b4 17 bf a7 5d 0f 3f b7 16 20 bf 01 b3 10 3f
       -0.5926007 0.5600228 -0.6253466 0.5652314
0001c0 5c 0a 0c 3f e2 c6 0a bf 30 7e 0c bf 4a 2d 0a 3f
       0.5470331 -0.5420972 -0.54880047 0.53975356
0001d0 e2 19 10 bf b4 fc 1e 3f 7f 33 1a 3f 41 a1 14 bf
       -0.56289494 0.62104344 0.60234827 -0.58058554
0001e0 7e 8e 18 bf be 6f 0e bf 24 f4 16 3f c0 a7 0c 3f
       -0.59592426 -0.55639255 0.5896628 0.54943466
0001f0 17 87 1e 3f 66 ad 13 3f 90 2a 18 3f a1 da 19 bf
       0.6192488 0.5768646 0.59439945 -0.60099226
000200 e1 d4 27 3f 39 8c 14 bf bf b1 0b bf ef e8 0f 3f
       0.655592 -0.5802646 -0.54568094 0.56214803
000210 e1 d3 0f 3f 1d 05 10 bf a0 46 24 3f 2c 46 1e 3f
       0.56182677 -0.562578 0.64170265 0.61825824
000220 49 93 1d 3f d2 d2 18 3f 3f 16 1b bf fe 25 16 bf
       0.61552864 0.59696686 -0.6058082 -0.5865172
000230 7b 8a 1e bf de b1 28 bf 73 6b 1d 3f 5a 22 1b 3f
       -0.61930054 -0.65896404 0.6149208 0.6059929
000240 2c fa 0b 3f ea 02 23 3f 4f 09 18 bf 5c 2c 0c bf
       0.54678607 0.6367632 -0.59389204 -0.5475519
000250 4c ec 11 3f 86 b7 1e bf 74 09 16 bf e4 93 1c 3f
       0.57001185 -0.61998785 -0.58608174 0.61163163
000260 fd 0b 11 3f a0 77 1e 3f 02 4e 14 bf 62 fa 1e 3f
       0.5665892 0.61901283 -0.5793153 0.62100804
000270 33 cc 25 3f 92 af 1f 3f b2 8d 26 bf 1f 1f 1f 3f
       0.6476471 0.62377274 -0.6505996 0.6215686
000280 9c 68 1c bf 4f f9 0c bf 22 43 1e bf 04 8c 0d 3f
       -0.6109712 -0.55067915 -0.61821187 0.5529177
000290 4b 35 1f bf 5e 55 0e 3f 34 35 1b bf c5 2c 26 3f
       -0.62190694 0.5559901 -0.60628057 0.6491206
0002a0 25 38 0a 3f f2 aa 14 3f 26 a9 28 3f 6d 55 1c bf
       0.5399192 0.5807334 0.658831 -0.6106785
0002b0 aa e2 0e 3f 7e 42 27 bf 20 26 1d bf ad 74 27 bf
       0.5581461 -0.65335834 -0.613863 -0.6541241
0002c0 b2 9b 21 bf 50 cd 1e bf e9 52 28 bf 81 9d 0a 3f
       -0.631282 -0.6203203 -0.6575151 0.5414658
0002d0 a7 c4 0a bf c8 49 1c 3f 71 35 0e 3f 3d c4 25 bf
       -0.5420632 0.6105008 0.55550295 -0.6475256
0002e0 d4 17 17 bf 9d 5e 1e 3f c0 86 23 3f 58 45 21 bf
       -0.59020734 0.6186312 0.6387749 -0.62996435
0002f0 44 33 29 3f 93 3b 28 3f be ea 18 3f be 44 1f 3f
       0.6609385 0.65715903 0.5973319 0.6221427
000300 68 14 1a 3f da 58 26 3f 05 37 17 3f f7 e1 12 3f
       0.6018739 0.64979327 0.5906833 0.57376045
000310 35 31 27 3f dc dc 17 3f 3f 38 1a 3f fe 5c 0f bf
       0.6530946 0.5932138 0.60242075 -0.5600127
000320 f1 18 27 3f fb aa 0d 3f 44 16 1c bf e5 f1 10 bf
       0.6527243 0.5533902 -0.60971475 -0.566191
000330 f0 6c 13 bf d3 8f 23 3f 61 12 0e 3f 3e 7c 18 bf
       -0.575881 0.63891333 0.55496794 -0.5956458
000340 8e 55 20 bf ef 3c 21 3f a6 69 13 3f ef 40 24 3f
       -0.62630546 0.629836 0.5758308 0.6416158
000350 34 3b 12 bf e0 ad 28 3f c5 9d 25 bf b6 a2 27 bf
       -0.57121587 0.6589031 -0.6469386 -0.6548265
000360 81 e9 18 bf 2a 2d 18 bf 51 e5 27 bf 7a df 0c bf
       -0.597313 -0.59443915 -0.65584284 -0.550285
000370 68 d9 09 3f ab be 1d 3f c1 4b 22 bf 41 f0 1b 3f
       0.5384736 0.6161906 -0.6339684 0.60913473
000380 4f 2a 19 bf b5 d9 14 bf 14 2f 26 bf f2 18 0e bf
       -0.5983018 -0.58144695 -0.64915586 -0.55506814
000390 12 95 28 bf 9a 92 28 3f ee 30 28 3f 5c ea 1c 3f
       -0.65852463 0.65848696 0.6569966 0.61295104
0003a0 0d 86 0f 3f 5f 17 20 3f 6f db 1e 3f 26 e3 11 bf
       0.5606392 0.6253566 0.6205358 -0.56987226
0003b0 10 11 22 bf b3 e7 1d 3f 77 98 1e bf 78 c8 0c 3f
       -0.63307285 0.6168167 -0.6195139 0.5499339
0003c0 e6 20 28 bf ee ef 0d bf 89 2f 18 3f e7 46 14 3f
       -0.656752 -0.5544423 0.5944753 0.5792069
0003d0 28 41 27 3f 69 4f 20 bf 91 24 15 3f 50 64 0a 3f
       0.65333796 -0.6262117 0.5825892 0.54059315
0003e0 4e 01 1e 3f 02 58 1f 3f c0 80 21 3f fc 28 21 3f
       0.6172074 0.62243664 0.6308708 0.6295316
0003f0 99 95 23 3f 47 12 14 bf 6d ad 1e bf 20 5c 28 bf
       0.6390014 -0.5784039 -0.61983377 -0.6576557

model.4.weight f4 [234, 256]
000000 01 28 01 c4 93 28 01 44 ea 18 01 c4 dc 18 01 c4
       -516.62506 516.634 -516.3893 -516.3884
000010 88 02 01 44 39 28 01 44 7d 29 01 c4 88 06 01 c4
       516.03955 516.6285 -516.64825 -516.10205
000020 1f 14 01 44 73 05 01 c4 13 0f 01 c4 c7 14 01 44
       516.3144 -516.08514 -516.23553 516.32465
000030 ac 2b 01 44 4d 0d 01 c4 e6 2a 01 44 1d 12 01 44
       516.6824 -516.2078 516.6703 516.283
000040 41 19 01 c4 02 23 01 44 50 23 01 44 08 2b 01 44
       -516.3946 516.547 516.55176 516.67236
000050 84 05 01 44 59 18 01 44 fa 26 01 c4 06 0b 01 c4
       516.0862 516.38043 -516.609 -516.17224
000060 ef 16 01 44 c1 1a 01 c4 0a 27 01 44 b8 14 01 c4
       516.35834 -516.418 516.61 -516.3237
000070 56 15 01 c4 20 0f 01 c4 7e 16 01 44 8b 0d 01 c4
       -516.3334 -516.2363 516.35144 -516.2116
000080 3b 18 01 c4 ac 18 01 44 0d 0d 01 c4 76 25 01 c4
       -516.3786 516.3855 -516.2039 -516.5853
000090 33 2c 01 44 03 16 01 c4 d6 28 01 c4 2a 24 01 44
       516.6906 -516.34393 -516.63806 516.56506
0000a0 70 24 01 c4 90 26 01 c4 21 0c 01 c4 08 28 01 c4
       -516.56934 -516.60254 -516.1895 -516.6255
0000b0 7b 28 01 c4 c8 1c 01 44 55 2a 01 44 3c 10 01 c4
       -516.6325 516.4497 516.66144 -516.25366
0000c0 e4 29 01 c4 7c 23 01 c4 99 25 01 44 ae 28 01 c4
       -516.65454 -516.55444 516.58746 -516.6356
0000d0 7d 28 01 44 81 0f 01 c4 cd 2a 01 44 a8 1f 01 44
       516.6326 -516.24225 516.66876 516.4946
0000e0 6b ff 00 44 ee 1c 01 44 7c 24 01 44 3e 29 01 c4
       515.9909 516.452 516.57007 -516.6444
0000f0 5e 19 01 44 4f 2b 01 44 4a 26 01 44 d4 14 01 44
       516.39636 516.6767 516.59827 516.32544
000100 ba 09 01 c4 2f 0a 01 c4 b5 18 01 c4 3a 24 01 c4
       -516.152 -516.1591 -516.38605 -516.56604
000110 e1 02 01 44 13 15 01 44 3f 27 01 44 ae 26 01 c4
       516.045 516.3293 516.6132 -516.6044
000120 cc 16 01 44 29 15 01 44 9d 21 01 44 e4 24 01 c4
       516.3562 516.3306 516.5252 -516.5764
000130 47 23 01 c4 14 2b 01 c4 d0 2a 01 44 0a 27 01 44
       -516.5512 -516.6731 516.66895 516.61
000140 6e 27 01 44 2c 23 01 44 4f 2b 01 44 27 29 01 44
       516.6161 516.54956 516.6767 516.643
000150 c3 0a 01 c4 d6 17 01 44 af 15 01 44 a9 f7 00 c4
       -516.16815 516.37244 516.3388 -515.8697
000160 10 0c 01 44 27 29 01 c4 ef 27 01 c4 96 10 01 44
       516.1885 -516.643 -516.62396 516.25916
000170 d4 28 01 44 5a 2a 01 c4 35 17 01 44 1c 11 01 44
       516.63794 -516.66174 516.3626 516.26733
000180 a8 29 01 c4 b5 12 01 c4 15 28 01 44 8d 27 01 44
       -516.6509 -516.2923 516.6263 516.618
000190 28 17 01 44 6d 18 01 c4 6e 13 01 c4 a3 29 01 44
       516.3618 -516.38165 -516.3036 516.6506
0001a0 aa 09 01 c4 be 2a 01 44 48 24 01 44 26 23 01 44
       -516.151 516.66785 516.5669 516.5492
0001b0 ca 1c 01 c4 4f 15 01 44 70 2a 01 c4 5e 08 01 44
       -516.4498 516.33295 -516.6631 516.13074
0001c0 e1 17 01 44 5d 14 01 c4 ba 29 01 c4 6f 0c 01 44
       516.3731 -516.3182 -516.652 516.1943
0001d0 8d 19 01 c4 74 18 01 44 9e 2a 01 44 50 25 01 c4
       -516.39923 516.3821 516.6659 -516.583
0001e0 45 0a 01 c4 bb 24 01 c4 43 2b 01 44 9b 2b 01 44
       -516.16046 -516.5739 516.67596 516.68134
0001f0 35 ff 00 44 34 2a 01 44 64 29 01 44 28 fb 00 c4
       515.9876 516.6594 516.6467 -515.9243
000200 1f 26 01 44 e7 29 01 c4 37 11 01 c4 c0 29 01 44
       516.59564 -516.6547 -516.269 516.65234
000210 5c 16 01 44 bc 22 01 c4 08 2c 01 44 47 2a 01 44
       516.34937 -516.5427 516.688 516.6606
000220 3c 1e 01 44 39 29 01 44 af 23 01 c4 68 2a 01 c4
       516.4724 516.6441 -516.55756 -516.6626
000230 b9 05 01 c4 86 11 01 c4 be 15 01 44 10 1b 01 44
       -516.0894 -516.2738 516.3397 516.42285
000240 4f 2b 01 44 db 24 01 44 3c 2b 01 c4 3d 19 01 c4
       516.6767 516.57587 -516.67554 -516.39435
000250 e9 27 01 44 a9 13 01 c4 91 0f 01 c4 af 0d 01 44
       516.6236 -516.3072 -516.2432 516.2138
000260 67 09 01 44 34 0e 01 44 c5 11 01 c4 14 2a 01 44
       516.1469 516.2219 -516.27765 516.6575
000270 b3 29 01 44 cd 27 01 44 6d 18 01 c4 eb 20 01 44
       516.65155 516.6219 -516.38165 516.51434
000280 22 2a 01 c4 95 26 01 c4 06 0b 01 c4 c6 0e 01 44
       -516.6583 -516.60284 -516.17224 516.23083
000290 b9 26 01 c4 e5 2a 01 44 7c 02 01 c4 c5 29 01 44
       -516.60504 516.6702 -516.0388 516.65265
0002a0 ce 26 01 44 a2 15 01 44 93 18 01 44 75 0c 01 c4
       516.6063 516.338 516.384 -516.19464
0002b0 1f 2a 01 44 6c 2c 01 c4 dd 27 01 c4 5a 29 01 c4
       516.65814 -516.6941 -516.62286 -516.6461
0002c0 20 0c 01 c4 95 15 01 c4 92 24 01 c4 44 0b 01 44
       -516.18945 -516.3372 -516.5714 516.176
0002d0 bb 27 01 c4 53 2b 01 44 a4 25 01 44 cb 17 01 c4
       -516.6208 516.67694 516.58813 -516.37177
0002e0 4e 17 01 c4 05 25 01 44 fd 14 01 44 2d 0a 01 c4
       -516.36414 516.5784 516.32794 -516.159
0002f0 58 2a 01 44 ce 11 01 44 dd 0b 01 44 c8 22 01 44
       516.6616 516.2782 516.18536 516.54346
000300 a5 25 01 44 85 15 01 44 cc 29 01 44 dc 2a 01 44
       516.5882 516.33624 516.6531 516.6697
000310 6a 25 01 44 10 13 01 44 1e 29 01 44 1c 1d 01 c4
       516.5846 516.29785 516.64246 -516.45483
000320 70 29 01 44 a1 12 01 44 65 15 01 c4 b3 28 01 c4
       516.64746 516.2911 -516.3343 -516.6359
000330 d9 29 01 c4 1d 07 01 44 3f 2a 01 44 54 1a 01 c4
       -516.6539 516.11115 516.6601 -516.4114
000340 20 0e 01 c4 c6 2a 01 44 8c 0d 01 44 4a 2b 01 44
       -516.2207 516.66833 516.2117 516.6764
000350 db 29 01 c4 16 27 01 44 2c 11 01 c4 97 0e 01 c4
       -516.654 516.6107 -516.2683 -516.22797
000360 03 26 01 c4 61 06 01 c4 94 28 01 c4 18 fe 00 c4
       -516.59393 -516.0997 -516.63403 -515.9702
000370 0a 2a 01 44 62 25 01 44 6e 25 01 c4 5e 29 01 44
       516.65686 516.5841 -516.58484 516.64636
000380 59 28 01 c4 27 14 01 c4 0b 2c 01 c4 a8 12 01 c4
       -516.63043 -516.3149 -516.6882 -516.2915
000390 76 2c 01 c4 c8 29 01 44 70 29 01 44 0a 10 01 44
       -516.6947 516.65283 516.64746 516.2506
0003a0 32 2b 01 44 06 27 01 44 a0 26 01 44 5d 2b 01 c4
       516.6749 516.60974 516.6035 -516.67755
0003b0 fb 29 01 c4 c3 fd 00 44 e1 04 01 c4 7a 1a 01 44
       -516.65594 515.965 -516.07623 516.4137
0003c0 53 28 01 c4 6a 24 01 c4 41 19 01 44 ca 12 01 44
       -516.63007 -516.569 516.3946 516.2936
0003d0 4a 2a 01 44 13 0e 01 c4 c0 14 01 44 1f 0d 01 44
       516.66077 -516.2199 516.3242 516.205
0003e0 12 1c 01 44 e7 fe 00 44 e2 16 01 44 4d 2b 01 44
       516.4386 515.98285 516.35754 516.6766
0003f0 8f 24 01 44 12 26 01 c4 0b 28 01 c4 77 04 01 c4
       516.5712 -516.59485 -516.6257 -516.06976

model.4.bias f4 [234]
000000 58 1a 01 44 c0 2b 81 c3 88 27 81 c3 31 24 16 41
       516.4116 -258.3418 -258.30884 9.383836
000010 cf 55 c9 c0 bc cc 9e c0 09 09 25 41 a9 ec c4 c0
       -6.2917247 -4.962492 10.314706 -6.153889
000020 01 93 8b c0 8b 75 a2 3f a6 c2 5e bf 78 0e 42 bf
       -4.361695 1.2692121 -0.8701576 -0.7580333
000030 75 7f 28 41 1d fa c8 c0 b2 a3 8f c0 77 fb 27 41
       10.531117 -6.2805314 -4.4887323 10.498893
000040 24 87 c6 c0 f0 a6 8e c0 b6 64 27 41 1b eb c4 c0
       -6.2039967 -4.457878 10.462088 -6.1536994
000050 92 68 8e c0 f7 7e 26 41 e5 8d c5 c0 25 4f 8e c0
       -4.450265 10.405997 -6.173571 -4.447161
000060 c3 bd 26 41 4d 9e c7 c0 85 0b 8d c0 13 85 25 41
       10.421329 -6.238074 -4.407656 10.344989
000070 54 b2 c5 c0 f7 82 89 c0 41 14 24 41 da ee c4 c0
       -6.1780186 -4.297237 10.254945 -6.1541567
000080 95 8f 89 c0 1b 32 27 41 ac 00 c6 c0 1a 6d 8b c0
       -4.298777 10.449733 -6.187582 -4.357068
000090 b3 1d 27 41 5d 71 c6 c0 34 32 8c c0 af 09 26 41
       10.444751 -6.2013383 -4.3811283 10.377364
0000a0 10 ef c5 c0 dc 43 8c c0 54 d9 27 41 fe e4 c5 c0
       -6.1854324 -4.3832836 10.490559 -6.184203
0000b0 1d bb 8b c0 b8 90 26 41 c3 bc c7 c0 6c a7 8d c0
       -4.366591 10.410332 -6.241792 -4.4266872
0000c0 dc b5 25 41 69 0b c8 c0 0c 5e 8d c0 88 53 26 41
       10.356899 -6.251393 -4.4177303 10.395393
0000d0 96 ef c6 c0 e6 0f 8b c0 0e 65 26 41 1c 4c c4 c0
       -6.2167463 -4.3456907 10.399672 -6.1342907
0000e0 c7 a2 8b c0 4b b0 26 41 79 3a c7 c0 82 c2 8d c0
       -4.3636203 10.41804 -6.225888 -4.4299936
0000f0 78 d7 25 41 dc 32 c4 c0 5f 70 8d c0 f9 22 24 41
       10.365105 -6.1312084 -4.419967 10.258538
000100 cd dd c4 c0 63 a5 8a c0 4b 9b 23 41 3c d6 c1 c0
       -6.1520753 -4.332689 10.225413 -6.0574017
000110 1d 34 8a c0 a0 c7 23 41 62 1a c3 c0 98 0c 88 c0
       -4.3188615 10.236237 -6.0969706 -4.2515373
000120 d6 a8 23 41 71 a8 c4 c0 75 95 87 c0 6a 63 23 41
       10.22872 -6.1455617 -4.2369943 10.211771
000130 7f 55 c4 c0 e5 97 87 c0 f2 d3 21 41 4d 88 c1 c0
       -6.1354365 -4.237292 10.114244 -6.0478883
000140 d5 67 87 c0 95 90 23 41 a3 b3 c3 c0 5b 39 86 c0
       -4.231425 10.222798 -6.1156783 -4.1945014
000150 15 a7 21 41 21 54 c1 c0 51 b4 86 c0 9e 39 21 41
       10.1032915 -6.0415196 -4.2095113 10.076567
000160 57 86 c1 c0 71 b0 86 c0 21 aa 21 41 aa 65 c2 c0
       -6.047649 -4.2090383 10.104035 -6.07491
000170 34 a0 86 c0 6a 4a 26 41 da c8 c5 c0 ce 39 8d c0
       -4.207056 10.3931675 -6.180768 -4.413306
000180 df d1 25 41 16 52 c5 c0 ab 3b 89 c0 3f 25 22 41
       10.363738 -6.1662703 -4.2885337 10.134093
000190 5c 13 c2 c0 02 e7 89 c0 cc 1c 22 41 d5 8b c2 c0
       -6.064863 -4.309449 10.1320305 -6.0795693
0001a0 d3 14 89 c0 91 4d 21 41 3a 4b c2 c0 62 bd 85 c0
       -4.283792 10.081437 -6.071683 -4.179368
0001b0 2e ef 25 41 c2 e2 c6 c0 b7 17 8a c0 e1 0f 25 41
       10.3708935 -6.2151804 -4.315395 10.316377
0001c0 19 9e c6 c0 86 c1 89 c0 f4 6c 2a 41 b3 a1 c9 c0
       -6.206799 -4.3048735 10.6516 -6.3009887
0001d0 3a f2 93 c0 4f 94 42 be fe c0 df c3 ea b4 df 43
       -4.6233187 -0.19001888 -447.50775 447.4134
0001e0 51 b2 d2 bf 20 fa 14 c1 83 40 09 41 67 f2 8a bf
       -1.6460668 -9.311066 8.57825 -1.0855225
0001f0 68 1c 10 c1 45 b9 1c 41 a8 04 c5 be 5d d4 91 bf
       -9.006935 9.795232 -0.38480115 -1.1392933
000200 18 41 97 3f 6c 1d 8c bf 7b cc 11 c1 4a b8 1f 41
       1.181674 -1.0946479 -9.112422 9.982492
000210 0b 70 88 bf f2 73 11 c1 ce a2 1d 41 2c ff 82 bf
       -1.0659193 -9.090807 9.852247 -1.0234122
000220 a6 21 11 c1 9b b7 1d 41 23 91 85 bf ad 36 11 c1
       -9.070715 9.857326 -1.0434917 -9.075849
000230 92 23 1d 41 b9 2c 8c bf 1d df 10 c1 f0 d2 1d 41
       9.821184 -1.0951148 -9.054471 9.863998
000240 0b cf 82 bf 2f 22 11 c1 9e a3 1e 41 ac 50 84 bf
       -1.0219434 -9.070846 9.914946 -1.0337119
000250 94 59 0f c1 0d fd 1c 41 d6 9b 81 bf a9 5b 10 c1
       -8.95937 9.81178 -1.0125682 -9.022378
000260 73 a3 1d 41 f4 f8 83 bf aa 74 10 c1 da 1a 1d 41
       9.852405 -1.031035 -9.028482 9.819056
000270 6b 45 7e bf 6d 30 10 c1 e2 76 1c 41 4f 5e 83 bf
       -0.99324673 -9.011823 9.779024 -1.0263156
000280 cc e5 10 c1 5f c6 1d 41 20 7f 8d bf dd 34 11 c1
       -9.056103 9.86093 -1.105442 -9.075406
000290 81 61 1e 41 0e 93 85 bf 7b b0 10 c1 8a 78 1c 41
       9.898805 -1.0435503 -9.043086 9.7794285
0002a0 30 db 87 bf 12 f3 0f c1 dd 47 1c 41 db bb 84 bf
       -1.0613766 -8.996843 9.767545 -1.0369829
0002b0 8f 35 10 c1 c4 0a 1d 41 d7 c6 83 bf b0 b9 0e c1
       -9.013076 9.815128 -1.0295056 -8.920334
0002c0 58 f7 1b 41 c4 b3 88 bf dd b5 0f c1 95 86 1b 41
       9.747887 -1.067986 -8.9819 9.720357
0002d0 02 d0 8c bf 22 1b 10 c1 93 f7 1c 41 17 df 86 bf
       -1.1000979 -9.006624 9.810443 -1.0536832
0002e0 01 1f 0f c1 98 7b 1c 41 a7 f9 83 bf 39 4e 0f c1
       -8.945069 9.780174 -1.0310563 -8.956597
0002f0 d4 a2 1d 41 66 c0 84 bf bc 26 10 c1 6e fc 1d 41
       9.852253 -1.0371215 -9.009457 9.874128
000300 39 11 81 bf 4f 42 0f c1 e7 5c 1d 41 aa c0 8c bf
       -1.0083381 -8.953689 9.835181 -1.0996296
000310 fe 9f 0f c1 e1 af 1c 41 ee 5d 83 bf 1d a1 0e c1
       -8.976561 9.792939 -1.026304 -8.914334
000320 cb 39 1d 41 ac 5d 89 bf 63 38 0f c1 f5 85 1c 41
       9.82661 -1.0731711 -8.951266 9.782704
000330 6f 1c 8a bf 44 7a 0e c1 fa 2d 1d 41 e5 fd 81 bf
       -1.0789927 -8.90485 9.823725 -1.0155607
000340 1d 44 0f c1 49 d1 1c 41 48 f8 8b bf cd 59 10 c1
       -8.954129 9.801095 -1.0935144 -9.021924
000350 11 09 1d 41 c8 59 83 bf 3e 92 11 c1 84 6b 1e 41
       9.8147135 -1.0261774 -9.098204 9.901249
000360 d6 0b 85 bf da ff 0e c1 0f e0 1b 41 0c 2e 83 bf
       -1.0394237 -8.937464 9.742202 -1.0248427
000370 e6 67 10 c1 ac 30 1d 41 f8 08 88 bf 1b f5 0f c1
       -9.025366 9.824383 -1.0627737 -8.99734
000380 f5 87 1d 41 c8 67 83 bf 68 98 0f c1 e2 77 1e 41
       9.845693 -1.0266047 -8.974709 9.904268
000390 72 56 8a bf d2 ee 10 c1 32 5e 1e 41 b3 90 86 bf
       -1.0807631 -9.058306 9.897997 -1.0512909
0003a0 65 e5 14 c1 8b 82 20 41
       -9.306005 10.031871
