ann/pinn_model0.05.pth (torch, 402382 bytes, 6 tensors)

model.0.weight f4 [256, 66]
0.09524564 0.14244479 0.06593465 0.07933411 -0.036454916 0.06341786 -0.049521938 0.04867738
0.10062541 -0.052345946 0.21679863 0.0045265327 0.06635385 0.010828332 0.10244247 -0.020413645
0.115184695 0.06556953 -0.05190824 0.077695 0.014727744 0.048022274 -0.069917746 0.12098716
-0.035828996 -0.11180888 -0.0642009 -0.09895156 -0.032838527 -0.07224183 0.12338258 -0.08299427
0.06449249 0.018714666 -0.014194448 0.16415428 0.049168605 0.06794507 -0.05430024 -0.028930543
0.08866097 0.076333165 -0.060986985 0.18544343 0.16620047 0.07172036 0.06704555 -0.03382377
0.05027199 -0.09591948 -0.07868783 -0.06433835 -0.02168787 0.20234554 0.08576862 0.09550844
-0.02940729 0.010415585 0.168251 0.04466832 0.10710541 -0.018866824 -0.030952297 -0.051339176
-0.04208609 0.03361512 0.11174247 -0.06225553 -0.011025654 -0.10707812 0.105732456 0.023584133
0.10979307 -0.09821044 -0.11758315 -0.12042344 -0.009877492 0.03132518 0.010595213 0.09056998
-0.06598933 -0.11191915 0.060470436 -0.007223639 0.039560236 0.012992078 0.13690758 -0.032382865
-0.088406056 0.04979544 0.06320954 -0.050032075 0.06516899 0.057653956 -0.13415834 -0.08210036
0.10736199 -0.06006715 -0.077050336 -0.11068539 -0.060397264 0.0952622 -0.039657485 -0.094104655
-0.044669338 -0.08772468 -0.07327442 -0.031822573 -0.1616771 -0.009143086 0.12934814 0.027660327
0.021772325 -0.14107947 -0.112655334 -0.0570827 0.059459522 -0.14650655 -0.0012362682 0.008528847
0.07601644 -0.055994842 -0.029736502 -0.064909875 -0.07372518 -0.037707783 -0.03581553 -0.11633247
0.06069795 -0.033293944 0.05959116 0.021572534 -0.1156152 0.07444944 -0.076570354 -0.005343431
-0.096812755 -0.09892436 0.040925838 -0.022514524 0.04295687 -0.06755425 0.032691415 -0.07571688
0.010252224 0.041132648 0.05052529 0.12167777 0.12134751 -0.13612288 0.05661251 -0.06660567
-0.06654394 -0.11966314 0.12752427 -0.099397704 0.037734564 0.054987244 0.065320686 -0.035674255
0.14899428 0.042624608 0.029827112 -0.07060152 0.08708402 -0.02656949 -0.065362506 0.06504513
0.05576467 -0.059804596 -0.023863344 -0.0077987267 0.04628338 -0.066657156 -0.0047711404 -0.10618852
-0.09857551 0.045179687 0.097108334 -0.10985649 0.049520627 0.079199865 -0.016033944 -0.017015982
0.038125906 0.00018540787 0.01749642 -0.014920221 -0.030337345 -0.0046371557 -0.031585213 -0.05166879
0.07840384 0.12427885 0.02632517 -0.007076775 0.049775966 0.0075793597 0.06922206 0.14006536
0.1878597 -0.30122703 0.057536207 0.06353895 -0.028492019 -0.11442299 -0.04814784 -0.1707895
0.3062829 -0.061020754 -0.13640848 -0.019654604 0.060790814 -0.22493227 0.057663955 0.33603883
-0.14857693 0.16273151 0.32117966 0.21322368 -0.23247929 0.22376199 0.18816815 -0.17917632
-0.24886154 -0.10065351 -0.14253098 0.03591117 -0.116681494 -0.23116574 -0.34498918 0.10969069
0.107119545 0.40721 -0.005068934 -0.10668562 -0.2920579 -0.11763516 0.1267451 0.21902564
-0.4003097 0.25290912 0.265615 0.21851195 -0.075730324 -0.22630814 -0.2576728 -0.022871502
0.18570974 -0.15421496 0.20400435 0.25546643 0.22478914 -0.025986291 -0.21127944 0.053403277
00000000: 2510 c33d 0cdd 113e bf08 873d ec79 a23d
00000010: c051 15bd 39e1 813d 84d7 4abd ef61 473d
00000020: b214 ce3d b468 56bd 7600 5e3e 4f53 943b
00000030: 87e4 873d 5169 313c 5ccd d13d 843a a7bc
00000040: f4e5 eb3d 5149 863d bc9d 54bd 8e1e 9f3d
00000050: a34c 713c 01b3 443d 0931 8fbd 1ec8 f73d
00000060: 6dc1 12bd 0efc e4bd c37b 83bd 1ea7 cabd
00000070: b181 06bd 86f3 93bd 02b0 fc3d e6f8 a9bd
00000080: a314 843d 804f 993c d48f 68bc 0f18 283e
00000090: 0565 493d c926 8b3d ee69 5ebd bfff ecbc
000000a0: e293 b53d 9054 9c3d 7dcd 79bd e2e4 3d3e
000000b0: 7530 2a3e 20e2 923d 2d4f 893d cb8a 0abd
000000c0: 01ea 4d3d 6f71 c4bd 1627 a1bd d3c3 83bd
000000d0: c3aa b1bc ab33 4f3e 75a7 af3d ee99 c33d
000000e0: 8fe7 f0bc 21a6 2a3c fd49 2c3e 21f6 363d
000000f0: 155a db3d 998e 9abc ac8f fdbc 0749 52bd
00000100: 7762 2cbd 02b0 093d 3cd9 e43d a8ff 7ebd
00000110: f2a4 34bc c64b dbbd 428a d83d 8333 c13c
00000120: 30db e03d 8e22 c9bd 6fcf f0bd 91a0 f6bd
00000130: 34d5 21bc d54e 003d 8b97 2d3c c17c b93d
00000140: 6a25 87bd de35 e5bd d9af 773d 47b4 ecbb
00000150: ea09 223d badc 543c 8031 0c3e e5a3 04bd
00000160: 3c0e b5bd 4ef6 4b3d 0174 813d 6fee 4cbd
00000170: 5277 853d 8e26 6c3d ce60 09be 3c24 a8bd
00000180: 9ae0 db3d f908 76bd 91cc 9dbd 06af e2bd
00000190: 1f63 77bd d418 c33d e36f 22bd f1b9 c0bd
000001a0: 32f7 36bd ffa8 b3bd e610 96bd 6358 02bd
000001b0: af8e 25be e2cc 15bc d773 043e e997 e23c
000001c0: e05b b23c 2377 10be d7b7 e6bd 8dcf 69bd
000001d0: d48b 733d d005 16be 470a a2ba 94bc 0b3c
000001e0: 82ae 9b3d d95a 65bd f799 f3bc 78ef 84bd
000001f0: 3afd 96bd 7a73 1abd 4eb3 12bd b83f eebd
00000200: 6a9e 783d 3b5f 08bd dc15 743d e2b8 b03c
00000210: a9c7 ecbd f378 983d ebd0 9cbd f317 afbb
00000220: c445 c6bd db98 cabd daa1 273d 6170 b8bc
00000230: 8bf3 2f3d e259 8abd 6fe7 053d 7411 9bbd
00000240: f2f8 273c b57a 283d 9bf3 4e3d 3232 f93d
00000250: 0b85 f83d cc63 0bbe 85e2 673d 8e68 88bd
00000260: 3048 88bd f311 f5bd b995 023e 0691 cbbd
00000270: 8f8f 1a3d 4e3a 613d dac6 853d 2b1f 12bd
00000280: f591 183e 2497 2e3d fd57 f43c 8897 90bd
00000290: 1b59 b23d 42a8 d9bc c7dc 85bd 6236 853d
000002a0: 7f69 643d aaf5 74bd 0f7d c3bc 768c ffbb
000002b0: a493 3d3d 8c83 88bd 3a57 9cbb 5e79 d9bd
000002c0: f5e1 c9bd 560e 393d bce0 c63d 70fc e0bd
000002d0: 24d6 4a3d 8a33 a23d 9e59 83bc 1a65 8bbc
000002e0: e929 1c3d 0c6a 4239 a754 8f3c f173 74bc
000002f0: 0686 f8bc 48f3 97bb 7f5f 01bd a7a2 53bd
00000300: 3192 a03d e985 fe3d e2a7 d73c 4be4 e7bb
00000310: e2e1 4b3d 475c f83b 4cc4 8d3d 4b6d 0f3e
00000320: 4b5e 403e 6e3a 9abe 16ab 6b3d b620 823d
00000330: 1868 e9bc 9a56 eabd ab36 45bd 71e3 2ebe
00000340: 1dd1 9c3e e6f0 79bd aaae 0bbe b102 a1bc
00000350: caff 783d a554 66be 0a31 6c3d 480d ac3e
00000360: 8d24 18be 17a3 263e a971 a43e 4f57 5a3e
00000370: 0d0f 6ebe dd21 653e 27af 403e ff79 37be
00000380: 8fd5 7ebe 6d23 cebd a4f3 11be 9717 133d
00000390: b5f6 eebd b6b6 6cbe 6ca2 b0be 83a5 e03d
000003a0: 7e61 db3d d47d d03e 4d19 a6bb fe7d dabd
000003b0: 9d88 95be b4ea f0bd 78c9 013e 4248 603e
000003c0: 65f5 ccbe 4e7d 813e b0fe 873e 99c1 5f3e
000003d0: 8018 9bbd 52bd 67be b0ed 83be 045d bbbc
000003e0: b22a 3e3e 87ea 1dbe 84e6 503e 7fcc 823e
000003f0: 202f 663e 34e1 d4bc a359 58be 65bd 5a3d

model.0.bias f4 [256]
-0.13657163 0.117709726 -0.10191692 -0.10747577 -0.05916431 -0.009482038 -0.012930851 0.104918204
0.095318824 -0.12557727 -0.12074895 -0.15354584 0.10399484 -0.06403563 -0.10245601 -0.09346626
0.04095293 0.049570896 0.089726366 0.12076907 0.13987331 -0.101571605 -0.03551001 -0.112973966
-0.06424671 -0.0015510353 0.08450048 -0.07691785 -0.08999942 -0.03553342 0.07708387 0.0076661604
0.118395925 -0.13341348 0.05819275 0.104810566 0.110614024 -0.122708604 -0.10007911 -0.022847647
0.0035350446 0.08954709 0.13633022 -0.015913825 -0.04946404 0.081055745 -0.094927765 -0.057476684
0.01729741 -0.04040159 0.10835968 -0.049127184 0.006031067 0.031985734 0.010949418 -0.118270054
0.10573234 0.099733695 -0.024513086 -0.10567043 -0.060199678 0.0951847 0.088331394 -0.07682847
0.086759865 -0.0045862347 -0.018153733 -0.061539896 0.00449913 -0.06388672 0.029162645 -0.15434952
-0.009825665 -0.12252933 -0.12404942 -0.14093861 -0.042210095 0.02201196 0.009144665 0.041654743
-0.06428512 -0.11151867 -0.035959605 -0.11682714 0.02913736 0.042254 0.009458208 -0.119867735
0.11843271 0.11466736 -0.102824554 -0.12675317 0.008092786 0.0482129 -0.034956355 -0.0807499
0.017466072 -0.10918324 -0.07692553 0.054099057 0.022752624 0.05117458 0.1323667 -0.0116950935
0.050816767 0.10701973 -0.09366895 0.10188831 0.09324623 -0.06771361 0.13460591 -0.08641257
-0.05557222 0.11249758 0.07384008 -0.016713163 -0.10909546 0.07672655 0.047119744 -0.092674084
-0.0045531797 0.1124691 0.06783032 -0.09384521 -0.029012868 -0.04105547 0.09579232 0.07427502
-0.028875774 0.0046746708 -0.09242368 -0.028529689 0.08295083 -0.120035075 0.031630833 0.13707694
0.06006352 0.07928193 -0.04887098 -0.015040104 -0.12498205 -0.070578225 0.04433912 0.04523819
0.075387865 -0.083892435 0.04577871 -0.083329976 -0.100014225 -0.05287154 -0.09491255 0.02236881
0.024403185 0.09266325 0.08197974 0.022657596 0.059659857 0.078918785 -0.1553882 -0.07467895
-0.11744146 -0.08609665 0.034793857 0.14412348 0.10054686 -0.094590575 0.053261466 0.089933775
0.03875077 -0.12088947 0.022361225 0.06990784 0.040305223 0.1315303 0.12650403 -0.083727196
0.121621154 -0.13992785 -0.08027468 0.055695985 0.0013630978 0.11941056 0.081756644 -0.07750368
0.13423032 -0.10646466 0.057657924 0.041936982 0.13685365 0.13298747 0.08457152 -0.06509548
0.12686414 0.097858265 0.011160811 0.09224538 0.05468762 -0.044487722 0.06644366 -0.0041814665
-0.05205805 0.06834592 0.002942579 -0.09702062 -0.14505826 0.041960526 -0.055420633 -0.0033120962
0.13274941 0.096000195 0.1257369 0.12281382 0.0916663 -0.11262292 0.14468108 -0.14709803
-0.0981932 -0.059466545 0.16612424 0.09144402 0.04137321 0.08913693 -0.15873472 -0.13212521
0.05982252 -0.03556572 0.064330295 -0.10091979 0.1371642 -0.11600975 0.09560608 0.07926246
-0.08088714 0.13225807 0.08288729 -0.09054028 -0.07289465 0.11159454 -0.040536534 0.010422817
0.06972283 0.0658362 -0.0855776 0.105759114 0.041206162 0.033481278 -0.08270786 0.07607105
-0.014196283 0.10523268 0.07363665 0.13089633 -0.017668428 0.07970088 0.115413144 0.041387834
00000000: 6fd9 0bbe cc11 f13d d1b9 d0bd 421c dcbd
00000010: 4756 72bd 8d5a 1bbc ecdb 53bc 5bdf d63d
00000020: 8436 c33d 5497 00be 3a4b f7bd 1f3b 1dbe
00000030: 3ffb d43d 1d25 83bd 75d4 d1bd 3d6b bfbd
00000040: 42be 273d da0a 4b3d 75c2 b73d c655 f73d
00000050: f33a 0f3e c604 d0bd f272 11bd e55e e7bd
00000060: c793 83bd 1c4c cbba 960e ad3d 1b87 9dbd
00000070: 9e51 b8bd 7e8b 11bd 26de 9d3d 6a34 fb3b
00000080: 9079 f23d 8b9d 08be 855b 6e3d eca6 d63d
00000090: 9b89 e23d a64e fbbd 47f6 ccbd fd2a bbbc
000000a0: 35ac 673b 7764 b73d 269a 0b3e b65d 82bc
000000b0: ce9a 4abd 8e00 a63d 7d69 c2bd ac6c 6bbd
000000c0: 4cb3 8d3c 237c 25bd aeeb dd3d 9639 49bd
000000d0: 42a0 c53b 7903 033d 3065 333c 9237 f2bd
000000e0: 328a d83d 2e41 cc3d abcf c8bc bd69 d8bd
000000f0: f093 76bd 32f0 c23d 17e7 b43d 3f58 9dbd
00000100: 28af b13d 2048 96bb 23b7 94bc 4211 7cbd
00000110: 706d 933b 0ad7 82bd 80e6 ee3c cd0d 1ebe
00000120: d3fb 20bc a8f0 fabd 9f0d febd 3652 10be
00000130: 7ee4 2cbd 6d52 b43c 81d3 153c 2a9e 2a3d
00000140: eba7 83bd e763 e4bd 614a 13bd 1143 efbd
00000150: 79b1 ee3c 8812 2d3d 9af6 1a3c 377d f5bd
00000160: d98c f23d b9d6 ea3d ae95 d2bd 95cb 01be
00000170: 9b97 043c e47a 453d 652e 0fbd 3460 a5bd
00000180: 0215 8f3c 769b dfbd 228b 9dbd f996 5d3d
00000190: b663 ba3c 709c 513d 238b 073e c79c 3fbc
000001a0: 3e25 503d 292d db3d 82d5 bfbd d1aa d03d
000001b0: e1f7 be3d 6fad 8abd 22d6 093e 13f9 b0bd
000001c0: b29f 63bd 2265 e63d 7839 973d 0bea 88bc
000001d0: 716d dfbd cf22 9d3d a200 413d e9cb bdbd
000001e0: d732 95bb 3356 e63d 9fea 8a3d eb31 c0bd
000001f0: 65ac edbc c829 28bd c42e c43d 801d 983d
00000200: e38c ecbc fb2d 993b a048 bdbd 18b7 e9bc
00000210: 20e2 a93d f3d4 f5bd 558f 013d e65d 0c3e
00000220: 2a05 763d 915e a23d f02c 48bd c56a 76bc
00000230: 97f6 ffbd 518b 90bd f09c 353d ae4b 393d
00000240: f464 9a3d cccf abbd 7582 3b3d e8a8 aabd
00000250: 42d4 ccbd d48f 58bd 8361 c2bd cb3e b73c
00000260: 30e9 c73c 3bc6 bd3d fee4 a73d 6c9c b93c
00000270: e55d 743d 2ca0 a13d 161e 1fbe 47f1 98bd
00000280: 2685 f0bd 7153 b0bd 0184 0e3d 1b95 133e
00000290: 83eb cd3d b4b8 c1bd b228 5a3d 332f b83d
000002a0: 21b9 1e3d e694 f7bd e32e b73c d72b 8f3d
000002b0: 1717 253d e1af 063e 468a 013e 2a79 abbd
000002c0: 8314 f93d 3f49 0fbe 0d67 a4bd 7921 643d
000002d0: f9a9 b23a 868d f43d 0770 a73d 40ba 9ebd
000002e0: ac73 093e 250a dabd b72a 6c3d 1dc6 2b3d
000002f0: 5d23 0c3e de2d 083e d533 ad3d c750 85bd
00000300: ace8 013e ea69 c83d d6db 363c 25eb bc3d
00000310: 2000 603d c238 36bd 9d13 883d af04 89bb
00000320: d23a 55bd f2f8 8b3d 49d8 403b bfb2 c6bd
00000330: 278a 14be cdde 2b3d bf00 63bd c10f 59bb
00000340: 76ef 073e c09b c43d 2dc1 003e d085 fb3d
00000350: 8bbb bb3d d8a6 e6bd 4727 143e dea0 16be
00000360: 8419 c9bd 3193 73bd 791c 2a3e 0147 bb3d
00000370: f476 293d 6c8d b63d 5b8b 22be d54b 07be
00000380: 7508 753d 5cad 11bd 9abf 833d 09af cebd
00000390: c674 0c3e 8596 edbd 1fcd c33d 5b54 a23d
000003a0: 28a8 a5bd a96e 073e d0c0 a93d 2f6d b9bd
000003b0: ca49 95bd ae8b e43d a309 26bd 77c4 2a3c
000003c0: d8ca 8e3d 21d5 863d 4f43 afbd 3c98 d83d
000003d0: cbc7 283d aa23 093d bd62 a9bd 23cb 9b3d
000003e0: 8797 68bc 3b84 d73d d0ce 963d b009 063e
000003f0: 61bd 90bc 373a a33d ba5d ec3d 4a86 293d

model.2.weight f4 [256, 256]
-0.0037940461 -0.047074217 -0.025969513 -0.0023038 -0.07144354 -0.044121314 0.044090163 -0.038862266
-0.054271787 0.018467374 0.033498682 -0.057647716 0.00045562454 -0.06923157 0.003328264 0.0389335
0.039091382 0.051806256 -0.018311592 -0.02504751 0.017007628 0.02430656 -0.05172532 -0.072830975
-0.0153419785 0.013440329 0.019008093 -0.023337932 0.053246513 -0.03898104 -0.012551515 0.00623712
-0.050133277 0.06240038 -0.035882313 0.029967569 8.814831e-05 -0.032834213 0.063247286 -0.019884387
0.025825353 0.052860916 -0.03323849 0.059925664 -0.021128695 -0.056023933 0.0389774 -0.011930026
-0.058714814 -0.027599147 0.03974039 -0.0047093807 -0.018620417 0.046246964 0.037782785 -0.14268331
0.007701954 0.04207763 -0.018621743 -0.0052131377 0.065807685 -0.023470925 0.10921762 0.009659566
0.04514306 0.026433442 0.0044241925 0.023279471 -0.048718784 -0.1321409 -0.04433363 -0.029250594
-0.025864804 -0.013771515 -0.036458675 -0.04133746 0.014075013 0.06937706 -0.039480865 -0.049915165
-0.014148647 -0.077613816 -0.0742054 0.06119061 0.12105567 0.057838134 -0.04530921 -0.035066172
0.054344893 -0.041203372 -0.07277297 -0.05393202 0.0026144884 0.018483771 -0.02949674 0.06634159
-0.042975932 -0.03026112 0.036259692 0.02198096 0.045982633 -0.014954732 0.033063192 -0.019658789
0.0052800323 -0.041002136 0.04445339 0.012714642 0.005687348 0.0032067623 0.034083385 -0.10232552
0.05815057 0.041995827 0.045202695 -0.014083018 -0.05163821 -0.025765773 -0.026729358 -0.021108087
0.038295515 -0.012042363 0.059075937 -0.111092225 -0.094004795 -0.043989863 0.02115381 0.014917987
0.04214723 0.090654284 0.04212475 -0.0552433 -0.0029388466 0.060101736 0.061726343 0.018817574
-0.03885559 -0.058166504 0.06747785 -0.010894395 0.025178427 -0.00802982 -0.028498156 0.013807113
0.052066654 -0.006607462 0.021235801 0.028158568 -0.0021418023 0.019218516 0.027023327 0.05088149
-0.032566275 0.040560897 -0.010755692 0.020803846 -0.054028526 0.08497939 0.04653722 0.021779004
0.009594684 0.023471816 -0.056734085 -0.055346254 0.039635066 -0.07482151 0.027172519 -0.043323807
-0.07263916 -0.02032278 -0.009457049 -0.05478284 -0.058719527 -0.051998265 0.02928177 -0.0107852565
0.053567566 -0.056149412 -0.049066585 -0.027739242 0.07143017 0.05187419 -0.015984286 -0.045066178
0.0020677815 0.007783932 0.019906033 -0.053194456 0.0046111415 0.0066870856 0.030079199 -0.03194477
0.025595171 0.024207115 0.047615655 0.026788922 0.011706492 -0.06587308 -0.0037327243 0.065170355
0.04247235 -0.00625924 0.019351069 0.06686585 -0.019093333 -0.05795587 0.04807907 -0.009149105
-0.018795999 0.02150948 0.09689267 0.07383238 -0.05633913 0.021719677 -0.040964305 -0.080390185
-0.024780115 0.040897608 0.09548413 0.035786714 0.029780215 -0.058767818 -0.03525333 -0.03035173
-0.048935514 -0.029661061 -0.052132796 -0.046037626 0.0028492725 -0.021919815 0.003957959 -0.018196119
0.009866883 -0.061629254 -0.05495109 -0.05925736 0.048581555 -0.006771601 -0.0666394 -0.03281295
-0.007991309 -0.05107598 0.056015313 0.0394747 0.0066213454 -0.0040080515 0.005258499 0.010321064
-0.0044395644 0.0036498886 -0.063061036 0.016692368 0.012417902 0.029974438 0.025214927 0.049099825
00000000: 88a5 78bb e5d0 40bd 04be d4bc 5afb 16bb
00000010: fe50 92bd 8db8 34bd e397 343d 0a2e 1fbd
00000020: 184c 5ebd e448 973c ea35 093d 0320 6cbd
00000030: e4e0 ee39 48c9 8dbd 011f 5a3b bc78 1f3d
00000040: 491e 203d cc32 543d 3102 96bc 7030 cdbc
00000050: 9553 8b3c 8d1e c73c eedd 53bd 6828 95bd
00000060: ec5c 7bbc d334 5c3c dcb6 9b3c 312f bfbc
00000070: 0419 5a3d 95aa 1fbd dfa4 4dbc c160 cc3b
00000080: 8d58 4dbd 8a97 7f3d 55f9 12bd 8c7e f53c
00000090: 43dc b838 2b7d 06bd cb87 813d 95e4 a2bc
000000a0: b18f d33c b084 583d 1525 08bd 9d74 753d
000000b0: 1616 adbc 5a79 65bd c4a6 1f3d 2876 43bc
000000c0: f27e 70bd 9b17 e2bc d2c6 223d 2651 9abb
000000d0: d889 98bc 756d 3d3d 1fc2 1a3d 931b 12be
000000e0: ac60 fc3b 9859 2c3d a08c 98bc f8d2 aabb
000000f0: 2ec6 863d 1946 c0bc 7dad df3d 2843 1e3c
00000100: eee7 383d f28a d83c d1f8 903b 97b4 be3c
00000110: 598d 47bd f24f 07be 2e97 35bd f19e efbc
00000120: 6de2 d3bc eca1 61bc b155 15bd 7851 29bd
00000130: e29a 663c 8f15 8e3d b0b6 21bd d873 4cbd
00000140: bacf 67bc fef3 9ebd 00f9 97bd 01a3 7a3d
00000150: 09ec f73d aee7 6c3d 2696 39bd 8ca1 0fbd
00000160: c098 5e3d dec4 28bd ff09 95bd d2e7 5cbd
00000170: d657 2b3b 476b 973c 26a3 f1bc 19de 873d
00000180: 8807 30bd 2be6 f7bc 0b85 143d 6a11 b43c
00000190: 4958 3c3d b104 75bc 456d 073d 780b a1bc
000001a0: 1f04 ad3b dbf1 27bd c214 363d 1351 503c
000001b0: ef5c ba3b 8b28 523b 059b 0b3d 0b90 d1bd
000001c0: 4b2f 6e3d d103 2c3d 7626 393d 75bc 66bc
000001d0: 9682 53bd be12 d3bc 87f7 dabc deea acbc
000001e0: c2db 1c3d 554d 45bc 9cf9 713d 5284 e3bd
000001f0: 9685 c0bd b72e 34bd c14a ad3c 936a 743c
00000200: 93a2 2c3d f4a8 b93d 008b 2c3d cc46 62bd
00000210: aa99 40bb 3d2d 763d c3d4 7c3d 5027 9a3c
00000220: 0a27 1fbd 0040 6ebd d431 8a3d 687e 32bc
00000230: fd42 ce3c 828f 03bc f774 e9bc 3b37 623c
00000240: d843 553d 6983 d8bb b4f6 ad3c ccac e63c
00000250: 7b5d 0cbb 2670 9d3c 0660 dd3c 1c69 503d
00000260: 3764 05bd 2f23 263d a438 30bc d46c aa3c
00000270: 044d 5dbd ad09 ae3d d09d 3e3d e269 b23c
00000280: 0533 1d3c f747 c03c 0062 68bd c1b2 62bd
00000290: 6158 223d 053c 99bd e798 de3c 4e74 31bd
000002a0: d7c3 94bd f57b a6bc bdf1 1abc f963 60bd
000002b0: e383 70bd 22fc 54bd 53e0 ef3c a5b4 30bc
000002c0: aa69 5b3d edfc 65bd 0bfa 48bd 683d e3bc
000002d0: fb49 923d 087a 543d 7af1 82bc 5097 38bd
000002e0: 9e83 073b 5b10 ff3b fa11 a33c 6ee2 59bd
000002f0: 0f19 973b 571f db3b a768 f63c 85d8 02bd
00000300: f7ac d13c 004e c63c a208 433d 7174 db3c
00000310: 96cc 3f3c 77e8 86bd b9a0 74bb 0978 853d
00000320: 7df7 2d3d 501a cdbb 2286 9e3c f6f0 883d
00000330: 9f69 9cbc 2263 6dbd 8fee 443d 21e6 15bc
00000340: 11fa 99bc a634 b03c aa6f c63d 6e35 973d
00000350: dcc3 66bd 77ed b13c 30ca 27bd 9ca3 a4bd
00000360: abff cabc 4084 273d 2f8d c33d 1795 123d
00000370: a3f5 f33c 86b6 70bd cc65 10bd 31a4 f8bc
00000380: 9b70 48bd c1fb f2bc 3389 55bd f391 3cbd
00000390: dcba 3a3b 2f91 b3bc c4b1 813b 0710 95bc
000003a0: b5a8 213c f56e 7cbd 6514 61bd d8b7 72bd
000003b0: 74fd 463d 4ee4 ddbb 3d7a 88bd df66 06bd
000003c0: fbed 02bc 0c35 51bd 5070 653d 39b0 213d
000003d0: dff7 d83b f955 83bb 7d4f ac3b ae19 293c
000003e0: c479 91bb f832 6f3b 2526 81bd 6fbe 883c
000003f0: 7574 4b3c f48c f53c 898f ce3c e61c 493d

model.2.bias f4 [256]
-0.03960732 -0.028545557 -0.030130971 0.024493914 -0.027230656 0.053158928 -0.0584723 0.052607078
0.020040981 -0.04473959 -0.053749014 0.068195805 0.014060634 0.006564249 0.06896558 0.03456634
0.0482175 -0.056414843 0.013375625 -0.02912381 -0.0038421229 0.025707241 0.04616986 0.06652085
-0.01929229 -0.05318649 0.050658535 0.029647913 -0.03906002 -0.0022870956 0.032920204 -0.029886814
0.05777277 0.020105712 -0.045098342 0.008676888 -0.011080644 0.013459964 0.020454267 -0.15474962
0.04423948 -0.042853944 0.051043436 -0.06200394 -0.014750603 0.0037093817 0.029216604 -0.042122137
0.055798408 0.033354696 -0.014659298 -0.038889367 0.06292278 -0.007047096 -0.03696221 -0.0024901289
-0.026150478 -0.058095817 -0.015263096 -0.02487996 -0.088679105 0.055215508 0.048494346 0.033036254
-0.0008411796 0.016142694 -0.00072253315 0.05509489 -0.02138114 0.023013039 0.010003879 0.03649596
-0.021341672 0.03345981 0.03985943 0.047294594 0.0014702571 -0.038592532 0.038353875 0.021532144
-0.03675823 -0.032673158 0.034262214 -0.05947642 0.067980126 0.05742222 -0.014588982 0.031301502
0.046300326 0.014296452 0.0088669155 0.027981792 0.055734646 0.0615541 -0.114425085 0.006849817
0.012599939 0.0022375581 -0.03852773 0.040282615 -0.05426197 0.033649143 -0.042071253 0.048534468
0.010600489 -0.017936425 0.08730037 -0.004891333 0.006390105 -0.044102006 0.061255135 0.0063611045
0.049562845 -0.05841404 0.020860076 0.0033041448 0.036910336 -0.041098505 -0.027772706 -0.043257575
-0.038854707 -0.032946516 -0.004654667 -0.055660065 -0.038483687 0.02710153 -0.019759936 -0.02050278
-0.032157715 -0.031618357 0.045428436 0.027805258 -0.014663292 -0.016568875 0.044055533 0.03398703
0.0050829463 0.023076525 0.009837376 -0.05040955 -0.041409537 0.05346564 0.030791588 0.033755224
0.06353401 0.061721854 0.012782448 0.02407147 0.029728588 -0.054754067 0.052191686 0.036731448
-0.04733395 -0.023524696 0.0030567425 -0.034618974 0.05291067 0.007974249 0.048896965 -0.0525755
-0.047729284 -0.050500173 0.01507262 -0.033626176 0.05672155 0.05352824 0.058752395 -0.045801893
0.067595996 -0.028433701 0.05974051 0.016476952 -0.037579935 0.089682736 -0.0041056713 0.04034267
0.06609913 0.0836009 -0.047896035 -0.013773507 0.05735204 -0.053780142 0.029521981 -0.00023309051
-0.008890037 0.028036952 0.026641913 -0.044281233 0.05230953 0.015198256 -0.04952693 0.055552926
0.04386566 0.08886677 -0.049282096 -0.022502346 0.016168615 -0.05156798 -0.011039669 -0.034538623
0.007002601 0.03649993 -0.03883056 -0.041892663 0.001460794 -0.043262124 0.05631003 0.05147176
-0.0111897215 -0.0283091 0.050040554 0.021637801 -0.030131213 -0.021852985 0.038047753 0.045122754
0.038135897 -0.047632612 0.0071772616 0.013188034 0.050666563 -0.018761488 0.040164977 0.020438211
-0.03493042 -0.015475303 -0.04380572 0.019644426 -0.034585346 0.061067294 0.024812805 0.0566732
-0.016596017 0.010509158 0.01740903 0.028480724 -0.025668466 -0.02380752 -0.014455883 0.05989172
-0.006980539 -0.008266055 0.010797469 -0.03173321 0.048566513 0.018839674 -0.0059770737 0.042785723
-0.03375787 0.06421502 0.025485698 0.05330397 -0.021372953 0.019411115 -0.05934147 -0.025708443
00000000: 493b 22bd 5fd8 e9bc 3ad5 f6bc 76a7 c83c
00000010: d312 dfbc 2dbd 593d a780 6fbd 857a 573d
00000020: fc2c a43c dc40 37bd ed27 5cbd 3eaa 8b3d
00000030: 935e 663c e918 d73b d33d 8d3d 6f95 0d3d
00000040: b77f 453d 4013 67bd 7025 5b3c 0e95 eebc
00000050: 20cc 7bbb fe97 d23c 9b1c 3d3d 153c 883d
00000060: dd0a 9ebc 14da 59bd 537f 4f3d 2ee0 f23c
00000070: 66fd 1fbd 19e3 15bb 56d7 063d 31d5 f4bc
00000080: 24a3 6c3d bcb4 a43c 0ab9 38bd 8229 0e3c
00000090: 978b 35bc 2e87 5c3c b58f a73c af76 1ebe
000000a0: 7534 353d 9e87 2fbd ec12 513d d8f7 7dbd
000000b0: 83ac 71bc 1919 733b a957 ef3c 4388 2cbd
000000c0: df8c 643d ef9e 083d 8d2d 70bc 754a 1fbd
000000d0: a9dd 803d 53eb e6bb b065 17bd 6e31 23bb
000000e0: 8739 d6bc e1f5 6dbd 1112 7abc 0fd1 cbbc
000000f0: 649d b5bd a829 623d 02a2 463d 0651 073d
00000100: 9b82 5cba af3d 843c 6168 3dba 2eab 613d
00000110: 8027 afbc d785 bc3c 4fe7 233c ca7c 153d
00000120: bbd4 aebc 270d 093d a443 233d fab7 413d
00000130: a4b5 c03a 3413 1ebd f418 1d3d 2e64 b03c
00000140: cc8f 16bd 4ad4 05bd 8956 0c3d 8c9d 73bd
00000150: 2a39 8b3d 9033 6b3d a006 6fbc 0136 003d
00000160: 69a5 3d3d aa3b 6a3c 8a46 113c 123a e53c
00000170: 034a 643d 2720 7c3d b357 eabd 6e74 e03b
00000180: f96f 4e3c ffa3 123b 41cf 1dbd 62ff 243d
00000190: cd41 5ebd afd3 093d e852 2cbd 14cc 463d
000001a0: acad 2d3c 69ef 92bc 89ca b23d 7a47 a0bb
000001b0: 1664 d13b 4ea4 34bd aae6 7a3d d070 d03b
000001c0: 6902 4b3d 8f43 6fbd c0e2 aa3c 5a8a 583b
000001d0: 4b2f 173d e856 28bd 9683 e3bc db2e 31bd
000001e0: 1d26 1fbd edf2 06bd 2d86 98bb cffb 63bd
000001f0: 12a1 1dbd 0704 de3c 97df a1bc 72f5 a7bc
00000200: cfb7 03bd 4082 01bd 2b13 3a3d dac7 e33c
00000210: 4e3e 70bc 73bb 87bc 9373 343d fc35 0b3d
00000220: d88e a63b fb0a bd3c f22c 213c 3f7a 4ebd
00000230: 0c9d 29bd c9fe 5a3d a43e fc3c eb42 0a3d
00000240: 1e1e 823d 0ed0 7c3d 796d 513c 8831 c53c
00000250: 5e89 f33c cd45 60bd f3c6 553d b773 163d
00000260: 3ee1 41bd ddb6 c0bc a153 483b a0cc 0dbd
00000270: dcb8 583d 6da6 023c 2f48 483d 6859 57bd
00000280: c87f 43bd 45d9 4ebd 26f3 763c 9abb 09bd
00000290: db54 683d 6e40 5b3d 5aa6 703d c49a 3bbd
000002a0: c56f 8a3d cbed e8bc 77b2 743d acfa 863c
000002b0: 6bed 19bd 95ab b73d de88 86bb 5b3e 253d
000002c0: fb5e 873d f336 ab3d a22e 44bd 47aa 61bc
000002d0: f9e9 6a3d 9148 5cbd 15d8 f13c c269 74b9
000002e0: 85a7 11bc c0ad e53c 2440 da3c 3d60 35bd
000002f0: 8542 563d 1b02 793c c0dc 4abd 778b 633d
00000300: 7aac 333d c8ff b53d 06dc 49bd d756 b8bc
00000310: 0b74 843c f238 53bd badf 34bc 5f78 0dbd
00000320: 1376 e53b f380 153d cb0c 1fbd a497 2bbd
00000330: 1d78 bf3a a033 31bd 59a5 663d 0dd4 523d
00000340: 1855 37bc 7ce8 e7bc 53f7 4c3d c241 b13c
00000350: bcd5 f6bc 0805 b3bc f6d7 1b3d a3d2 383d
00000360: 6334 1c3d 6a1a 43bd 3c2f eb3b a012 583c
00000370: be87 4f3d b1b1 99bc 0884 243d 096e a73c
00000380: 3313 0fbd 208c 7dbc a06d 33bd 59ed a03c
00000390: 5da9 0dbd b321 7a3d 3944 cb3c 2822 683d
000003a0: 5ff4 87bc 9a2e 2c3c 629d 8e3c 6850 e93c
000003b0: ad46 d2bc fd07 c3bc 5ed8 6cbc 0551 753d
000003c0: 01bd e4bb 596e 07bc dee7 303c affa 01bd
000003d0: aeed 463d a955 9a3c 54db c3bb 1540 2f3d
000003e0: b145 0abd 2a83 833d 62c7 d03c 4355 5a3d
000003f0: 5516 afbc 0f04 9f3c 0b10 73bd 839a d2bc

model.4.weight f4 [66, 256]
-0.04073854 -0.002716235 -0.070353925 0.064132266 0.030431155 -0.020422347 -0.00062726747 0.014090141
-0.039530154 0.03302862 0.024666317 0.011449857 -0.10138696 -0.058441907 -0.01598145 0.08920184
-0.008109836 0.007856117 0.024282988 0.012164252 -0.023329496 -0.020149168 0.024819355 -0.006333354
0.0104141105 0.21641363 -0.23415825 0.014165198 -0.06947021 -0.02501944 0.033043683 0.044396803
0.008693947 -0.060702667 0.005070214 0.044472195 0.093582526 0.04380775 0.03934937 0.014694651
0.085206136 -0.02574473 -0.0015184287 -0.065210156 0.06339449 -0.016549433 0.06556681 -0.060372833
-0.049538866 -0.039993152 -0.03507544 -0.0706642 0.07511903 0.05860317 -0.012197185 0.065408796
-0.019269302 -0.025995165 -0.044294517 -0.06289395 0.022765078 0.037398513 -0.060994115 0.06420883
0.06711905 -0.02755371 0.051832236 -0.0014561883 0.28381687 0.03707422 -0.0094798785 0.059610657
0.0736491 -0.08066098 -0.040076196 0.08284938 0.062603004 0.025656726 0.055142127 -0.09241392
0.032023855 0.020083772 -0.046463896 -0.040199857 -0.047199298 -0.011010576 -0.037276395 -0.0014380055
0.044864174 0.07442534 0.008042325 -0.04467556 -0.016755067 0.07303203 -0.018346451 0.07188235
0.042082924 0.021153051 0.036143575 -0.009465693 -0.059169903 -0.0064808778 -0.051487774 -0.026373798
0.013930332 0.03345029 0.033092763 -0.096078 0.08162234 -0.06049299 0.0691865 0.018872542
-0.015075579 -0.0671826 0.010871642 -0.030653037 -0.00013122972 0.018564733 -0.079523444 0.018650517
-0.03661053 0.019291317 0.04695213 -0.05590479 -0.09192583 -0.20188148 -0.059708297 -0.059845597
0.006186896 0.0033994217 0.038905464 0.008981542 -0.046025693 -0.07546965 -0.05760379 0.07346541
-0.07391492 -0.14075623 -0.003630046 -0.020848049 0.027240228 -0.13082372 0.010335184 0.043172944
0.04976289 -0.035507396 -0.10551585 -0.030038614 -0.033434607 -0.07038569 0.029507145 -0.02181133
-0.046510693 -0.07060285 0.06719893 0.011935608 0.026152428 0.014362419 -0.042613197 -0.06704365
-0.0017316304 0.032100856 0.0153349 0.06598513 0.040493786 -0.014490519 0.0084662745 0.036903393
-0.03382573 0.0062228804 -0.016000208 -0.0022850577 0.021942142 0.03962096 0.00045691448 -0.017341876
0.07388509 0.03641035 0.031155821 -0.2551912 0.05126377 -0.0018155673 0.06512743 -0.018865453
-0.013840686 -0.18302898 0.021714132 0.0489558 -0.009753006 -0.06377524 0.026716579 -0.016690867
-0.001252328 -0.03876888 0.03284666 -0.048328597 -0.026797146 -0.111033596 -0.0033932223 0.004335033
0.0021498017 0.011957333 0.021542761 -0.088679105 -0.02356794 0.045247745 -0.053639006 -0.035526607
-0.01448094 0.026979059 -0.01834061 0.021180388 0.024773225 0.017836064 0.035836935 0.07687046
-0.04139109 -0.024712635 0.039223563 -0.040886153 0.008089591 0.06261778 -0.037387617 0.06981891
0.19315085 0.033100408 0.028035007 0.074879326 -0.040528215 0.077103615 -0.0009769154 0.07427879
0.05612125 0.25891048 0.014807102 0.081630014 -0.117282644 -0.036524393 -0.029267859 -0.069169044
-0.038578205 -0.07300498 0.17846952 -0.0010676002 -0.012072963 -0.065297276 0.056240663 -0.02944058
0.019492636 0.006701527 -0.013078579 -0.00353825 -0.0949557 0.04685959 -0.0151019255 -0.02123459
00000000: 75dd 26bd dc02 32bb b815 90bd c757 833d
00000010: c24a f93c c44c a7bc 356f 24ba 56da 663c
00000020: 5fea 21bd 0549 073d 0411 ca3c 2e98 3b3c
00000030: f7a3 cfbd c860 6fbd 88eb 82bc 74af b63d
00000040: 1edf 04bc f1b6 003c 1eed c63c 924c 473c
00000050: 801d bfbc de0f a5bc f651 cb3c 0688 cfbb
00000060: f29f 2a3c 899b 5d3e 2ec7 6fbe 2615 683c
00000070: 6646 8ebd 92f5 ccbc d058 073d 6cd9 353d
00000080: 0f71 0e3c 5ca3 78bd 0a24 a63b 7a28 363d
00000090: 32a8 bf3d c16f 333d ce2c 213d d5c1 703c
000000a0: 8e80 ae3d 9de6 d2bc 0306 c7ba e78c 85bd
000000b0: f8d4 813d ad92 87bc e447 863d 8149 77bd
000000c0: 44e9 4abd dccf 23bd 44ab 0fbd 64b8 90bd
000000d0: 02d8 993d e109 703d b4d6 47bc 0cf5 853d
000000e0: a8da 9dbc d0f3 d4bc 2b6e 35bd 8bce 80bd
000000f0: d47d ba3c 2f2f 193d f7d4 79bd eb7f 833d
00000100: b675 893d 51b8 e1bc 0a4e 543d 92dd beba
00000110: 7250 913e 23db 173d 7e51 1bbc 4e2a 743d
00000120: 57d5 963d 9531 a5bd f026 24bd f0ac a93d
00000130: 0136 803d 0e2e d23c b6dc 613d 8243 bdbd
00000140: 722b 033d b986 a43c ed50 3ebd 9ba8 24bd
00000150: 0d54 41bd b465 34bc 22af 18bd 757b bcba
00000160: 7fc3 373d 506c 983d f5c3 033c b8fd 36bd
00000170: ec41 89bc d191 953d 4c4b 96bc 0e37 933d
00000180: 255f 2c3d 2a49 ad3c 490b 143d fe15 1bbc
00000190: 245c 72bd 8b5d d4bb d8e4 52bd dd0d d8bc
000001a0: 0c3c 643c 2c03 093d 478c 073d 8bc4 c4bd
000001b0: 9d29 a73d 7fc7 77bd a7b1 8d3d 979a 9a3c
000001c0: 90ff 76bc 0897 89bd f91e 323c 141c fbbc
000001d0: b69a 09b9 1115 983c 30dd a2bd f8c8 983c
000001e0: ecf4 15bd d308 9e3c e050 403d 6cfc 64bd
000001f0: 9c43 bcbd 05ba 4ebe b090 74bd a820 75bd
00000200: 72bb ca3b d5c8 5e3b 565b 1f3d 5127 133c
00000210: 7085 3cbd d58f 9abd f4f1 6bbd 0875 963d
00000220: b560 97bd 6722 10be 11e6 6dbb 87c9 aabc
00000230: e626 df3c a7f6 05be e754 293c 1dd6 303d
00000240: 2cd4 4b3d 3470 11bd b218 d8bd 8a13 f6bc
00000250: baf2 08bd 5f26 90bd f8b8 f13c adad b2bc
00000260: ff81 3ebd 3a98 90bd 989f 893d 928d 433c
00000270: 9e3d d63c 5a50 6b3c 2d8b 2ebd 2e4e 89bd
00000280: e0f7 e2ba 307c 033d 3b3f 7b3c 3623 873d
00000290: d0dc 253d a469 6dbc 21b6 0a3c 0328 173d
000002a0: d98c 0abd 4ee9 cb3b de12 83bc e8c0 15bb
000002b0: 02c0 b33c 9649 223d 068e ef39 8d10 8ebc
000002c0: 1151 973d 0523 153d 7e3a ff3c 6ca8 82be
000002d0: f5f9 513d 54f8 edba 8861 853d b98b 9abc
000002e0: 0bc4 62bc f36b 3bbe d6e1 b13c e085 483d
000002f0: 12cb 1fbc 989c 82bd badc da3c 49bb 88bc
00000300: 2825 a4ba 1ecc 1ebd 388a 063d 35f4 45bd
00000310: b085 dbbc 9565 e3bd d360 5ebb e40c 8e3b
00000320: b0e3 0c3b b1e8 433c 727a b03c 649d b5bd
00000330: 8d11 c1bc b355 393d 93b4 5bbd 5984 11bd
00000340: 7741 6dbc 3003 dd3c 0c3f 96bc 7e82 ad3c
00000350: 38f1 ca3c f01c 923c c0c9 123d 426e 9d3d
00000360: b489 29bd 2772 cabc e3a8 203d 3d78 27bd
00000370: 348a 043c c03d 803d c223 19bd 37fd 8e3d
00000380: 56c9 453e 4b94 073d aca9 e53c 555a 993d
00000390: ea00 26bd 80e8 9d3d d70b 80ba 7a1f 983d
000003a0: 65df 653d ea8f 843e 7d99 723c a32d a73d
000003b0: e231 f0bd 9a9a 15bd 26c3 efbc 80a8 8dbd
000003c0: 2e04 1ebd a383 95bd b7c0 363e b8ee 8bba
000003d0: adcd 45bc 94ba 85bd 9c5c 663d 5f2d f1bc
000003e0: 05af 9f3c 7c98 db3b 8947 56bc fce1 67bb
000003f0: 2278 c2bd d7ef 3f3d 116e 77bc 2af4 adbc

model.4.bias f4 [66]
0.033107642 0.05331509 0.095041476 0.062120672 0.061086684 -0.00637712 -0.0039866017 0.049757376
0.032001585 0.053206887 -0.03915936 0.018516907 -0.0201868 -0.0442897 0.04182665 0.01573602
-0.041365154 -0.047453187 0.006093121 0.031545866 0.065336615 -0.03223706 -0.017623678 0.03809406
-0.019659424 0.031498194 0.06986944 0.043038376 0.05908756 -0.025211086 -0.043273587 0.05118965
0.040155493 0.02275723 0.017450247 0.021929067 0.022149708 -0.045953054 0.043552395 -0.04428038
-0.050145973 -0.00072815624 0.03976579 -0.006641064 0.0057707517 -0.022580275 -0.0461766 0.029095938
-0.0243064 0.013074344 -0.0059617674 0.037900597 0.00023683863 -0.038630478 -0.027125558 0.03552102
-0.03246616 0.019627895 -0.008991922 -0.022842033 -0.031791963 0.02361152 -0.03161694 0.049271356
-0.047382567 0.03887414
00000000: e19b 073d ec60 5a3d 1ba5 c23d 3f72 7e3d
00000010: 0836 7a3d 29f7 d0bb 0aa2 82bb 64ce 4b3d
00000020: 1814 033d 77ef 593d 9165 20bd c5b0 973c
00000030: ca5e a5bc 1e69 35bd 6c52 2b3d d3e8 803c
00000040: 826e 29bd 465e 42bd cea8 c73b 3d36 013d
00000050: 34cf 853d 020b 04bd 885f 90bc 8408 1c3d
00000060: cd0c a1bc 4004 013d b517 8f3d 0249 303d
00000070: cc05 723d 7b87 cebc a53f 31bd 3dac 513d
00000080: 167a 243d 5f6d ba3c d2f3 8e3c 96a4 b33c
00000090: 4e73 b53c 4539 3cbd ff63 323d 585f 35bd
000000a0: dd65 4dbd bde1 3eba 74e1 223d 489d d9bb
000000b0: 9318 bd3b 45fa b8bc ad23 3dbd 9b5a ee3c
000000c0: 371e c7bc c635 563c ee5a c3bb a83d 1b3d
000000d0: e357 7839 fe3a 1ebd 6b36 debc 7d7e 113d
000000e0: 3cfb 04bd aeca a03c db52 13bc 371f bbbc
000000f0: 4a38 02bd f26c c13c c480 01bd c3d0 493d
00000100: 3914 42bd 7d3a 1f3d
