ann/pinn_model0.02.pth (torch, 402382 bytes, 6 tensors)

model.0.weight f4 [256, 66]
000000 d4 2c c3 3d c8 81 0d 3e 8f 12 42 3d 1a 79 b3 3d
       0.09530035 0.13819039 0.04738098 0.08763333
000010 81 76 c6 bc 7a 26 82 3d f7 14 3e bd aa 02 6a 3d
       -0.024226429 0.06354995 -0.046406712 0.057131447
000020 6a 3f bd 3d a5 30 58 bd dd f1 3a 3e 12 14 5e bb
       0.09240611 -0.052780766 0.18256326 -0.0033886475
000030 a8 bb 75 3d ce 27 0d 3c ac ec c6 3d 0b 37 91 bc
       0.059993416 0.008615447 0.0971311 -0.017726442
000040 5b 1d d5 3d 94 e1 4f 3d 15 ba 2c bd 67 51 98 3d
       0.1040599 0.050752237 -0.04216965 0.07437401
000050 31 84 6d 3a da 84 25 3d ec 8a 81 bd 60 81 05 3e
       0.00090605306 0.0404099 -0.06325325 0.13037634
000060 5a 02 4e bd 7d 67 d2 bd f0 06 77 bd 60 3a cb bd
       -0.05029521 -0.10273645 -0.06030935 -0.099232435
000070 68 6d e8 bc 92 59 8e bd 85 5a 00 3e 12 76 9d bd
       -0.028372481 -0.06950678 0.1253453 -0.07688536
000080 5f a2 8a 3d cc 05 91 3c 74 a4 96 bc 32 7f 13 3e
       0.06769251 0.01770296 -0.018388964 0.1440399
000090 86 e6 60 3d 5f 97 a8 3d a4 ac 3f bd ed 44 c5 bc
       0.054907344 0.08231997 -0.046795502 -0.024080718
0000a0 20 11 be 3d ae 15 7a 3d b9 20 63 bd d9 07 23 3e
       0.0928061 0.06105583 -0.05545113 0.15920962
0000b0 85 f3 1f 3e 18 2a 7c 3d e7 bd 85 3d 3b 0e 09 bd
       0.15620239 0.06156358 0.065303616 -0.033460837
0000c0 58 00 5c 3d a6 8f d8 bd a8 78 bd bd 07 5c 57 bd
       0.053711265 -0.10574274 -0.09251529 -0.052578
0000d0 c7 03 f1 bc 62 23 40 3e 00 ff a3 3d 96 c9 c9 3d
       -0.029420746 0.18763497 0.08007622 0.098529026
0000e0 da 59 32 bc a4 a1 2d 3b 48 af 30 3e 75 17 23 3d
       -0.01088568 0.002649405 0.17254364 0.039817292
0000f0 fb e1 cc 3d 39 be 7b bc 10 b6 c1 bc 69 4f 46 bd
       0.1000404 -0.015365177 -0.023646384 -0.048415575
000100 34 6a 07 bd eb ea 0d 3d 78 f5 df 3d d5 e5 87 bd
       -0.033060268 0.034647863 0.10935491 -0.06635634
000110 42 ce a2 bc d6 f3 dc bd 8d 84 d1 3d 24 19 d1 3c
       -0.019873742 -0.107886955 0.1023036 0.025524683
000120 e1 02 dd 3d 34 fc c9 bd 99 ba eb bd 6c df ed bd
       0.10791565 -0.09862557 -0.115102 -0.1161488
000130 dd 9b 5c bc 2b d2 14 3d 60 99 b6 3c c0 bd c3 3d
       -0.013464895 0.036333244 0.022289932 0.09557676
000140 95 15 80 bd 12 04 d9 bd 8b 62 88 3d 28 f0 f4 bb
       -0.062541164 -0.105964795 0.066594206 -0.007474918
000150 d2 13 24 3d 54 11 a9 3b 72 98 03 3e 88 a6 2a bd
       0.040057965 0.0051595364 0.12851122 -0.041662723
000160 bd cf b6 bd f8 e0 32 3d 0d ae 66 3d 70 25 39 bd
       -0.08926342 0.04367158 0.05631833 -0.04520172
000170 16 37 8c 3d 90 eb 84 3d 1c 53 01 be 47 c2 ab bd
       0.06846444 0.064902425 -0.1262936 -0.08386665
000180 58 01 de 3d b3 4b 7a bd b2 d1 8e bd 50 a2 e6 bd
       0.108401 -0.06110735 -0.0697359 -0.112614274
000190 7a 6d 84 bd e3 e1 b3 3d 2e 33 37 bd c8 cd c7 bd
       -0.064661935 0.08783319 -0.044726543 -0.097560465
0001a0 df 30 0b bd 6f 04 bd bd 9c 6c a9 bd 1b 52 24 bd
       -0.033982154 -0.09229361 -0.08272669 -0.040117364
0001b0 0b c2 15 be 1f 8e 2d bc 8d 8a 00 3e a8 0f d1 3c
       -0.14624803 -0.010592966 0.12552853 0.02552016
0001c0 a4 02 e8 3c 7a 9c 03 be 80 2c d9 bd 2c 96 42 bd
       0.028321572 -0.1285266 -0.10604191 -0.047506496
0001d0 cd d2 7b 3d 7f 5a 14 be c5 fd 32 bc a6 79 14 bb
       0.061480332 -0.14487647 -0.010924761 -0.0022655516
0001e0 5f 54 81 3d 75 05 80 bd 11 02 da bc 39 bd 88 bd
       0.06314921 -0.06251041 -0.026612313 -0.06676716
0001f0 ee 0b a4 bd 03 7d 49 bd 9d 3e 25 bd d7 02 f2 bd
       -0.08010088 -0.049191486 -0.040342916 -0.11816948
000200 05 f8 8f 3d 83 bc 00 bd 12 bd 8b 3d 89 d1 a9 3c
       0.07029728 -0.03142978 0.06823172 0.020729797
000210 ff 04 e3 bd 8a 67 99 3d f6 81 8f bd 81 00 5d bc
       -0.11084937 0.07490452 -0.0700721 -0.01348889
000220 5b 5f cc bd 41 32 d7 bd 55 f0 24 3d 2f 59 c4 bc
       -0.09979125 -0.10507632 0.04026826 -0.023968307
000230 e0 d4 25 3d 29 0f 9f bd c2 71 17 3d 00 19 a7 bd
       0.040486217 -0.077665634 0.036973722 -0.08159065
000240 72 12 de 39 8e 96 03 3d 57 5e 3f 3d 5f 7d eb 3d
       0.00042356882 0.032126002 0.04672083 0.11498522
000250 45 5f e4 3d 82 42 0b be de dc 5e 3d fc a5 78 bd
       0.11150984 -0.1359959 0.054409854 -0.06070517
000260 41 b4 68 bd 79 5a ec bd ea f4 f8 3d 89 a1 c6 bd
       -0.05681253 -0.11540694 0.12156089 -0.09698779
000270 53 d8 20 3d 1d f7 45 3d 14 9e 70 3d de fa 30 bd
       0.039268803 0.04833137 0.058744505 -0.043207996
000280 f5 98 0e 3e 86 76 18 3d 19 17 cf 3c 59 98 a3 bd
       0.13925536 0.037222408 0.025279569 -0.079880424
000290 4b 9e 9b 3d 00 8c b5 bc 51 6b 84 bd 99 87 91 3d
       0.07598551 -0.022161484 -0.064657815 0.07105941
0002a0 86 0a 4a 3d 73 82 7f bd cb 15 fe bc 11 1d 03 bc
       0.049326442 -0.062380265 -0.031016251 -0.008002535
0002b0 32 11 47 3d e0 29 88 bd 80 93 94 bc da c1 d0 bd
       0.048600383 -0.06648612 -0.01813674 -0.10193224
0002c0 15 a5 cc bd 62 33 27 3d 8b 8d b5 3d a7 fd ee bd
       -0.099924244 0.040820487 0.08864888 -0.11669474
0002d0 15 58 2f 3d c4 d6 89 3d 6d b3 83 bc 19 b4 9d bc
       0.04280861 0.067304164 -0.016076768 -0.019250916
0002e0 e2 92 3d 3d da fc 3d 3c 0b a0 b0 3c f3 c2 9b bc
       0.046282656 0.011595929 0.02156069 -0.019013857
0002f0 e0 8b f9 bc 84 96 85 bb 28 37 09 bd 16 f3 59 bd
       -0.030462205 -0.0040767808 -0.033499867 -0.05321034
000300 0e ec 9a 3d 4d 65 f2 3d 9b 7e 8d 3c 08 83 40 bc
       0.07564555 0.11835728 0.017272284 -0.01174999
000310 97 c8 21 3d 57 0c 1f b8 c2 54 73 3d 9a 34 10 3e
       0.039497938 -3.7920046e-05 0.059407003 0.14082566
000320 2f 76 14 3e aa 07 84 be bb 9e b8 3d 91 4f ea 3d
       0.14498208 -0.25787097 0.090146504 0.11440957
000330 51 8d ca bb d1 ba da bd c2 e5 9b bd 01 92 cb bd
       -0.006181397 -0.10680164 -0.07612182 -0.099399574
000340 af 91 79 3e b0 8f 8e bd 05 01 06 be 36 27 7d 3b
       0.2437198 -0.06961 -0.13086326 0.0038628108
000350 72 06 a5 3d ae 71 3b be e6 9e 95 3d 55 1f 9b 3e
       0.0805787 -0.18305084 0.07305698 0.30297342
000360 38 2f b2 bd 9b e2 07 3e ba 37 87 3e cf 80 35 3e
       -0.087004125 0.13270037 0.26409703 0.17724918
000370 44 72 4e be 93 c0 78 3e e0 73 28 3e 85 06 32 be
       -0.20160776 0.24292211 0.16450453 -0.173853
000380 0b 48 81 be 04 21 d2 bd ac 78 da bd 74 cc e4 3d
       -0.25250277 -0.102602035 -0.106675476 0.11171809
000390 ba b5 af bd bb 25 2d be 68 d1 a1 be c4 ca c4 3d
       -0.085795835 -0.16908924 -0.31605077 0.09608987
0003a0 50 7f c4 3d af 25 b5 3e b8 fd 90 3d 4e 45 b6 bd
       0.095945954 0.35380313 0.07079643 -0.088999376
0003b0 82 03 92 be 12 e7 bb bd f8 84 28 3e b6 0f 72 3e
       -0.285183 -0.091749325 0.16456974 0.23638806
0003c0 ea 38 cc be 9a c2 35 3e 0b f1 9e 3e 25 9c 91 3e
       -0.39887172 0.17750016 0.31043276 0.2843944
0003d0 7b 24 4b bd 24 67 80 be a7 5d 62 be 3b de db bc
       -0.049595337 -0.2507869 -0.22106038 -0.026839366
0003e0 68 90 19 3e a8 89 d4 bd f2 7b 35 3e 25 ba 55 3e
       0.14996493 -0.10377818 0.17723063 0.2087179
0003f0 86 43 38 3e e1 c6 07 3d 60 dc 70 be 52 c6 3e 3c
       0.17994508 0.03314865 -0.23521566 0.011643963

model.0.bias f4 [256]
000000 57 1c 03 be bc 9a f4 3d 67 b1 d1 bd a7 71 b0 bd
       -0.1280378 0.11943576 -0.10238915 -0.086154275
000010 97 95 4d bd c3 22 81 bb df e1 98 bc 72 a0 d4 3d
       -0.050191488 -0.0039409115 -0.018662391 0.10382165
000020 b8 9d c7 3d d8 31 00 be 38 d6 f0 bd 6e 6f 1a be
       0.09746879 -0.12519014 -0.11759609 -0.1508157
000030 10 5b d8 3d 18 ca 51 bd 40 fe c6 bd ea c3 b6 bd
       0.10564244 -0.051218122 -0.09716463 -0.089240864
000040 75 75 08 3d c7 b9 4a 3d d8 6b b6 3d f4 cb f1 3d
       0.03331514 0.049493577 0.08907288 0.11806479
000050 6f 1d 0a 3e 7a 86 d3 bd aa 55 98 bc df b4 d1 bd
       0.1348779 -0.10328384 -0.018595535 -0.102395765
000060 82 e8 7e bd f0 de 13 3b fb a1 ac 3d 9a 71 95 bd
       -0.062233455 0.00225633 0.08429333 -0.072970584
000070 20 bc b4 bd 5d 08 13 bd 48 9c 99 3d 52 50 0e 3c
       -0.088249445 -0.035896648 0.075005114 0.008686142
000080 cd fe e8 3d 45 f2 05 be 9b c7 63 3d d1 d1 da 3d
       0.113767244 -0.130807 0.05561028 0.106845506
000090 af 28 d8 3d 27 f0 f2 bd 5f 7a ca bd f5 aa 80 bc
       0.10554635 -0.11862212 -0.09886622 -0.015706519
0000a0 b6 e2 38 ba 7b 50 b5 3d 11 36 04 3e 62 11 88 bc
       -0.00070528255 0.08853241 0.1291125 -0.016609851
0000b0 04 6a 4c bd 99 05 a6 3d aa 01 bc bd be d1 71 bd
       -0.049905792 0.081065364 -0.09180005 -0.059037916
0000c0 6f 55 9d 3c f4 86 23 bd e4 56 d6 3d a4 ed 22 bd
       0.019205777 -0.039923623 0.10465792 -0.039777413
0000d0 8e a6 2d 3c e2 d0 e4 3c 26 40 9e 3a 77 9e d7 bd
       0.010598792 0.027931634 0.0012073561 -0.10528272
0000e0 8d d6 c7 3d 25 81 c4 3d 57 b3 a3 bc e5 a1 d4 bd
       0.09757719 0.09594945 -0.019982977 -0.103824414
0000f0 41 65 67 bd 47 4c c7 3d da 90 9d 3d 8b 02 8a bd
       -0.056493048 0.097313456 0.07693644 -0.06738766
000100 8c 38 b2 3d b9 0a 41 bc d9 a3 2b bc 24 c5 83 bd
       0.08702192 -0.011782342 -0.010476076 -0.06434086
000110 98 0e ea 3a b2 54 23 bd bf 74 07 3d 66 19 17 be
       0.0017857132 -0.039875694 0.033070322 -0.14755782
000120 a4 7a 1d bc 9d 3a ea bd 52 9a fe bd fb ae 0c be
       -0.009611759 -0.11436961 -0.12431778 -0.13738625
000130 5a 8d 1a bd e9 e8 a6 3c da 9e 6f 3c c3 96 31 3d
       -0.03773246 0.020374732 0.0146252755 0.04335667
000140 74 5e 84 bd d7 4f c9 bd 42 b2 ec bc 67 2e e7 bd
       -0.06463328 -0.09829681 -0.028893594 -0.112881474
000150 68 ba f4 3b ab ca 02 3d 26 17 73 3c 7f 42 fa bd
       0.0074685104 0.03193156 0.014837062 -0.122197144
000160 57 9d f2 3d b8 b5 e5 3d 63 da c5 bd 3a 34 f4 bd
       0.118464164 0.11216301 -0.096607946 -0.11924024
000170 b9 d6 9c 3c ca 9f 0d 3d 9c 6d 0f bd 20 34 a0 bd
       0.019145356 0.034576215 -0.03501664 -0.07822442
000180 b6 d3 9c 3c a1 e0 c4 bd 24 20 9d bd 0e 34 5c 3d
       0.01914392 -0.09613157 -0.07672146 0.05376058
000190 6f e0 c7 3c 69 24 57 3d d5 ff 04 3e d0 e5 a0 ba
       0.02439901 0.052524958 0.12988217 -0.0012275521
0001a0 e1 38 4c 3d 14 34 d8 3d 2a f3 bd bd 72 66 cf 3d
       0.04985893 0.10556808 -0.092748955 0.10126962
0001b0 b7 c0 b7 3d 31 62 87 bd 7c 4a 05 3e 1f 1f 8d bd
       0.08972304 -0.066105254 0.13016695 -0.068907015
0001c0 24 6a 6a bd fd c7 dd 3d d3 62 87 3d 73 cf 2d bc
       -0.05723013 0.1082916 0.06610646 -0.010608542
0001d0 b5 d2 df bd 59 b6 a1 3d 3c d0 19 3d c6 a3 ba bd
       -0.10928861 0.07896108 0.037552103 -0.091132686
0001e0 3b 36 91 ba a7 bb e5 3d 6d 50 72 3d 62 58 a5 bd
       -0.0011078784 0.112174325 0.05915873 -0.08073498
0001f0 a0 4b 8c bc f6 40 26 bd af 42 bf 3d eb af 98 3d
       -0.017125905 -0.040589295 0.09338891 0.07455429
000200 71 c5 fc bc 7e 4b ee bb 87 b7 ba bd 8a b8 ca bc
       -0.030855866 -0.007272183 -0.09117036 -0.024746198
000210 13 db 9f 3d 8b be f3 bd fe 63 c9 3c 5d 98 0b 3e
       0.07805457 -0.119015776 0.024583813 0.1363234
000220 ff e9 7b 3d 90 13 a4 3d f9 18 46 bd 9c 93 91 bc
       0.061502453 0.08011544 -0.04836366 -0.017770581
000230 36 57 f8 bd 27 0f 93 bd 79 57 1e 3d 31 7a 40 3d
       -0.12126009 -0.071806245 0.03865764 0.04699153
000240 87 6e a0 3d fd 03 ae bd d6 f7 32 3d ae d9 a9 bd
       0.078335814 -0.084968545 0.043693386 -0.08293472
000250 ba 9a ce bd 56 e3 5f bd ae 99 c5 bd 38 03 af 3c
       -0.100881055 -0.054660164 -0.09648453 0.02136384
000260 3a 3b d0 3c 4e 27 bc 3d a7 c5 a3 3d 52 86 b0 3c
       0.025418866 0.09187184 0.079966836 0.021548424
000270 03 04 67 3d ef e5 81 3d fb 4d 19 be 38 58 97 bd
       0.05640031 0.063426845 -0.14971153 -0.07389873
000280 26 89 ea bd aa 1e b2 bd 15 0c 12 3d 26 a1 10 3e
       -0.1145194 -0.08697255 0.035656054 0.14123973
000290 c7 0f cc 3d 33 05 9f bd 79 78 30 3d c5 76 b4 3d
       0.09963947 -0.077646635 0.04308364 0.08811716
0002a0 c5 d6 34 3d e3 bb f8 bd c4 11 c4 3c f4 29 8f 3d
       0.044150133 -0.121452115 0.023934253 0.06990424
0002b0 8e 21 19 3d f3 3e 04 3e 2d 39 e9 3d 1a 44 aa bd
       0.037385516 0.12914638 0.113878585 -0.083137706
0002c0 e0 36 f0 3d 52 82 0a be 6f ff 9e bd 2c 50 6a 3d
       0.117292166 -0.13526276 -0.07763564 0.057205364
0002d0 fc 74 31 bb 43 5e f2 3d 16 19 a8 3d 57 64 50 bd
       -0.0027077785 0.11834385 0.0820791 -0.05087694
0002e0 18 9b 07 3e e2 b7 d7 bd e5 81 3d 3d 6d 33 3f 3d
       0.13242757 -0.1053312 0.046266455 0.046679903
0002f0 7c 37 03 3e b3 e3 05 3e a4 1a aa 3d 21 c9 85 bd
       0.12814134 0.13075142 0.083058625 -0.06532503
000300 02 36 f7 3d d5 1c c7 3d 03 7a 07 3c 40 74 c0 3d
       0.12070848 0.09722296 0.008268836 0.09397173
000310 cd a0 3d 3d ca 94 98 bc ab 9e 6b 3d 93 f0 c3 bb
       0.04629593 -0.018625636 0.057524364 -0.0059796064
000320 3e 33 54 bd a8 2d 48 3d f1 47 99 3b 2b 09 c4 bd
       -0.05180668 0.048871666 0.0046777655 -0.09572061
000330 3d 13 03 be bd 9c 32 3d dd c9 63 bd 56 c5 e9 3a
       -0.12800308 0.04360651 -0.055612434 0.00178353
000340 1e 26 06 3e 38 77 c5 3d bc bd d5 3d e6 af c0 3d
       0.13100478 0.0964188 0.104365796 0.0940855
000350 f7 59 bb 3d 68 26 dd bd 73 dc 0d 3e b0 ab 0b be
       0.09148019 -0.10798341 0.13853626 -0.13639712
000360 1b e6 c5 bd 2c de 78 bd 50 be 17 3e 55 8d b0 3d
       -0.0966303 -0.060758755 0.14818692 0.08620707
000370 e6 5a 30 3d d1 a5 b0 3d 8f 6b 1b be d1 78 06 be
       0.043055438 0.08625377 -0.15177749 -0.13132025
000380 06 10 6a 3d 8d 61 19 bd 68 36 82 3d 42 95 c9 bd
       0.057144187 -0.037446547 0.063580334 -0.09842922
000390 90 7d 09 3e e8 7f ee bd 2a d5 be 3d 83 67 a4 3d
       0.13426805 -0.1164549 0.093180016 0.08027556
0003a0 2e 49 a0 bd 6d 56 05 3e 9b 54 9d 3d f1 97 9f bd
       -0.07826458 0.1302125 0.07682153 -0.077926524
0003b0 e0 78 95 bd b0 a9 e1 3d 25 06 0d bd 50 68 6b 3c
       -0.07298446 0.110186934 -0.034429688 0.014368132
0003c0 a7 77 8f 3d 35 d7 88 3d 83 18 ac bd 63 3f d6 3d
       0.07005244 0.066816725 -0.08403113 0.10461309
0003d0 2b 7c 2f 3d 8c c2 fe 3c 90 9b 9a bd a5 3e 9c 3d
       0.042843025 0.031098627 -0.075492024 0.07629136
0003e0 75 ca 35 bc b1 2a d8 3d 3e a8 9b 3d 7f 44 fc 3d
       -0.011095633 0.10555018 0.07600449 0.12317752
0003f0 9a 4c 66 bc da 88 aa 3d ef 1b e8 3d 07 f6 29 3d
       -0.014056349 0.083268836 0.11333453 0.041494396

model.2.weight f4 [256, 256]
000000 f7 f1 27 bb a4 ad 3e bd f7 fb da bc ff e0 db 3b
       -0.00256264 -0.046552315 -0.026731474 0.0067101712
000010 07 ef 87 bd 14 b3 2a bd 6e d8 2c 3d 9d c1 1c bd
       -0.06637388 -0.04167469 0.04219859 -0.03827058
000020 42 38 5d bd bf 74 96 3c 76 b3 07 3d d8 d2 66 bd
       -0.05400873 0.018366216 0.03313013 -0.05635342
000030 2c 97 9e 3a d3 5a 81 bd 11 ef 31 3c c8 ce 1f 3d
       0.0012099496 -0.063161515 0.0108602205 0.03901556
000040 68 e7 11 3d 8b 30 57 3d 0d e8 8f bc 1b 23 e6 bc
       0.035621077 0.05253653 -0.017566705 -0.028092911
000050 1f 83 84 3c 9d a8 c3 3c 9e e1 3f bd e3 9c 94 bd
       0.016175805 0.023884112 -0.046846025 -0.07256486
000060 93 f9 7f bc d4 f3 88 3c d8 95 a1 3c 70 e2 c2 bc
       -0.015623468 0.016717829 0.019724771 -0.023789614
000070 45 7a 5e 3d ea e0 25 bd f8 36 49 bc 5c 55 02 3c
       0.054315824 -0.040497698 -0.012281172 0.007954922
000080 96 16 4c bd 9b 87 7f 3d 57 e1 0e bd 05 58 f7 3c
       -0.049826227 0.062385183 -0.03488287 0.030193338
000090 e4 9e 33 ba 49 2f 05 bd a0 7a 81 3d 3d 0f 8c bc
       -0.00068519847 -0.032515798 0.06322217 -0.01709711
0000a0 c5 e5 bc 3c 4b 94 58 3d cc 69 24 bd d0 fd 6b 3d
       0.023058781 0.0528758 -0.04013996 0.0576151
0000b0 b8 13 b8 bc 51 be 63 bd d5 26 20 3d ce 00 55 bc
       -0.02247034 -0.05560142 0.039099533 -0.01300068
0000c0 e1 1b 68 bd 1f 89 eb bc 81 8e 1c 3d cd 92 ef 3b
       -0.056667212 -0.028751908 0.03822184 0.007311201
0000d0 b9 ac 83 bc 61 6b 2d 3d ea 97 01 3d cc 71 12 be
       -0.016073572 0.042338733 0.031639017 -0.14301223
0000e0 5d 78 fc 3b e4 77 2a 3d 6a db 87 bc 98 77 81 bb
       0.007704778 0.041618243 -0.016584117 -0.0039510243
0000f0 8f 6d 84 3d 9e e2 bc bc 3b 8e d5 3d 67 cc ad 3c
       0.06466209 -0.023057278 0.10427519 0.02121563
000100 b3 25 33 3d 77 cf ea 3c c9 52 f7 3b df 62 b6 3c
       0.043737125 0.02866338 0.0075477106 0.022263942
000110 40 a5 4e bd 3b 80 e3 bd 82 0a 30 bd ff 85 d4 bc
       -0.050450563 -0.111084424 -0.04297877 -0.0259428
000120 93 6c e2 bc 3e ae 6b bc 37 6a 17 bd 99 05 28 bd
       -0.027639663 -0.014384804 -0.03696653 -0.041020963
000130 ac 35 67 3c 7c f3 87 3d 79 93 17 bd 8c ad 47 bd
       0.0141119175 0.06638238 -0.037005875 -0.04874949
000140 e9 2a 79 bc 8a 30 88 bd 8d 83 90 bd dc 19 78 3d
       -0.0152079845 -0.06649883 -0.07056341 0.060571536
000150 b0 79 d6 3d 18 fe 5f 3d c4 b5 30 bd b5 15 12 bd
       0.10472429 0.054685682 -0.043142095 -0.035665233
000160 ee 10 5f 3d ff 0f 2c bd 76 88 97 bd 18 fd 55 bd
       0.054459505 -0.042007443 -0.07399075 -0.052243322
000170 d9 4a b6 3b 7d 84 0f 3c e4 37 fc bc 61 67 8b 3d
       0.0055631218 0.008759615 -0.03078837 0.06806827
000180 bb 13 2b bd e0 1b 8f bc ac 7d 11 3d 33 d9 be 3c
       -0.041766863 -0.017469347 0.03552024 0.023296928
000190 50 d7 40 3d 38 10 64 bc 06 4c 03 3d ac 9d 87 bc
       0.047080338 -0.0139198825 0.032054923 -0.016554676
0001a0 e0 56 bb 3b 9c 4a 29 bd 0c 8d 33 3d eb 93 4f 3c
       0.0057171434 -0.04133092 0.043835685 0.012669544
0001b0 5d 40 cb 3b 41 d9 0a 3b e2 03 09 3d 63 0a c2 bd
       0.006202741 0.0021186622 0.03345097 -0.09474637
0001c0 c9 24 6d 3d 0b 39 29 3d b6 1b 27 3d d4 42 38 bc
       0.05789641 0.041314166 0.04079791 -0.011246402
0001d0 b8 09 57 bd 49 b9 c8 bc 5f 83 11 bd 7d 7c af bc
       -0.052499503 -0.024502413 -0.035525676 -0.021421665
0001e0 6c 85 23 3d fb da 44 bc f0 40 74 3d 80 a4 e4 bd
       0.039922163 -0.0120151 0.05963224 -0.111641884
0001f0 13 a9 b5 bd dc 20 38 bd ae c2 a3 3c 93 36 7f 3c
       -0.08870139 -0.044953212 0.019990291 0.015576976
000200 e7 52 24 3d 87 a7 b5 3d 40 7b 2d 3d 70 e6 5b bd
       0.040118124 0.08869844 0.04235387 -0.05368656
000210 3d 87 0a bb 96 6b 75 3d 7a cf 73 3d 9f 9b 99 3c
       -0.0021137737 0.059917055 0.059524037 0.018750964
000220 b2 22 1a bd e5 24 6a bd f3 60 88 3d 35 4e 45 bc
       -0.037630744 -0.05716409 0.066591166 -0.012042572
000230 42 e9 cf 3c 28 a2 12 bc 11 59 e9 bc 20 cb 7d 3c
       0.02537978 -0.008949794 -0.028484853 0.015490323
000240 02 50 58 3d 20 a7 e5 bb eb 9a b1 3c 91 c9 e7 3c
       0.052810676 -0.0070084482 0.021680316 0.028294357
000250 23 eb 2e bb 45 b0 91 3c 95 92 da 3c 5c 99 52 3d
       -0.0026690445 0.017784247 0.026681224 0.051415786
000260 27 ea 01 bd fb 46 29 3d a3 a1 25 bc c1 7e b3 3c
       -0.031717446 0.041327458 -0.010109338 0.021911027
000270 08 45 5d bd 5b ab 99 3d 31 ba 44 3d e2 71 ac 3c
       -0.05402091 0.075033866 0.04802913 0.021050397
000280 aa 4e 26 3c f5 af bc 3c 0b c6 60 bd 50 58 68 bd
       0.010150591 0.023033122 -0.05487637 -0.056724846
000290 4f 99 23 3d 5c 26 8c bd fe c2 83 3c 34 2e 32 bd
       0.03994113 -0.06843254 0.01608419 -0.043501094
0002a0 1b 68 90 bd 07 59 9a bc 0e 8f 05 bc 45 73 63 bd
       -0.070511065 -0.01884128 -0.008151783 -0.05552985
0002b0 1c 59 6b bd 87 8b 59 bd fd 5b 8e 3c 46 97 35 bc
       -0.05745803 -0.05311158 0.017377848 -0.01108343
0002c0 d7 c3 55 3d f6 86 62 bd f4 b5 48 bd cb 8b df bc
       0.05218872 -0.05530449 -0.04900165 -0.027288338
0002d0 c4 ba 8e 3d 6a 71 54 3d db 37 71 bc 1d fb 10 bd
       0.069692165 0.051865973 -0.01472279 -0.03539573
0002e0 6b 4f fb 3a 5e 67 02 3c 85 1f 77 3c 70 4d 51 bd
       0.0019173449 0.007959215 0.015083198 -0.05109924
0002f0 a5 46 8c 3b a1 80 df 3b a8 6a f6 3c 94 f2 05 bd
       0.0042808824 0.0068207537 0.030080155 -0.032702044
000300 a7 36 a7 3c 78 fd bf 3c b2 20 3f 3d b7 8e de 3c
       0.020411802 0.023436293 0.04666204 0.027167661
000310 85 b6 98 3a 7e e0 84 bd 35 2f 49 bc 55 11 82 3d
       0.0011651075 -0.06488131 -0.012279321 0.06350962
000320 a2 aa 29 3d 79 ea 83 bc 78 62 ac 3c af 36 89 3d
       0.041422494 -0.016103016 0.021043047 0.06699883
000330 43 d7 9b bb da c5 68 bd 0f 3c 3f 3d b3 06 df bb
       -0.004755886 -0.05682931 0.046688136 -0.0068062185
000340 64 c5 a3 bc 3a 77 b0 3c 37 36 b2 3d af 06 71 3d
       -0.019991584 0.021541227 0.08701747 0.058844265
000350 45 b3 64 bd 99 4d be 3c 56 5e 2b bd 29 70 a4 bd
       -0.055835027 0.02323036 -0.041838013 -0.08029205
000360 9e 93 d0 bc b6 49 24 3d 5b 2c b0 3d dc 92 d1 3c
       -0.025461014 0.04010936 0.0860221 0.025582723
000370 f2 51 fb 3c 44 d0 72 bd b2 ab 0a bd a0 7a fa bc
       0.030678723 -0.05928065 -0.033855148 -0.03057605
000380 b2 15 4d bd 99 db fd bc 52 58 51 bd 7f be 3a bd
       -0.05006952 -0.030988501 -0.05110962 -0.045591827
000390 ce 01 66 3b bd 93 bc bc eb 30 5c 3b 8f 08 90 bc
       0.003509629 -0.023019666 0.0033598493 -0.017582206
0003a0 7e ce 1d 3c b8 40 80 bd 20 48 65 bd 0e 9a 6b bd
       0.009631751 -0.06262344 -0.055976987 -0.057519965
0003b0 4b 1a 46 3d 53 ca c4 bb 43 2e 80 bd 37 66 fe bc
       0.04836492 -0.0060055642 -0.06258824 -0.0310546
0003c0 87 f2 f0 bb a2 67 4d bd 98 26 68 3d 77 47 25 3d
       -0.0073531303 -0.05014766 0.05667743 0.040351357
0003d0 c9 a4 fc 3b e0 67 e0 bb 95 d8 15 3c 77 86 39 3c
       0.0077100736 -0.0068483204 0.009145875 0.011323563
0003e0 6b 51 0d bb 4f 99 2c 3b 13 b6 7d bd 00 9b 80 3c
       -0.0021563421 0.0026336496 -0.061941218 0.01569891
0003f0 ed e7 82 3c 2f 81 fe 3c 2c 5c d1 3c f8 d2 49 3d
       0.015979731 0.031067459 0.025556646 0.04927346

model.2.bias f4 [256]
000000 30 ce 23 bd 10 e9 eb bc c4 0b f8 bc c2 78 c5 3c
       -0.039991558 -0.028797656 -0.030279048 0.024105433
000010 36 51 df bc 4e 51 5a 3d 8c 27 5e bd 34 fc 59 3d
       -0.027260404 0.053300194 -0.054236934 0.053219035
000020 2c 90 a3 3c 34 38 35 bd 4c 0e 5d bd f4 2f 8d 3d
       0.019966207 -0.044243053 -0.053968713 0.06893912
000030 a0 aa 72 3c 9b cc e0 3b 2b ff 8e 3d a6 c5 0f 3d
       0.014811188 0.0068603284 0.06982263 0.0351006
000040 92 6a 45 3d 23 68 68 bd bf 07 57 3c d4 66 ed bc
       0.048197336 -0.056739938 0.013124405 -0.028979696
000050 d3 62 58 bb db 19 ca 3c e3 d4 3a 3d cd 9c 8a 3d
       -0.0033017888 0.024670532 0.04561318 0.067681886
000060 d9 8f ab bc 0b d7 59 bd ca 8c 4c 3d 07 eb ec 3c
       -0.020942615 -0.053183597 0.049938954 0.028920664
000070 e0 72 21 bd 5a 02 3f bb f2 63 0a 3d 7c a5 ea bc
       -0.039416194 -0.0029145689 0.03378672 -0.028643362
000080 a1 ca 6b 3d d9 f0 5b 3c 17 99 37 bd fe 6f 0f 3c
       0.05756629 0.013424122 -0.044823732 0.008754728
000090 c2 b5 41 bc bf 39 69 3c eb 78 b0 3c 45 20 0a be
       -0.01182312 0.014234959 0.021542033 -0.13488872
0000a0 5b 09 33 3d 30 f0 2f bd 48 91 55 3d d3 1f 7d bd
       0.043710094 -0.04295367 0.052140504 -0.061797928
0000b0 f7 73 76 bc ab cd 7c 3b 7a e7 ea 3c ba fb 2b bd
       -0.015042297 0.0038574736 0.02867483 -0.041988112
0000c0 29 4b 6c 3d 93 99 f5 3c cb 88 83 bc 5e ae 1e bd
       0.057688866 0.029980456 -0.016056439 -0.03874051
0000d0 fa 40 81 3d 14 fa f0 bb 48 f2 0f bd 06 3c 4b bb
       0.063112214 -0.0073540304 -0.035143167 -0.0031011119
0000e0 5c 38 d4 bc 8f 2f 68 bd e1 e4 72 bc 4a 31 cb bc
       -0.02590578 -0.05668598 -0.014825077 -0.024803776
0000f0 e9 38 b5 bd 19 26 63 3d f5 11 46 3d b5 da 0b 3d
       -0.088487454 0.055456255 0.04835697 0.034144122
000100 f7 c1 17 bb 6e 34 82 3c 1b 16 bf 39 da 88 66 3d
       -0.0023156384 0.015894141 0.0003644683 0.056282856
000110 36 4f a8 bc 6d 3b b6 3c ba d3 0a 3c 6b ea 1c 3d
       -0.020545583 0.022245133 0.008473331 0.038309496
000120 a4 77 a5 bc 0d 1b 0b 3d 1c f3 24 3d 9c 2b 44 3d
       -0.02019865 0.033961345 0.04027091 0.04789315
000130 25 6e c7 3a f7 eb 1e bd 99 c9 1c 3d 76 40 b2 3c
       0.0015215321 -0.038799252 0.038278196 0.021759253
000140 2d 31 1f bd e4 c1 04 bd 21 60 0b 3d 46 4b 77 bd
       -0.038865257 -0.03241147 0.034027223 -0.06037452
000150 b2 00 88 3d 41 aa 6a 3d 10 00 85 bc 17 df fc 3c
       0.066407576 0.057291273 -0.016235381 0.030868096
000160 a7 41 3d 3d 1e cb 71 3c 4e 0c 0a 3c ac a7 d8 3c
       0.04620519 0.0147579 0.008425785 0.02644714
000170 76 49 68 3d 3a a0 82 3d ce 7e 85 bd a0 9d 9f 3b
       0.056710683 0.06378217 -0.06518327 0.0048710853
000180 99 c7 59 3c 68 92 4d 3b e3 65 1f bd da 9a 25 3d
       0.013292217 0.0031367783 -0.038915526 0.04043088
000190 74 f2 61 bd 8d 64 0b 3d 11 40 31 bd db 45 46 3d
       -0.055162862 0.03403144 -0.04327399 0.048406463
0001a0 e9 a1 47 3c e0 c2 8d bc cc d4 ab 3d d2 e5 9e bb
       0.0121845985 -0.017304838 0.08390197 -0.004849174
0001b0 12 fd e6 3b ab d7 33 bd ea b4 7d 3d f6 24 d0 3b
       0.0070492113 -0.04390685 0.06194011 0.0063520623
0001c0 99 c7 46 3d 93 9a 6f bd c3 17 ae 3c 1c 7b ee 3a
       0.048530195 -0.058497023 0.021251565 0.0018194648
0001d0 65 02 10 3d 64 ea 29 bd 24 03 e7 bc 63 8a 2f bd
       0.035158534 -0.041483298 -0.02819974 -0.042856585
0001e0 e2 e4 1c bd a0 2a 05 bd 8d b1 ab bb 94 a8 65 bd
       -0.038304217 -0.032511353 -0.0052396716 -0.05606897
0001f0 e9 3a 25 bd 3b a4 e5 3c 86 19 a7 bc 40 c7 a8 bc
       -0.040339384 0.028032413 -0.020397913 -0.020602822
000200 b0 39 05 bd 9d 4e 05 bd 3e 86 3b 3d 1e 6c e2 3c
       -0.03252572 -0.032545675 0.04578232 0.027639445
000210 ce 6b 84 bc e0 89 90 bc 5a 91 2f 3d 45 84 0c 3d
       -0.016164687 -0.017643869 0.042863227 0.03430583
000220 db b7 92 3b f3 e3 b7 3c 9b 08 a5 3b fc 1c 4e bd
       0.0044774837 0.022447562 0.0050364262 -0.05032061
000230 4b 67 30 bd 90 2b 59 3d b8 cb fd 3c fd 24 f2 3c
       -0.043067258 0.05302006 0.03098093 0.029558653
000240 3d 40 85 3d e1 e0 78 3d f9 42 5c 3c c0 30 c2 3c
       0.06506393 0.060761336 0.013443702 0.023704886
000250 8d ff eb 3c ae e5 61 bd 24 8f 50 3d ac 34 18 3d
       0.02880838 -0.05515068 0.05091776 0.037159607
000260 20 a4 48 bd 41 fd c1 bc ba 04 6b 3b cc e8 0d bd
       -0.048984647 -0.023680331 0.0035860972 -0.03464584
000270 76 21 5a 3d ab 68 d2 3b e7 cb 43 3d 4b 9d 5d bd
       0.053254567 0.006421169 0.04780188 -0.054105084
000280 b0 24 46 bd c7 71 52 bd 76 92 66 3c 19 2f 07 bd
       -0.04837483 -0.051378038 0.014073005 -0.0330039
000290 8c 09 66 3d 8e 5f 58 3d f3 08 71 3d d1 07 35 bd
       0.05616145 0.052825503 0.058846425 -0.044196907
0002a0 a8 32 89 3d 54 2e e6 bc be a6 75 3d 61 3b 96 3c
       0.06699115 -0.028098263 0.05997347 0.018338861
0002b0 6d 80 1b bd f8 76 9c 3d e2 e0 96 bb 79 12 28 3d
       -0.037964273 0.07639879 -0.004604445 0.041033242
0002c0 da aa 8a 3d bc 7d b7 3d a2 a2 3a bd 97 96 71 bc
       0.067708686 0.08959529 -0.045565255 -0.014745376
0002d0 69 4f 6f 3d b4 2f 60 bd 7d f8 04 3d 8e 41 a8 ba
       0.05842534 -0.054732993 0.03246354 -0.001283692
0002e0 f4 f0 20 bc 95 25 ef 3c a3 3a da 3c 95 de 37 bd
       -0.009823073 0.029192725 0.026639288 -0.044890005
0002f0 bc 2b 56 3d 5d 63 5a 3c 78 59 4b bd be b7 66 3d
       0.052287802 0.013329354 -0.04964587 0.056327574
000300 58 23 2f 3d fd a3 af 3d 87 42 42 bd 2e 12 c2 bc
       0.042758316 0.085762 -0.047426727 -0.02369031
000310 cc fd 78 3c 36 74 5a bd 26 ac 53 bc c6 06 10 bd
       0.015197229 -0.053333484 -0.012919461 -0.03516271
000320 82 0a db 3b 30 aa 13 3d 59 97 1d bd 02 37 2e bd
       0.0066846022 0.036050975 -0.038474414 -0.04253293
000330 2d 83 42 3a c6 a7 30 bd 64 7e 66 3d c8 11 4e 3d
       0.00074200594 -0.04312875 0.05627288 0.050309926
000340 09 0a 28 bc 7f 77 ea bc 74 33 4d 3d 04 80 ac 3c
       -0.010256299 -0.028621433 0.050097898 0.021057136
000350 86 69 f7 bc a7 6a ba bc c2 b9 1f 3d 97 eb 3e 3d
       -0.030201685 -0.022755934 0.03899551 0.046611395
000360 fe 05 1b 3d d1 35 44 bd 5c 3f 08 3c fe 57 61 3c
       0.03784751 -0.047902886 0.008315887 0.013753889
000370 92 89 51 3d d2 b2 93 bc e6 a2 22 3d 67 bf a3 3c
       0.051156588 -0.018029604 0.039706133 0.019988729
000380 04 cf 13 bd 11 ba 72 bc 63 64 34 bd 5b a3 aa 3c
       -0.036086097 -0.0148148695 -0.04404105 0.020829847
000390 f1 8d 0e bd 2c 9d 81 3d 6d 10 d0 3c c1 db 6c 3d
       -0.034803335 0.06328806 0.025398457 0.05782676
0003a0 6d 05 88 bc f8 c8 38 3c 2b 34 8a 3c a0 5e f4 3c
       -0.01660415 0.011278383 0.016870579 0.029830277
0003b0 5f 02 d3 bc 35 fe cc bc cb f5 6d bc 4a ef 72 3d
       -0.025757967 -0.02502356 -0.014523934 0.059310235
0003c0 f8 77 d3 bb 49 48 f9 bb 1b c3 3a 3c 34 bf 02 bd
       -0.0064535104 -0.007607494 0.011399056 -0.031920627
0003d0 8a 73 4c 3d 34 02 93 3c 73 56 b2 bb 40 fa 2c 3d
       0.049914874 0.017945386 -0.0054424345 0.042230844
0003e0 67 7b 0c bd ff a5 82 3d c0 46 c9 3c 35 1b 5d 3d
       -0.034297373 0.063793175 0.024569869 0.053981025
0003f0 bf df b0 bc fe f7 98 3c 8b 97 74 bd 03 1d d3 bc
       -0.021591065 0.01867294 -0.059714835 -0.02577067

model.4.weight f4 [66, 256]
000000 47 57 f1 bc 44 b4 34 bb e0 34 82 bd 32 00 7d 3d
       -0.029460562 -0.0027573267 -0.06357741 0.061767764
000010 1f 9d 12 3d d7 1d 68 3c f9 d4 2c bb e6 4e b8 3c
       0.035794374 0.014167271 -0.0026372059 0.02249856
000020 49 8a 1a bd 53 ac 05 3d 0a d2 88 bc 56 4c 5f 3c
       -0.037729535 0.032635044 -0.016701717 0.01362904
000030 2e 55 76 bb 79 f2 4e bd c4 62 98 bc 39 13 95 3d
       -0.0037587392 -0.05052421 -0.018601783 0.07279057
000040 67 19 21 bc 69 9a 1d 3c 1f bf d7 3c 7d 0e 23 3c
       -0.009832717 0.009619334 0.02633625 0.009952185
000050 23 9a 21 bd 98 28 9d bc 2b 4c ff 3c 71 57 3b bc
       -0.039453637 -0.019184396 0.03116425 -0.011434422
000060 e9 86 2f 3c b0 a9 27 3e d4 e2 7f bd e4 c0 f4 3b
       0.010713317 0.16373324 -0.06247218 0.0074692834
000070 2e d3 8b bd 68 be 20 bd 85 fc 03 3d 17 4c c4 3c
       -0.06827389 -0.039244086 0.032223243 0.023962064
000080 e3 89 5f 3c 0e 5c 57 bd c4 e6 24 bb f0 96 63 3d
       0.013643715 -0.052578025 -0.002516196 0.055563867
000090 26 09 a4 3d 96 34 08 3d 94 13 15 3d bd 87 70 3b
       0.080095574 0.033253275 0.036395624 0.0036702
0000a0 0d c3 a6 3d 4f 2d 2e bd bb c2 f3 b8 9f 74 84 bd
       0.08142672 -0.04252368 -0.00011623414 -0.06467556
0000b0 cf 21 85 3d 3f 06 6f bc 8f af 87 3d f5 e6 73 bd
       0.06500589 -0.0145888915 0.06625282 -0.05954643
0000c0 22 f3 03 bd bc 27 0d bd 74 b2 05 bd 4e 4b 90 bd
       -0.03221429 -0.03446172 -0.03264089 -0.07045613
0000d0 86 c6 89 3d a2 b5 64 3d ed 5f ce bc 4c 29 59 3d
       0.067273185 0.05583728 -0.025192225 0.0530179
0000e0 cb 17 38 bc 24 19 c3 bc 88 b2 35 bd 08 a9 7a bd
       -0.011236141 -0.023815699 -0.044359714 -0.061196357
0000f0 33 9e ab 3c 7c e9 1e 3d 67 e8 07 bd 83 7f 64 3d
       0.020949459 0.038796887 -0.03318062 0.055785667
000100 dc ed 8c 3d 4c 0c a2 bc 14 83 48 3b d9 66 8b 3b
       0.068813056 -0.019781254 0.0030595707 0.0042542038
000110 c5 d0 61 3d 45 54 f9 3c 36 96 e9 bc 66 4d 62 3d
       0.05513074 0.03043569 -0.028514009 0.055249594
000120 47 e6 9a 3d b0 e1 9a bd d2 f3 f5 bc 16 f8 87 3d
       0.07563453 -0.07562578 -0.03002349 0.066391155
000130 35 eb 73 3d 29 b2 05 3d 4a 89 64 3d 49 33 69 bd
       0.059550483 0.03264061 0.05579499 -0.056933675
000140 2d ce 90 3c ea 58 a1 3c 5b 78 30 bc 0a 49 25 bd
       0.017676437 0.019695718 -0.0107708825 -0.04035286
000150 e2 84 16 bd 94 cd 01 b9 fe 13 0d bd 71 f7 4b 3b
       -0.03674782 -0.00012378983 -0.034442894 0.0031122828
000160 9c 05 36 3d ab db 97 3d 46 e0 2b bc 64 a9 2a bd
       0.044438943 0.07414945 -0.010490483 -0.04166545
000170 9a dd 88 bc 27 19 98 3d 63 a6 da bc 4f 9d 8e 3d
       -0.01670723 0.074266724 -0.026690667 0.06963598
000180 89 14 f5 3c 62 d3 7e 3c f3 ae 28 3d 5e a2 48 bc
       0.029917018 0.015553327 0.04118247 -0.012245743
000190 92 46 51 bd f8 21 fd bb 56 48 54 bd ef 00 df bc
       -0.05109269 -0.0077249967 -0.051826797 -0.027222125
0001a0 ee 53 5f 3c a2 d8 8c 3c 1c 47 10 3d 26 3d ae bd
       0.01363085 0.017193142 0.035224065 -0.08507757
0001b0 ef 5d 90 3d ac 42 79 bd 50 d2 88 3d 91 7d cf 3c
       0.070491664 -0.0608546 0.06680739 0.02532843
0001c0 df 2c 66 bc f7 f0 8a bd 27 dc 06 3d d4 f9 13 bd
       -0.014048784 -0.06784242 0.032924797 -0.036126927
0001d0 69 30 23 3b f5 8c 95 3c a7 1d 9e bd 5e 6b 88 3c
       0.002490068 0.01825569 -0.077204995 0.01665276
0001e0 a1 06 23 bd 40 df df 3b 01 91 30 3d e5 8e 52 bd
       -0.039801244 0.0068320334 0.043107037 -0.051405806
0001f0 eb 98 9b bd 48 52 db bd f6 d7 66 bd 1c f8 6f bd
       -0.07597526 -0.10709053 -0.0563583 -0.058586225
000200 2e fa b6 3c e6 ad 33 3b a0 25 14 3d 5a 1f c4 3b
       0.022336092 0.0027416884 0.036168694 0.0059851827
000210 eb 9f 34 bd 95 bb 87 bd 12 e6 0d bd 88 c6 6a 3d
       -0.044097822 -0.06627575 -0.03464324 0.05731824
000220 3b c4 90 bd 3f ca 98 bd 04 e5 16 bd 4b a6 3d bd
       -0.07068678 -0.074604504 -0.0368395 -0.046301167
000230 9a c6 cc 3c c9 5d d8 bd bf 23 cb 3c 37 94 5a 3d
       0.024997044 -0.10564763 0.024797319 0.053364005
000240 31 0e 45 3d c0 56 1a bd fd a2 94 bb c5 b2 8c bc
       0.048109237 -0.037680387 -0.0045360313 -0.017175088
000250 c1 50 13 bd 0b d1 8e bd 5d 9a 10 3d 42 a1 c3 bc
       -0.035965685 -0.069734655 0.035303462 -0.023880605
000260 98 58 6f bd 19 01 23 bd a3 f1 88 3c 29 81 27 ba
       -0.0584341 -0.03979597 0.016716784 -0.0006389791
000270 7e 1d e0 3c fa e9 8a 3c b4 28 85 bb a9 2c 84 bd
       0.027357813 0.016957272 -0.00406369 -0.06453831
000280 c0 9e 6c bb 09 d6 9c 3b 66 0f 5c 3c 42 4b 88 3d
       -0.0036105365 0.004786257 0.013431406 0.06654979
000290 1d c1 1a 3d d2 91 a1 bc ea 5d 3c 3b 10 f6 14 3d
       0.037781823 -0.019722853 0.00287425 0.036367476
0002a0 80 8f 15 bd 34 c9 65 3b be cb 86 bc 4f e9 53 3c
       -0.036513805 0.0035062553 -0.016454574 0.012934043
0002b0 1f 77 3f bc 34 63 4c 3d ad 35 6f bb 9b 7c 91 bc
       -0.0116861155 0.049899295 -0.00365005 -0.017759612
0002c0 10 18 8f 3d 22 ec 27 3d 1b 13 24 3d d2 06 43 be
       0.069870114 0.04099668 0.040057283 -0.1904557
0002d0 09 ae 74 3d ea 4a d6 bb 5f d9 87 3d b5 3c b6 bc
       0.059736285 -0.006539692 0.06633257 -0.022245744
0002e0 63 cc 87 bc a8 d9 84 bd 02 f9 a3 3c 6d 3f c1 bb
       -0.016576951 -0.06486827 0.020016197 -0.0058974535
0002f0 4a 48 34 bc 35 9a 72 bd 23 6f 83 bc 48 90 9a bc
       -0.011003563 -0.059229095 -0.016044205 -0.018867627
000300 72 4e ef 3b 7a c9 fc bc 76 38 f3 3c 0f 41 36 bd
       0.0073030526 -0.03085779 0.029690009 -0.04449564
000310 3e 60 d4 bc 2c 6c 21 bd 10 cb b8 bb 89 6f a2 3b
       -0.025924798 -0.0394098 -0.0056394413 0.0049571437
000320 71 17 83 3c 7b 01 35 bc dd 27 8a bb ee 9b b6 bd
       0.016002389 -0.011047716 -0.004216178 -0.0891646
000330 e0 3b 01 bd b4 43 4a 3d 59 2a 46 bc c0 ea 13 bd
       -0.031551242 0.049380973 -0.012095057 -0.036112547
000340 eb 6a 60 bc b3 2d d0 3c 11 e0 a8 bc eb 9e d6 ba
       -0.013697366 0.025412416 -0.020614656 -0.0016374266
000350 5d 46 19 3c df 1c 82 3b dd 45 12 3d b8 1e 9a 3d
       0.009355155 0.003970727 0.035711158 0.075253904
000360 d3 84 7e bc 46 81 39 bd c1 32 15 3d f5 d5 4b 3c
       -0.015534597 -0.0452893 0.036425356 0.012441148
000370 5b 2e a0 3b 29 82 33 3d 6b 3f 15 bd 0c 2f 59 3d
       0.0048883385 0.043825302 -0.036437433 0.053023383
000380 64 33 f2 3d b2 91 bc 3c 77 3a 04 3d 3f e9 99 3d
       0.11826208 0.023018692 0.03228232 0.07515191
000390 ef d5 20 bd 15 60 97 3d 14 3f c4 3b ef fa 9e 3d
       -0.039266523 0.07391373 0.005988965 0.077627055
0003a0 cb ec 49 3d ea d9 bb 3d 7b 5f 5f 3c 04 f9 a1 3d
       0.04929809 0.09172423 0.013633604 0.07908824
0003b0 1b 37 90 bd 5f 5d 07 bd cb 71 17 bd 49 66 50 bc
       -0.070417605 -0.03304803 -0.036973756 -0.012719699
0003c0 10 cc 1d bd bb 23 83 bd 32 11 d4 3d cc 57 b7 bc
       -0.038524687 -0.064032994 0.10354842 -0.022380732
0003d0 f1 fc d2 3b f7 43 91 3c 70 ce 52 3d 06 41 b5 bc
       0.0064388444 0.017732603 0.051466405 -0.022125732
0003e0 5a a7 ab 3c 53 5f a6 3b 44 93 b0 bc 6d 0e 92 bb
       0.020953823 0.0050772815 -0.021554597 -0.004457286
0003f0 02 5e 2a bd 4b db 39 3d 9d ea 4d bc 4a 2c 0d bd
       -0.04159356 0.04537515 -0.012568143 -0.034466065

model.4.bias f4 [66]
000000 5b 59 0f 3d 3e bc 67 3d 9e ef 90 3d 3e 44 8c 3d
       0.034997325 0.056576006 0.07076953 0.06848954
000010 76 38 84 3d 64 f7 bb bb 00 1f 6e bb c1 ae 4f 3d
       0.064560816 -0.0057362784 -0.0036334395 0.050703768
000020 d4 0d 05 3d 10 2d 5b 3d 66 e6 21 bd ec a5 97 3c
       0.03248389 0.05350977 -0.039526366 0.018511735
000030 a0 be a6 bc 89 0d 37 bd b6 8f 2c 3d 0e 84 76 3c
       -0.020354569 -0.044690643 0.04212924 0.015046133
000040 e9 1b 27 bd 3b d1 40 bd d4 3b 0e 3c 2b 30 0c 3d
       -0.0407981 -0.047074538 0.008681256 0.034225624
000050 4c e3 89 3d 01 50 f1 bc a7 92 93 bc 11 78 4d 3d
       0.067328066 -0.029457094 -0.018014265 0.050163332
000060 4f 12 ab bc f5 8d 04 3d 53 84 90 3d 4b d6 33 3d
       -0.020882754 0.032361943 0.07056489 0.043905538
000070 99 3d 75 3d 42 4d cb bc ef 9f 2f bd 84 f2 51 3d
       0.059873197 -0.024817113 -0.042877134 0.05125667
000080 0b 8a 25 3d 1e ca bb 3c 30 96 89 3c c8 be dd 3c
       0.04041485 0.022923525 0.016795248 0.02706851
000090 ab 51 e7 3c 6e 59 33 bd 96 7e 32 3d 6d 42 37 bd
       0.028237185 -0.04378646 0.043577753 -0.044741083
0000a0 5b 81 50 bd 23 56 b4 ba ba e8 22 3d b7 09 e2 bb
       -0.050904613 -0.0013758581 0.039772727 -0.0068981308
0000b0 e0 1d be 3b 55 44 b3 bc e4 53 3f bd 68 bc f0 3c
       0.005801901 -0.02188317 -0.046710864 0.029386714
0000c0 9e 83 c8 bc d8 29 52 3c 0d 14 c3 bb 44 79 1a 3d
       -0.024476822 0.012827359 -0.005953318 0.037713304
0000d0 16 e3 08 3b 15 91 1c bd af 42 d6 bc d5 70 2c bc
       0.0020887307 -0.0382243 -0.026154844 -0.010524948
0000e0 87 01 2f 3e 95 04 82 3b 51 27 13 bc 6b 3f bc bc
       0.17090426 0.0039678314 -0.008981542 -0.022979459
0000f0 cd ee 02 bd 05 1a bd 3c 02 48 02 bd d3 06 47 3d
       -0.03196602 0.023083696 -0.031806953 0.048590492
000100 27 0e 42 bd f1 26 1f 3d
       -0.047376778 0.038855497
