results/33bus/pinn_model0.15.pth (torch, 402382 bytes, 6 tensors)

model.0.weight f4 [256, 66]
0.09226179 0.12086508 0.023137666 0.09901827 -0.03175754 0.052098352 -0.055312503 0.06219871
0.09890284 -0.06938981 0.16429561 0.0056543387 0.07765251 0.014782092 0.08045992 -0.015068148
0.10780541 0.040592555 -0.04694116 0.05611749 -0.017454768 0.026108997 -0.058477 0.10971928
-0.07106378 -0.08728499 -0.041330215 -0.08585296 -0.008317464 -0.08402105 0.1167696 -0.08140058
0.08138868 0.016004536 -0.0298171 0.13194312 0.03923937 0.08347017 -0.018506277 -0.03230023
0.06685409 0.023312546 -0.008311339 0.14470254 0.12203769 0.022034502 0.06789966 -0.01149174
0.06178126 -0.08797763 -0.09972489 -0.05001589 -0.053918596 0.16032419 0.068057016 0.08084227
0.0009907263 -0.0062072333 0.1397183 -0.006598317 0.06395292 -0.04125611 0.012857112 -0.04344325
0.007231336 0.013331845 0.10741504 -0.058724385 -0.010550336 -0.10004185 0.10814084 0.032942377
0.11352712 -0.0982365 -0.11212543 -0.10700275 -0.017543053 0.036400687 0.020070065 0.09839342
-0.061082505 -0.10635201 0.07137408 -0.012965612 0.05124531 0.013120388 0.13537915 -0.034114245
-0.0821826 0.05096325 0.0703435 -0.047575574 0.06665694 0.06272283 -0.12236538 -0.07647288
0.11258358 -0.054081015 -0.07000856 -0.11334235 -0.05762565 0.0963532 -0.034474533 -0.09147024
-0.03558731 -0.08499833 -0.0767413 -0.029145313 -0.14957789 -0.020413466 0.13527827 0.035414506
0.028091563 -0.13545662 -0.10985712 -0.05328875 0.05715652 -0.13659117 0.00086666143 0.0054337187
0.06582071 -0.0536672 -0.033046473 -0.06060927 -0.07178689 -0.042182527 -0.033937637 -0.10419813
0.07043291 -0.03179444 0.067067504 0.027997185 -0.111183465 0.066850446 -0.08415899 -0.014817909
-0.101346806 -0.113155074 0.03528693 -0.023075113 0.039123747 -0.08008346 0.02477932 -0.08269934
0.0040562395 0.035349727 0.04598384 0.116836056 0.118310414 -0.1406443 0.047647897 -0.07430853
-0.07182393 -0.1257699 0.12091171 -0.100106984 0.024648527 0.055081137 0.0646539 -0.039227396
0.14126769 0.031668175 0.021892931 -0.077713594 0.07557008 -0.023145368 -0.07168495 0.058448352
0.046589106 -0.05809164 -0.031559907 -0.012510297 0.041232016 -0.08271599 -0.005547945 -0.11143446
-0.112159975 0.02728472 0.092750736 -0.109309904 0.04326679 0.07807311 -0.018693486 -0.023128947
0.030013168 -0.008805233 0.012981323 -0.024955995 -0.02513162 -0.013164113 -0.036036603 -0.06686346
0.064933605 0.11459436 0.028285174 -0.012316768 0.053238176 -0.009529208 0.05289115 0.14508441
0.13215196 -0.25473014 0.074140534 0.087992534 -0.024607552 -0.08285601 -0.042074196 -0.17428635
0.24355495 -0.040429737 -0.10402831 0.004865908 0.054997787 -0.19049203 0.07135686 0.3162104
-0.12188022 0.13942944 0.27871844 0.17928334 -0.19617648 0.21860309 0.14975832 -0.14490499
-0.21127409 -0.059543993 -0.11160475 0.057183243 -0.10769616 -0.21746202 -0.3074522 0.09391402
0.11095547 0.35931638 0.014980869 -0.094610214 -0.23663701 -0.108655475 0.12243769 0.18115233
-0.34056717 0.19577117 0.24602619 0.20749079 -0.053369626 -0.19416718 -0.21142437 -0.000110302695
0.16442584 -0.122438885 0.17020382 0.19976717 0.18739842 -0.0039910013 -0.18930408 0.02572605
00000000: c0f3 bc3d 1c88 f73d 348b bd3c 17ca ca3d
00000010: 3214 02bd 1565 553d 5d8f 62bd 13c4 7e3d
00000020: 928d ca3d 3f1c 8ebd 1c3d 283e 0848 b93b
00000030: 4708 9f3d 9630 723c 2cc8 a43d 65e0 76bc
00000040: 15c9 dc3d 6144 263d 6045 40bd 74db 653d
00000050: 4dfd 8ebc 89e2 d53c 9485 6fbd 80b4 e03d
00000060: e389 91bd 79c2 b2bd df49 29bd add3 afbd
00000070: f945 08bc 3a13 acbd e624 ef3d 59b5 a6bd
00000080: 1caf a63d f21b 833c fe42 f4bc 191c 073e
00000090: 76b9 203d 69f2 aa3d 7a9a 97bc 3f4d 04bd
000000a0: ccea 883d f4f9 be3c 482c 08bc e72c 143e
000000b0: e5ee f93d b381 b43c fa0e 8b3d da47 3cbc
000000c0: 590e 7d3d 9e2d b4bd 903c ccbd 76dd 4cbd
000000d0: bfd9 5cbd 062c 243e 7a61 8b3d a290 a53d
000000e0: 42db 813a 0c66 cbbb 5012 0f3e b236 d8bb
000000f0: c0f9 823d 2bfc 28bd a3a6 523c 8df1 31bd
00000100: d8f4 ec3b d06d 5a3c 6bfc db3d fb88 70bd
00000110: 51db 2cbc bee2 ccbd f278 dd3d 96ee 063d
00000120: e880 e83d 3830 c9bd 04a2 e5bd 4224 dbbd
00000130: 73b6 8fbc e318 153d fa69 a43c 7d82 c93d
00000140: a631 7abd 15cf d9bd 932c 923d b86d 54bc
00000150: 9ae6 513d e5f6 563c d5a0 0a3e 61bb 0bbd
00000160: 5a4f a8bd d7be 503d 4110 903d 9bde 42bd
00000170: 6f83 883d d474 803d b39a fabd d09d 9cbd
00000180: 3892 e63d 0e84 5dbd a660 8fbd 0920 e8bd
00000190: e008 6cbd d454 c53d 2b35 0dbd c054 bbbd
000001a0: 00c4 11bd 9b13 aebd 8b2a 9dbd 27c2 eebc
000001b0: f22a 19be 243a a7bc 6386 0a3e cd0e 113d
000001c0: 4720 e63c 24b5 0abe c5fc e0bd 4e45 5abd
000001d0: f51c 6a3d 8ede 0bbe aa30 633a 560d b23b
000001e0: 02cd 863d 23d2 5bbd bd5b 07bd 6d41 78bd
000001f0: 0105 93bd 96c7 2cbd 3102 0bbd d465 d5bd
00000200: 213f 903d e33a 02bd b05a 893d 5a5a e53c
00000210: 28b4 e3bd e3e8 883d 8c5b acbd d1c6 72bc
00000220: ea8e cfbd d9bd e7bd 0789 103d 0508 bdbc
00000230: 3940 203d cc02 a4bd 00fe ca3c 465e a9bd
00000240: 34ea 843b e0ca 103d 8d59 3c3d be47 ef3d
00000250: bb4c f23d 0f05 10be 712a 433d 122f 98bd
00000260: 6d18 93bd d3c9 00be 8fa0 f73d e404 cdbd
00000270: b5eb c93c c29c 613d 4469 843d e8ac 20bd
00000280: 7aa8 103e 7db6 013d ce58 b33c 4e28 9fbd
00000290: 7cc4 9a3d 5b9b bdbc 8fcf 92bd 8a67 6f3d
000002a0: 38d4 3e3d 80f1 6dbd f644 01bd fdf7 4cbc
000002b0: e7e2 283d 0067 a9bd 89cb b5bb c037 e4bd
000002c0: 21b4 e5bd 3584 df3c 19f4 bd3d dfdd dfbd
000002d0: 8538 313d cbe4 9f3d 1523 99bc eb78 bdbc
000002e0: 2dde f53c d343 10bc 9daf 543c 8470 ccbc
000002f0: d4e0 cdbc 4bae 57bc 1e9b 13bd b6ef 88bd
00000300: e9fb 843d 73b0 ea3d 4fb6 e73c 45cc 49bc
00000310: 4610 5a3d 6520 1cbc 64a4 583d 0291 143e
00000320: d852 073e fd6b 82be fed6 973d 6e35 b43d
00000330: c795 c9bc 69b0 a9bd fe55 2cbd 1f78 32be
00000340: 7866 793e a799 25bd cb0c d5bd 3272 9f3b
00000350: 5c45 613d 5810 43be 8c23 923d 54e6 a13e
00000360: 569c f9bd 97c6 0e3e 2fb4 8e3e 0d96 373e
00000370: 7de2 48be 7dd9 5f3e 3f5a 193e f961 14be
00000380: 3c58 58be 67e4 73bd 0891 e4bd fa38 6a3d
00000390: ce8f dcbd 5dae 5ebe 606a 9dbe fe55 c03d
000003a0: 9f3c e33d 51f8 b73e 5272 753c 00c3 c1bd
000003b0: f950 72be c386 debd 9dc0 fa3d ff7f 393e
000003c0: d25e aebe 3d78 483e 4aee 7b3e 7778 543e
000003d0: 1c9a 5abd c3d3 46be a17f 58be 4f52 e7b8
000003e0: 3f5f 283e 3dc1 fabd e949 2e3e c48f 4c3e
000003f0: 5fe5 3f3e f2c6 82bb eed8 41be 70bf d23c

model.0.bias f4 [256]
-0.10929925 0.104910605 -0.08832119 -0.1017228 -0.063447855 -0.005767054 -0.006367241 0.08718974
0.08732622 -0.11446679 -0.10768093 -0.13648862 0.097085424 -0.041231778 -0.08788609 -0.07831022
0.03663709 0.038840637 0.0767042 0.10725145 0.111294374 -0.083519764 -0.026641576 -0.09403609
-0.046837524 -0.012797083 0.069894336 -0.05833964 -0.0709972 -0.028646942 0.059022322 0.005401318
0.09597581 -0.11455783 0.05059318 0.09170449 0.07789521 -0.10609158 -0.08766782 -0.0130673405
0.011506294 0.07832357 0.11785298 -0.009394972 -0.035754498 0.06446206 -0.07699945 -0.051557742
0.004262653 -0.02237884 0.08281653 -0.04792695 -0.00027133035 0.03195577 0.00023795568 -0.12234037
0.0778574 0.076678984 -0.022940299 -0.084248684 -0.04609421 0.074818626 0.080126375 -0.065484494
0.07262401 -0.006299694 -0.017115308 -0.051781304 0.005904658 -0.05923271 0.027476141 -0.13529661
-0.0012648349 -0.10060976 -0.11743659 -0.123355664 -0.026678128 0.025867857 0.00571313 0.033513125
-0.035839967 -0.116242245 -0.03998293 -0.09758313 0.015997596 0.03733676 0.010606417 -0.10876641
0.111977264 0.101573594 -0.08110936 -0.109377965 0.0055995355 0.0437057 -0.032052044 -0.058365658
0.011772208 -0.092361785 -0.061535455 0.042845834 0.012221499 0.041668285 0.111783996 -0.02009766
0.028457597 0.0935368 -0.08356321 0.084354 0.07820386 -0.048429035 0.11361429 -0.08151477
-0.053279348 0.090804204 0.06195065 -0.021152731 -0.09774647 0.067804776 0.06826159 -0.08018385
-0.005380242 0.09571205 0.047180817 -0.08997836 -0.016229987 -0.03689634 0.08142713 0.060886867
-0.020215446 0.0029966417 -0.08356546 -0.023473335 0.061772633 -0.116577744 0.03470719 0.12652965
0.054437574 0.062444057 -0.03452732 -0.0069053313 -0.110079534 -0.054378077 0.023814756 0.037477713
0.06720848 -0.07079185 0.033075176 -0.06892243 -0.08895947 -0.048032455 -0.083060734 0.019670269
0.018970115 0.08039857 0.06629409 0.020592587 0.042432155 0.06688164 -0.13198674 -0.063749984
-0.107195795 -0.0756222 0.025932804 0.12188892 0.08871194 -0.06996301 0.04708202 0.08127054
0.0156755 -0.09851578 0.01591017 0.055419732 0.025648767 0.12074864 0.12296875 -0.07441734
0.099945284 -0.117883384 -0.062021382 0.046739742 0.012270782 0.10612587 0.06746936 -0.05524332
0.12366092 -0.09300896 0.040089298 0.03268736 0.11031473 0.12136458 0.06336872 -0.052155428
0.119176224 0.08485269 0.006670275 0.085430585 0.044455018 -0.04962814 0.05227497 -0.0005286159
-0.03544029 0.045107845 -0.0016292593 -0.089028284 -0.15574223 0.03698064 -0.046180647 -0.008195018
0.10615319 0.0862828 0.1287946 0.10782607 0.085496485 -0.0881627 0.12288227 -0.11969515
-0.07660862 -0.052394 0.16497268 0.09285176 0.032055613 0.06735086 -0.12604187 -0.12042453
0.032407854 -0.030917529 0.0526929 -0.08215921 0.12438 -0.10036197 0.066824146 0.06609975
-0.06936774 0.110119395 0.06498425 -0.061035566 -0.051548917 0.094166175 -0.038772278 0.0036381749
0.05792881 0.05740109 -0.073848665 0.09148512 0.037224084 0.04236193 -0.06915518 0.05473463
-0.020657923 0.09060215 0.06099782 0.09254729 -0.022654908 0.07767467 0.1041983 0.02684626
00000000: 49d8 dfbd 5fdb d63d bde1 b4bd 0b54 d0bd
00000010: f3f0 81bd 8ef9 bcbb 4aa4 d0bb 8990 b23d
00000020: 17d8 b23d 906d eabd d287 dcbd acc3 0bbe
00000030: b9d4 c63d a7e2 28bd 9ffd b3bd 1c61 a0bd
00000040: c610 163d 5c17 1f3d 1717 9d3d a6a6 db3d
00000050: 4eee e33d 690c abbd 6f3f dabc fe95 c0bd
00000060: b4d8 3fbd dbaa 51bc c324 8f3d 8cf5 6ebd
00000070: fb66 91bd feac eabc 64c1 713d 8afd b03b
00000080: f78e c43d 4c9d eabd cb3a 4f3d 90cf bb3d
00000090: 8687 9f3d 8b46 d9bd 308b b3bd 6618 56bc
000000a0: e584 3c3c 1c68 a03d e75c f13d 5eed 19bc
000000b0: 4f73 12bd af04 843d e3b1 9dbd 362e 53bd
000000c0: baad 8b3b d453 b7bc b69b a93d 0d4f 44bd
000000d0: 5841 8eb9 0ee4 023d be83 7939 978d fabd
000000e0: b373 9f3d df09 9d3d 4bed bbbc 938a acbd
000000f0: 48cd 3cbd 823a 993d 4c19 a43d bc1c 86bd
00000100: e6bb 943d aa6d cebb 6735 8cbc a218 54bd
00000110: dd7b c13b 009e 72bd a515 e13c 328b 0abe
00000120: d1c8 a5ba 7d0c cebd 9882 f0bd e5a1 fcbd
00000130: 178c dabc d4e8 d33c 3535 bb3b 0f45 093d
00000140: eecc 12bd 6a10 eebd 24c5 23bd aad9 c7bd
00000150: 640d 833c 6eee 183d 8ac6 2d3c ecc0 debd
00000160: 5654 e53d d105 d03d aa1c a6bd 8e01 e0bd
00000170: 4f7c b73b c004 333d 0149 03bd d410 6fbd
00000180: 38e0 403c 2d28 bdbd 9a0c 7cbd 1d7f 2f3d
00000190: af3c 483c 5dac 2a3d 02ef e43d d9a3 a4bc
000001a0: e81f e93c 3990 bf3d 3023 abbd cac1 ac3d
000001b0: 5829 a03d 865d 46bd 9cae e83d 37f1 a6bd
000001c0: 723b 5abd 8ef7 b93d f7bf 7d3d 7e48 adbc
000001d0: 4d2f c8bd 3bdd 8a3d bccc 8b3d 6e37 a4bd
000001e0: be4c b0bb ae04 c43d ac40 413d 9346 b8bd
000001f0: c0f4 84bc 9e20 17bd 44c3 a63d 8264 793d
00000200: dd9a a5bc 4e63 443b 5e24 abbd 274b c0bc
00000210: 4d05 7d3d 50c0 eebd 2029 0e3d fd90 013e
00000220: eff9 5e3d 57c5 7f3d 856c 0dbd 1e46 e2bb
00000230: 6171 e1bd 8cbb 5ebd 2a17 c33c 3b82 193d
00000240: 99a4 893d 51fb 90bd d679 073d 3427 8dbd
00000250: 6230 b6bd aebd 44bd bf1b aabd 8b23 a13c
00000260: 3767 9b3c 01a8 a43d 32c5 873d c9b1 a83c
00000270: 57cd 2d3d 3ef9 883d 8827 07be 5a8f 82bd
00000280: 7889 dbbd d0df 9abd 0871 d43c e6a0 f93d
00000290: 9bae b53d c448 8fbd 14d9 403d 2b71 a63d
000002a0: e869 803c a4c2 c9bd 0b56 823c cdff 623d
000002b0: 5d1d d23c 104b f73d 0ad7 fb3d 1e68 98bd
000002c0: 1db0 cc3d d86c f1bd 220a 7ebd 2c72 3f3d
000002d0: 640b 493c 8558 d93d 602d 8a3d d246 62bd
000002e0: f041 fd3d 7b7b bebd ad34 243d 2ee3 053d
000002f0: b0ec e13d fe8d f83d 76c7 813d eea0 55bd
00000300: aa12 f43d 3fc7 ad3d 5292 da3b 3bf6 ae3d
00000310: 7716 363d e046 4bbd 471e 563d d092 0aba
00000320: d629 11bd 01c3 383d df8c d5ba 7654 b6bd
00000330: e47a 1fbe 0379 173d eb27 3dbd 6644 06bc
00000340: d866 d93d 09b5 b03d bbe2 033e ead3 dc3d
00000350: c818 af3d a58e b4bd b3a9 fb3d bb22 f5bd
00000360: fbe4 9cbd 179b 56bd 99ee 283e 1029 be3d
00000370: bf4c 033d 3fef 893d 1f11 01be 23a1 f6bd
00000380: 19be 043d c246 fdbc 83d4 573d 1743 a8bd
00000390: f1ba fe3d 948a cdbd 19db 883d 4e5f 873d
000003a0: ac10 8ebd 4786 e13d 7616 853d 6e00 7abd
000003b0: f524 53bd 32da c03d aecf 1ebd 726e 6e3b
000003c0: c346 6d3d 681d 6b3d f83d 97bd 8d5c bb3d
000003d0: 4878 183d b483 2d3d 3ba1 8dbd 6b31 603d
000003e0: ce3a a9bc 9f8d b93d dad8 793d 6f89 bd3d
000003f0: c996 b9bc e613 9f3d eb65 d53d b0ec db3c

model.2.weight f4 [256, 256]
-0.005827101 -0.0451329 -0.027801763 -0.0009792858 -0.06736659 -0.04167747 0.041434877 -0.036811087
-0.05251972 0.016705025 0.03165381 -0.059773292 0.0024521647 -0.07307446 0.0012667048 0.03775524
0.038908683 0.05431497 -0.01637604 -0.022742985 0.018967016 0.022529246 -0.06115454 -0.075259484
-0.016952533 0.015632737 0.021270147 -0.02482065 0.051661488 -0.040436443 -0.010934884 0.0078116176
-0.048065305 0.06027971 -0.03357977 0.031884998 0.0027041486 -0.034610815 0.060771473 -0.019784631
0.02424542 0.054847486 -0.031575087 0.057749752 -0.02355756 -0.054147713 0.037264485 -0.013677588
-0.056632757 -0.029548323 0.04228592 -0.010603045 -0.018726274 0.045166012 0.034436923 -0.1407222
0.010645944 0.043897614 -0.017546399 -0.007843511 0.06367303 -0.021817436 0.111368045 0.01646426
0.04794126 0.035202183 0.007043574 0.021689909 -0.05004048 -0.102961764 -0.04262889 -0.03167126
-0.028014075 -0.015657073 -0.038080778 -0.042984705 0.0043001496 0.0676731 -0.03711194 -0.04812206
-0.015713912 -0.08095645 -0.07332127 0.05966016 0.08495787 0.05651318 -0.042855617 -0.03719428
0.056121957 -0.039171994 -0.072781555 -0.057195812 0.003931151 0.026924724 -0.031446114 0.06393746
-0.04111398 -0.027527345 0.034286197 0.023653891 0.047397263 -0.013374107 0.035689183 -0.026569769
0.0062378803 -0.038961165 0.042646192 0.015548936 0.008047528 0.000855711 0.03607487 -0.105327755
0.05665942 0.044499144 0.043538403 -0.012682719 -0.053604547 -0.023251921 -0.02217937 -0.023513924
0.039796595 -0.00943926 0.060292665 -0.11176358 -0.085643165 -0.04550515 0.024031827 0.016897015
0.040633097 0.089809656 0.040768914 -0.055960864 3.308959e-05 0.05824062 0.07035862 0.021026848
-0.03646358 -0.056233946 0.065490335 -0.011977216 0.023492433 -0.010177539 -0.028329 0.015382706
0.053816527 -0.008604064 0.022427864 0.026300468 -0.003908547 0.01719938 0.025314301 0.051631518
-0.030572899 0.04217965 -0.008433066 0.02302454 -0.052482624 0.0812809 0.04463893 0.019934142
0.0062233275 0.021633124 -0.05427114 -0.052568045 0.04201327 -0.078869805 0.027128039 -0.041525986
-0.077668145 -0.022333622 -0.007877031 -0.053255964 -0.05723567 -0.05010298 0.035884883 -0.012110517
0.056096558 -0.058141794 -0.050439995 -0.02580991 0.06976476 0.053666838 -0.013673216 -0.048310284
0.004284469 0.0056245616 0.018746478 -0.04887906 0.0063870903 0.008591665 0.032093633 -0.033430524
0.028308611 0.026471084 0.046643652 0.028618474 0.017153526 -0.060805693 -0.0031564925 0.06374247
0.040973652 -0.017240126 0.020844398 0.06480026 -0.01711883 -0.05582963 0.046529513 -0.006986206
-0.016725698 0.023349876 0.099602245 0.066926 -0.05403811 0.018647991 -0.03878888 -0.08158335
-0.026559329 0.03836692 0.09877273 0.042060353 0.031782564 -0.056371193 -0.03760977 -0.032024637
-0.048734177 -0.03154354 -0.050034784 -0.048040647 0.0046748407 -0.023614714 0.0072453422 -0.016392594
0.008090836 -0.059737317 -0.053674873 -0.060838785 0.04756612 -0.004447821 -0.064021856 -0.031044051
-0.0062735123 -0.04899016 0.053397898 0.041423906 0.008462078 -0.0049826126 0.0015441169 0.0118685495
-0.003524672 0.0067342096 -0.061153855 0.01873328 0.013635235 0.032179013 0.026884444 0.049756307
00000000: 44f1 bebb 47dd 38bd 86c0 e3bc 615b 80ba
00000010: 7ff7 89bd ffb5 2abd 9eb7 293d 39c7 16bd
00000020: eb1e 57bd fad8 883c 6da7 013d d7d4 74bd
00000030: 7fb4 203b 10a8 95bd 8f07 a63a 3da5 1a3d
00000040: b65e 1f3d 6079 5e3d 0c27 86bc 7f4f babc
00000050: b760 9b3c 418f b83c 2f7d 7abd a521 9abd
00000060: 0ae0 8abc 3a10 803c bb3e ae3c ad54 cbbc
00000070: ff9a 533d afa0 25bd 3a28 33bc 99f8 ff3b
00000080: 20e0 44bd dbe7 763d f18a 09bd d899 023d
00000090: 1638 313b 12c4 0dbd 82eb 783d 6113 a2bc
000000a0: 559e c63c c2a7 603d e154 01bd 018b 6c3d
000000b0: c9fb c0bc fec9 5dbd a5a2 183d f617 60bc
000000c0: c0f7 67bd 530f f2bc 0034 2d3d 65b8 2dbc
000000d0: d867 99bc ffff 383d bb0d 0d3d 7b19 10be
000000e0: 536c 2e3c fccd 333d 77bd 8fbc 1282 00bc
000000f0: 0167 823d 7bba b2bc ee14 e43d 0ee0 863c
00000100: 0e5e 443d 2a30 103d c8cd e63b 09af b13c
00000110: 3ff7 4cbd 9edd d2bd a29b 2ebd b9b9 01bd
00000120: c67d e5bc 4343 80bc 97fa 1bbd bb10 30bd
00000130: 45e8 8c3b 3298 8a3d b102 18bd a31b 45bd
00000140: 76ba 80bc 7fcc a5bd 7629 96bd 365e 743d
00000150: 64fe ad3d 5d7a 673d 5f89 2fbd 0859 18bd
00000160: 23e0 653d d072 20bd 7f0e 95bd 2846 6abd
00000170: e2d0 803b 3d91 dc3c a4cd 00bd a5f1 823d
00000180: 2267 28bd 0781 e1bc af6f 0c3d cec5 c13c
00000190: a223 423d 121f 5bbc d22e 123d d8a8 d9bc
000001a0: 2267 cc3b be95 1fbd c6ad 2e3d f7c0 7e3c
000001b0: c7d9 033c cb51 603a 3ec3 133d 14b6 d7bd
000001c0: b513 683d bc44 363d 5355 323d 2ecb 4fbc
000001d0: 7190 5bbd d07a bebc 83b1 b5bc 46a0 c0bc
000001e0: c101 233d 20a7 1abc 71f5 763d 4ee4 e4bd
000001f0: af65 afbd 9c63 3abd 65de c43c 9c6b 8a3c
00000200: e46e 263d 20ee b73d 4efd 263d 3837 65bd
00000210: adc9 0a38 b78d 6e3d 2e18 903d 7f40 ac3c
00000220: d65a 15bd 9155 66bd cc1f 863d 163c 44bc
00000230: 3473 c03c b1bf 26bc 3812 e8bc bf07 7c3c
00000240: b86e 5c3d 0ff8 0cbc a4ba b73c 1474 d73c
00000250: 4513 80bb b7e5 8c3c f05f cf3c 927b 533d
00000260: 0474 fabc 92c4 2c3d d82a 0abc f69d bc3c
00000270: 05f8 56bd 9a76 a63d 50d7 363d ed4c a33c
00000280: 0eed cb3b f337 b13c 6a4b 5ebd 9751 57bd
00000290: 1b16 2c3d 7e86 a1bd 9f3b de3c 2717 2abd
000002a0: 7a10 9fbd 00f5 b6bc aa0e 01bc ed22 5abd
000002b0: f36f 6abd c838 4dbd 07fc 123d 316b 46bc
000002c0: 81c5 653d 1726 6ebd 2b9a 4ebd 4e6f d3bc
000002d0: d4e0 8e3d c2d1 5b3d a005 60bc 01e1 45bd
000002e0: bb64 8c3b 3e4e b83b 3792 993c 6935 48bd
000002f0: cc4a d13b 0ec4 0c3c 9d74 033d 72ee 08bd
00000300: 76e7 e73c e3d9 d83c 6a0d 3f3d 4a71 ea3c
00000310: 8d85 8c3c 640f 79bd 28dd 4ebb 6a8b 823d
00000320: fdd3 273d 2a3b 8dbc dfc1 aa3c 00b6 843d
00000330: ca3c 8cbc 9cad 64bd bb95 3e3d 8bec e4bb
00000340: 5504 89bc 3d48 bf3c 43fc cb3d 8010 893d
00000350: 1157 5dbd acc3 983c 17e1 1ebd 2c15 a7bd
00000360: f392 d9bc a226 1d3d 5b49 ca3d 7a47 2c3d
00000370: 6f2e 023d 7be5 66bd b40c 1abd 442c 03bd
00000380: 7d9d 47bd cd33 01bd 46f1 4cbd 45c6 44bd
00000390: 682f 993b a573 c1bc 566a ed3b c349 86bc
000003a0: 6d8f 043c 1eaf 74bd 2fda 5bbd 1732 79bd
000003b0: b1d4 423d 07bf 91bb e41d 83bd 1850 febc
000003c0: 0992 cdbb e8a9 48bd c1b7 5a3d 1dac 293d
000003d0: 87a4 0a3c 2f45 a3bb f763 ca3a 4e74 423c
000003e0: 2ffe 66bb a5aa dc3b 777c 7abd 8976 993c
000003f0: 5266 5f3c 24ce 033d c43c dc3c 45cd 4b3d

model.2.bias f4 [256]
-0.037628844 -0.02541931 -0.030476142 0.023684993 -0.0273993 0.05026196 -0.043682933 0.05687934
0.018885044 -0.047270507 -0.05147132 0.062446013 0.018779846 0.005015521 0.06633438 0.03205124
0.046423264 -0.05032414 0.01459126 -0.03404857 -0.00022922966 0.039665576 0.050556995 0.06518088
-0.018351715 -0.055586133 0.05175324 0.031113971 -0.035582338 -0.0003094528 0.028768312 -0.029038884
0.056011498 0.00087216846 -0.046085004 0.004148078 -0.016152354 0.010227311 0.019938463 -0.08528314
0.04087691 -0.04160944 0.059350546 -0.060552612 -0.020854104 0.0017707775 0.02424135 -0.034669578
0.051091153 0.035571635 -0.013541716 -0.035569876 0.058614533 -0.009028975 -0.033773553 -0.0050794347
-0.028249478 -0.050672557 -0.014618106 -0.0225378 -0.081206165 0.05786792 0.052799817 0.029889857
-0.0054853507 0.016447695 -0.002792008 0.054808542 -0.03031061 0.02147278 0.0068364497 0.03255494
-0.032531857 0.03695234 0.038507074 0.045686036 -0.0001461357 -0.035261128 0.028953688 0.021733887
-0.03442011 -0.027170781 0.03558741 -0.054386333 0.059912466 0.053416647 -0.015024726 0.04147433
0.03984396 0.010767016 0.012620495 0.03194294 0.05312445 0.057357047 -0.030832432 0.00208639
0.004333505 -0.0010920812 -0.035997942 0.035147227 -0.054203346 0.032548428 -0.041601844 0.0452434
0.008932842 -0.018371118 0.08136137 -0.00019176432 0.005242256 -0.03944179 0.05849341 0.009298309
0.044586938 -0.057888944 0.022520045 -0.0039962875 0.03492639 -0.03548496 -0.023093069 -0.037861273
-0.03440393 -0.037966173 -0.006207739 -0.05295537 -0.041560747 0.02672075 -0.01669551 -0.015936855
-0.031192938 -0.027768532 0.04678784 0.026248375 -0.007827448 -0.011840575 0.042486515 0.030253997
0.008708715 0.023483112 0.024968967 -0.04977763 -0.03754679 0.05744691 0.03224331 0.022791022
0.06378662 0.054128066 0.011627553 0.020247461 0.026396269 -0.04778874 0.053484138 0.035943903
-0.045535076 -0.020651532 0.0035107394 -0.03627732 0.050901856 0.0148659 0.048559017 -0.046300087
-0.054041058 -0.04902135 0.008257505 -0.038046863 0.05502028 0.05392201 0.056900166 -0.04276281
0.06502007 -0.031911787 0.053686425 0.019397037 -0.03670743 0.05089264 -0.012678595 0.036157034
0.06754365 0.07945517 -0.04405079 -0.01658584 0.042748082 -0.045661036 0.0222961 -0.008865702
-0.009181757 0.02913936 0.023562696 -0.042255234 0.046743166 0.021371625 -0.05002491 0.0510813
0.049086247 0.100336865 -0.04721379 -0.021561403 0.0126113705 -0.052704092 -0.007930858 -0.03207185
0.008527875 0.03799272 -0.03701362 -0.033454787 -0.002845391 -0.045355763 0.05927337 0.048479933
-0.007420019 -0.03259797 0.05122598 0.003754654 -0.032361705 -0.02535352 0.030887432 0.044738393
0.041854464 -0.047943365 0.0032074237 0.0137323495 0.047977608 -0.019456936 0.03693632 0.021258019
-0.03445388 -0.016399423 -0.04128028 0.019578496 -0.028675042 0.06020705 0.018253868 0.0458366
-0.016809106 0.0107253 0.0140803205 0.021432703 -0.025415277 -0.021660801 -0.018259829 0.061936837
-0.011870658 -0.00071709324 0.010677809 -0.031392675 0.049109653 0.019874992 -0.007583237 0.04238223
-0.032608807 0.06254823 0.024234105 0.05183316 -0.018001102 0.015199012 -0.058394067 -0.028720634
00000000: b420 1abd 283c d0bc 1aa9 f9bc 0807 c23c
00000010: 7f74 e0bc 7cdf 4d3d e0ec 32bd 50fa 683d
00000020: cfb4 9a3c b89e 41bd 97d3 52bd 64c7 7f3d
00000030: 31d8 993c 3d59 a43b 52da 873d 2948 033d
00000040: 5226 3e3d af20 4ebd 2e10 6f3c 8376 0bbd
00000050: 5e5d 70b9 5f78 223d da14 4f3d 8e7d 853d
00000060: 5656 96bc 49ae 63bd 35fb 533d bae2 fe3c
00000070: c9be 11bd 0d3e a2b9 86ab eb3c f4e2 edbc
00000080: 506c 653d 3ca2 643a a1c3 3cbd 9aec 873b
00000090: f151 84bc 7490 273c fd55 a33c eda8 aebd
000000a0: 8c6e 273d a96e 2abd 8f19 733d 0406 78bd
000000b0: 3ad6 aabc 6f19 e83a cc95 c63c b001 0ebd
000000c0: f544 513d 90b3 113d 13de 5dbc b8b1 11bd
000000d0: cb15 703d 44ee 13bc 2356 0abd 6371 a6bb
000000e0: 736b e7bc 078e 4fbd c880 6fbc 31a1 b8bc
000000f0: 6b4f a6bd e906 6d3d 9f44 583d 93db f43c
00000100: 75be b3bb 51bd 863c 1ffa 36bb ec7e 603d
00000110: f54d f8bc afe7 af3c 4c04 e03b 5458 053d
00000120: 2040 05bd 565b 173d 98b9 1d3d 4821 3b3d
00000130: 013c 19b9 f96d 10bd 4930 ed3c 440b b23c
00000140: 1afc 0cbd 4295 debc 1bc4 113d 34c4 5ebd
00000150: c666 753d 6acb 5a3d 452a 76bc fde0 293d
00000160: 6c33 233d 2368 303c 31c6 4e3c 9ad6 023d
00000170: 0699 593d 39ef 6a3d 4c94 fcbc d1bb 083b
00000180: 1300 8e3b 2a24 8fba 9472 13bd 8af6 0f3d
00000190: 5404 5ebd 8051 053d b266 2abd 2551 393d
000001a0: 0e5b 123c 077f 96bc caa0 a63d 5814 49b9
000001b0: 3bc7 ab3b b78d 21bd c996 6f3d ef57 183c
000001c0: cba0 363d f51c 6dbd f57b b83c 4af3 82bb
000001d0: f90e 0f3d ad58 11bd ad2d bdbc 6c14 1bbd
000001e0: 23eb 0cbd 6b82 1bbd 4a6a cbbb bbe7 58bd
000001f0: 9a3b 2abd 79e5 da3c 06c5 88bc 028e 82bc
00000200: 5588 ffbc d57a e3bc 9ba4 3f3d d506 d73c
00000210: b23e 00bc f9fe 41bc 5706 2e3d 3bd7 f73c
00000220: 00af 0e3c a85f c03c b88b cc3c a1e3 4bbd
00000230: aaca 19bd 734d 6b3d 9011 043d 3db4 ba3c
00000240: 8fa2 823d 64b5 5d3d 7e81 3e3c 01de a53c
00000250: fd3c d83c 20be 43bd 2f12 5b3d ea39 133d
00000260: fd82 3abd 672d a9bc 6f14 663b 8797 14bd
00000270: 777e 503d 1b90 733c d2e5 463d 29a5 3dbd
00000280: 285a 5dbd 9cca 48bd 7c4a 073c 07d7 1bbd
00000290: f25c 613d 53dd 5c3d 2610 693d 0e28 2fbd
000002a0: 3e29 853d efb5 02bd 4ce6 5b3d 89e6 9e3c
000002b0: 885a 16bd cd74 503d e2b9 4fbc 6619 143d
000002c0: 5354 8a3d 64b9 a23d 9a6e 34bd 07df 87bc
000002d0: 9d18 2f3d 1107 3bbd 50a6 b63c 7341 11bc
000002e0: 156f 16bc abb5 ee3c 8e06 c13c d313 2dbd
000002f0: c375 3f3d 8c13 af3c ece6 4cbd a03a 513d
00000300: a90e 493d 6a7d cd3d 3f63 41bd 8aa1 b0bc
00000310: ec9f 4e3c 3fe0 57bd 6ef0 01bc c65d 03bd
00000320: 80b8 0b3c 419e 1b3d 989b 17bd e307 09bd
00000330: bd79 3abb f7c6 39bd a2c8 723d e592 463d
00000340: a123 f3bb 7385 05bd 55d2 513d a410 763b
00000350: b58d 04bd 2fb2 cfbc a407 fd3c 9b3f 373d
00000360: 966f 2b3d 4360 44bd a433 523b a6fd 603c
00000370: 2b84 443d 2764 9fbc 8a4a 173d 4c25 ae3c
00000380: 831f 0dbd 1558 86bc 8315 29bd 1563 a03c
00000390: ece7 eabc ab9b 763d 2389 953c 29bf 3b3d
000003a0: 40b3 89bc 2bb9 2f3c 25b1 663c a393 af3c
000003b0: b333 d0bc fe71 b1bc a395 95bc 7bb1 7d3d
000003c0: 267d 42bc 50fb 3bba faf1 2e3c 9b95 00bd
000003d0: 3427 493d e1d0 a23c cd7c f8bb fd98 2d3d
000003e0: d090 05bd 4919 803d 9a86 c63c 024f 543d
000003f0: 0c77 93bc 4705 793c 9e2e 6fbd 8947 ebbc

model.4.weight f4 [66, 256]
-0.05060566 -0.0011428165 -0.07254489 0.064173624 0.028064251 -0.022817932 0.003333759 -0.0036708335
-0.039439023 0.034728214 0.03415815 0.007721196 -0.03815444 -0.07118454 -0.016709408 0.1098565
-0.007945887 0.004083488 0.021804364 0.012912851 0.004833094 -0.021691345 0.0028623724 -0.0016039273
0.01054451 0.10535613 -0.069518045 0.0184377 -0.067864604 0.0036083143 0.030105049 0.065437414
0.0030754663 -0.08565161 0.0109047135 0.03127446 0.12184102 0.07672348 0.03863733 0.032356117
0.09212289 -0.010298032 -0.010192607 -0.06661636 0.062182944 -0.012079809 0.065517776 -0.06742954
-0.02582874 -0.045203436 -0.033787753 -0.06953387 0.08654708 0.062489633 0.0042694244 0.08352516
-0.03183806 -0.04857428 -0.04388876 -0.062988214 0.02756977 0.035755426 -0.06995999 0.082372844
0.0667399 -0.038601834 0.067952685 -0.0063825813 0.083696045 0.047614764 0.00036983396 0.06204769
0.070361465 -0.091864675 -0.04628802 0.027387321 0.06731916 0.018271936 0.05604714 -0.10820938
0.054607347 0.02041489 -0.054823168 -0.0378898 -0.06522229 -0.02902487 -0.038363792 -0.004747948
0.0416588 0.072960265 0.026954658 -0.04542757 -0.019639878 0.07001735 0.00013683556 0.07648595
0.054673567 0.037592016 0.030662654 -0.006925722 -0.0680973 -0.005334766 -0.049357295 -0.026929513
0.012860701 0.046239033 0.027678708 -0.12320205 0.11516688 -0.060685914 0.06818796 0.009737067
-0.017614493 -0.06552542 -0.014584666 -0.016726466 -0.0042126006 0.01992249 -0.07817213 0.023158288
-0.030817585 0.07062581 0.050464906 -0.062898576 -0.11268175 -0.1229713 -0.063688256 -0.05920895
-0.011310213 0.007627607 0.037979502 0.010011414 -0.047913607 -0.11652252 -0.054000426 0.10348286
-0.072835565 -0.12259033 -0.035777625 0.0015918855 0.031112012 -0.065341525 -0.013874012 0.018611928
0.048794184 -0.036783017 -0.0065760147 -0.041412324 -0.032358006 -0.07234608 0.037199672 -0.021156313
-0.039393168 -0.07117879 0.073404126 0.031239828 0.022153707 0.01389857 -0.06625502 -0.06703698
-0.0030763664 0.054080132 0.02073729 0.06291638 0.041169737 -0.0032008362 0.019136116 0.04011518
-0.029018205 0.009504125 -0.018063877 -0.04044398 0.02709523 0.013708905 0.026719905 -0.020558763
0.076932974 0.029736947 0.016821647 -0.1393765 0.043992277 0.002991574 0.06150615 -0.0067381174
-0.009775969 -0.08451584 0.020041728 0.009664589 -0.00916373 -0.0735771 0.044848815 -0.015380063
-0.017614726 -0.056289516 0.037933994 -0.05001486 -0.02740809 -0.07341938 0.0012564325 0.0066399067
0.0060994285 0.05629617 0.04785771 -0.090474024 -0.005840281 0.041030385 -0.02486898 -0.03570896
-0.015213972 0.030046185 -0.019082787 0.06003045 0.053894054 0.037279706 0.035616852 0.07544136
-0.07089198 -0.008229359 0.045921788 -0.0070278896 0.011027078 0.07680852 -0.038787477 0.07222284
0.1534849 0.041414034 0.02535323 0.07095562 -0.040410995 0.07726289 -0.0063978834 0.06863403
0.05579824 0.14461988 0.015324101 0.07974679 -0.12562492 -0.034668967 -0.014079987 -0.0820349
-0.04217119 -0.09052956 0.13657293 0.021824937 -0.019298889 -0.016877932 0.058817778 -0.036423605
0.020525537 0.0046128794 -0.005917118 -0.0061071375 -0.11391049 0.047462076 -0.013876479 0.017115898
00000000: e147 4fbd 8fca 95ba 6a92 94bd 766d 833d
00000010: 00e7 e53c acec babc 327b 5a3b 5e92 70bb
00000020: d08a 21bd 2c3f 0e3d 6be9 0b3d 1602 fd3b
00000030: d447 1cbd 33c9 91bd 2be2 88bc 72fc e03d
00000040: 772f 02bc c8ce 853b 119f b23c 6c90 533c
00000050: ee5e 9e3b 0cb2 b1bc a496 3b3b df3a d2ba
00000060: e1c2 2c3c f4c4 d73d 7a5f 8ebd a90a 973c
00000070: 99fc 8abd 7879 6c3b dd9e f63c 0d04 863d
00000080: c38d 493b 1c6a afbd afa9 323c a619 003d
00000090: c987 f93d 3321 9d3d 2d42 1e3d d987 043d
000000a0: edaa bc3d 14b9 28bc e4fe 26bc 286e 88bd
000000b0: 8bb3 7e3d 64ea 45bc 2f2e 863d 8018 8abd
000000c0: cb96 d3bc 3d27 39bd 0765 0abd c667 8ebd
000000d0: 983f b13d 21f5 7f3d 87e6 8b3b 3d0f ab3d
000000e0: a068 02bd d3f5 46bd b3c4 33bd f7ff 80bd
000000f0: 00da e13c 4874 123d 2f47 8fbd 18b3 a83d
00000100: eeae 883d f51c 1ebd c72a 8b3d f924 d1bb
00000110: d568 ab3d b307 433d 46e6 c139 b825 7e3d
00000120: ac19 903d 8c23 bcbd 8298 3dbd 605b e03c
00000130: a1de 893d 07af 953c b091 653d e19c ddbd
00000140: f4ab 5f3d 213d a73c 428e 60bd 5632 1bbd
00000150: 4493 85bd 90c5 edbc 5a23 1dbd ad94 9bbb
00000160: 6ba2 2a3d 316c 953d 04d0 dc3c 4212 3abd
00000170: cfe3 a0bc 4265 8f3d 847b 0f39 aaa4 9c3d
00000180: 64f1 5f3d 16fa 193d 3f30 fb3c 2bf1 e2bb
00000190: 9976 8bbd 43cf aebb e02a 4abd 489b dcbc
000001a0: b1b5 523c 2465 3d3d 75be e23c 5b51 fcbd
000001b0: 9ddc eb3d cb91 78bd 21a6 8b3d 3888 1f3c
000001c0: 454c 90bc 3132 86bd 86f4 6ebc f105 89bc
000001d0: db09 8abb 7d34 a33c b618 a0bd 73b6 bd3c
000001e0: 2975 fcbc 44a4 903d 4ab4 4e3d f8d0 80bd
000001f0: b0c5 e6bd 60d8 fbbd fd6e 82bd 1585 72bd
00000200: 794e 39bc 01f1 f93b 6590 1b3d ea06 243c
00000210: 0f41 44bd 5ca3 eebd 8d2f 5dbd d2ee d33d
00000220: d02a 95bd a410 fbbd 8f8b 12bd d0a6 d03a
00000230: 9ede fe3c c7d1 85bd d34f 63bc 0b78 983c
00000240: 69dc 473d caa9 16bd 9c7b d7bb f89f 29bd
00000250: d489 04bd 2e2a 94bd af5e 183d 0150 adbc
00000260: bb5a 21bd 2fc6 91bd e754 963d abea ff3c
00000270: b17b b53c d4b6 633c b6b0 87bd af4a 89bd
00000280: dd9c 49bb 2183 5d3d 40e1 a93c 4eda 803d
00000290: 99a1 283d 1fc5 51bb 58c3 9c3c d14f 243d
000002a0: 96b7 edbc 31b7 1b3c b2fa 93bc 96a8 25bd
000002b0: d1f6 dd3c 519b 603c b4e3 da3c da6a a8bc
000002c0: 098f 9d3d e69a f33c 8dcd 893c b7b8 0ebe
000002d0: 3f31 343d 480e 443b dfed 7b3d 6dcb dcbb
000002e0: 632b 20bc a416 adbd 8d2e a43c 3958 1e3c
000002f0: 7823 16bc 97af 96bd 64b3 373d a9fc 7bbc
00000300: c24c 90bc d68f 66bd ad60 1b3d 62dc 4cbd
00000310: ee86 e0bc e65c 96bd e1ae a43a 9393 d93b
00000320: b7dd c73b d096 663d 7206 443d 724a b9bd
00000330: d45f bfbb 7a0f 283d 08ba cbbc 8f43 12bd
00000340: 0644 79bc 6b23 f63c 8153 9cbc 7de2 753d
00000350: 03c0 5c3d 9bb2 183d fae2 113d 0081 9a3d
00000360: d02f 91bd 6fd4 06bc 7c18 3c3d 364a e6bb
00000370: ebaa 343c c94d 9d3d 9edf 1ebd 91e9 933d
00000380: 252b 1d3e c3a1 293d 94b1 cf3c 2e51 913d
00000390: 0086 25bd 023c 9e3d 56a5 d1bb 0090 8c3d
000003a0: b28c 643d 3c17 143e f011 7b3c 4952 a33d
000003b0: d2a3 00be 0c01 0ebd bfaf 66bc ea01 a8bd
000003c0: b3bb 2cbd 9067 b9bd c6d9 0b3e 36ca b23c
000003d0: b418 9ebc 9743 8abc e9ea 703d eb30 15bd
000003e0: 2c25 a83c a327 973b 62e4 c1bb 621e c8bb
000003f0: e749 e9bd 9867 423d 2c5a 63bc a436 8c3c

model.4.bias f4 [66]
0.028003333 0.051461868 0.082231805 0.07154738 0.062185474 -0.0087255165 -0.00820151 0.044366162
0.026207477 0.050474595 -0.04172499 0.015060393 -0.02686137 -0.05334661 0.036485318 0.006992187
-0.04699801 -0.054920133 0.0034889367 0.027951434 0.061750896 -0.032470483 -0.011618312 0.03663063
-0.022268519 0.02941129 0.064469 0.039269798 0.05199635 -0.02911751 -0.04926499 0.045285963
0.031960376 0.019419536 0.0098457085 0.21575402 -0.07133296 -0.051812403 0.04548109 -0.041569438
-0.05064765 -0.00080347183 0.041067217 -0.0068685003 0.006327543 -0.01965689 -0.043468673 0.027419183
-0.022978425 0.013318613 -0.005519113 0.034713354 0.0011384918 -0.042235248 -0.027059015 0.07823888
-0.056015432 0.0049565686 -0.010341707 -0.024965763 -0.030421887 0.025423156 -0.031840123 0.048739824
-0.047306657 0.042002134
00000000: 3f67 e53c aec9 523d 2669 a83d 6f87 923d
00000010: 32b6 7e3d 78f5 0ebc a05f 06bc 4bb9 353d
00000020: 10b1 d63c 73be 4e3d d3e7 2abd debf 763c
00000030: 600c dcbc fa81 5abd a171 153d b71e e53b
00000040: fc80 40bd eff3 60bd a5a6 643b 68fa e43c
00000050: 82ee 7c3d c5ff 04bd bc5a 3ebc 000a 163d
00000060: 786c b6bc f2ef f03c 5308 843d 5ed9 203d
00000070: 20fa 543d d887 eebc 16ca 49bd c67d 393d
00000080: e2e8 023d b815 9f3c e54f 213c 9fee 5c3e
00000090: 0417 92bd 3e39 54bd 614a 3a3d b744 2abd
000000a0: e973 4fbd 15a0 52ba 1936 283d 2811 e1bb
000000b0: 4757 cf3b 7c07 a1bc 350c 32bd 329e e03c
000000c0: 403d bcbc 5036 5a3c add9 b4bb 972f 0e3d
000000d0: 7239 953a defe 2cbd deaa ddbc b53b a03d
000000e0: 7070 65bd b66a a23b 4370 29bc 0085 ccbc
000000f0: 5237 f9bc 3944 d03c ca6a 02bd 69a3 473d
00000100: a0c4 41bd 6e0a 2c3d
