results/33bus/pinn_model0.1.pth (torch, 402372 bytes, 6 tensors)

model.0.weight f4 [256, 66]
0.09406516 0.12571643 0.037319172 0.09485882 -0.0319014 0.058060214 -0.05426051 0.053869084
0.09563456 -0.06276306 0.18024914 0.002536884 0.072660625 0.013303641 0.08558257 -0.0151389595
0.10807157 0.044787746 -0.049088616 0.06044695 -0.0118556805 0.03166943 -0.06129545 0.11406218
-0.06240006 -0.096989445 -0.051337894 -0.091995254 -0.014861897 -0.07581763 0.11706755 -0.07921775
0.08056043 0.018186213 -0.028427094 0.14174928 0.046221577 0.07810464 -0.031458024 -0.033584055
0.06983059 0.038733676 -0.027012384 0.15583172 0.13539243 0.0392893 0.06646046 -0.024328804
0.058305427 -0.09393101 -0.097436 -0.05612942 -0.04569138 0.16944943 0.071083814 0.08750199
-0.011778981 -0.0051948666 0.15031089 0.010362606 0.07866664 -0.030728368 0.00030929188 -0.047919117
-0.008371875 0.025041223 0.10794384 -0.058122814 -0.0067114457 -0.10274858 0.106671505 0.027499614
0.112185866 -0.09708181 -0.110641904 -0.11497202 -0.009817831 0.036943328 0.016675381 0.095318384
-0.062019706 -0.11075255 0.06867545 -0.008326097 0.045050886 0.017863039 0.14355405 -0.028992822
-0.0839368 0.049784802 0.070062175 -0.046419892 0.068326056 0.063076995 -0.12727338 -0.08216071
0.11049274 -0.06106974 -0.07287176 -0.11288056 -0.055700388 0.10137484 -0.03863902 -0.092097335
-0.038364995 -0.08699061 -0.07796218 -0.03151825 -0.15165281 -0.010853602 0.13084897 0.026096892
0.024697648 -0.13363744 -0.11373806 -0.052396726 0.06003368 -0.14129654 0.004089064 0.01317831
0.07407721 -0.0555694 -0.030501233 -0.05865209 -0.07494829 -0.04470917 -0.037229266 -0.1133967
0.0677764 -0.031400476 0.06287067 0.020939145 -0.11466596 0.06868701 -0.08530111 -0.0058167507
-0.09595117 -0.10108827 0.039675713 -0.022584986 0.038819887 -0.06442932 0.025391543 -0.080772
0.009524936 0.04015101 0.049296524 0.12604593 0.12109402 -0.14056322 0.057191014 -0.075860694
-0.07606227 -0.12699844 0.12599191 -0.09789367 0.02782653 0.05706638 0.062378373 -0.03625462
0.15031122 0.04322985 0.028698739 -0.06549848 0.08661255 -0.026242524 -0.07105498 0.056867354
0.05782393 -0.055519048 -0.026210815 -0.008736675 0.04636952 -0.07334933 -0.0002767309 -0.114236765
-0.10341412 0.042913705 0.09751892 -0.11175457 0.052469566 0.07748768 -0.019199219 -0.014933257
0.029449413 -0.010121345 0.0092440415 -0.016949564 -0.030037237 -0.014728415 -0.027661826 -0.057707828
0.076279625 0.12800463 0.030487569 -0.0077467007 0.057047416 0.0068637575 0.06290324 0.14103203
0.16771342 -0.28150564 0.05650542 0.061948877 -0.032061145 -0.0944387 -0.03897846 -0.19343159
0.282829 -0.043340623 -0.11778614 -0.014342885 0.045173723 -0.21628192 0.05250661 0.32639867
-0.14664488 0.16010569 0.30874237 0.20210381 -0.21697108 0.21046385 0.16795637 -0.16006468
-0.22342375 -0.07398541 -0.12813759 0.029993774 -0.122781 -0.2428233 -0.32886073 0.105580784
0.11232957 0.3928831 -0.012830559 -0.10148449 -0.25601694 -0.119639724 0.10916124 0.18596801
-0.36404258 0.23786661 0.23413396 0.17979765 -0.07367088 -0.19898799 -0.2403425 -0.010286724
0.17564607 -0.14673467 0.1954467 0.23379141 0.21549027 -0.032269813 -0.18395135 0.04423268
00000000: 3ca5 c03d cfbb 003e fddb 183d 5745 c23d
00000010: 0bab 02bd 8cd0 6d3d 4540 5ebd d4a5 5c3d
00000020: 0ddc c33d eb89 80bd 3b93 383e da41 263b
00000030: 18cf 943d 84f7 593c ea45 af3d 6609 78bc
00000040: a154 dd3d 5b73 373d 2511 49bd 3997 773d
00000050: 543e 42bc ceb7 013d f010 7bbd 6f99 e93d
00000060: 3597 7fbd 67a2 c6bd af47 52bd 0268 bcbd
00000070: 507f 73bc 4646 9bbd 1dc1 ef3d ea3c a2bd
00000080: defc a43d 41fb 943c f0df e8bc b926 113e
00000090: d652 3d3d 53f5 9f3d 21da 00bd 6f8f 09bd
000000a0: 5703 8f3d 34a7 1e3d 1349 ddbc 5a92 1f3e
000000b0: 50a4 0a3e d1ed 203d 6c1c 883d 334d c7bc
000000c0: acd1 6e3d e75e c0bd 878c c7bd f6e7 65bd
000000d0: e226 3bbd 2784 2d3e 6494 913d 3e34 b33d
000000e0: a1fc 40bc b339 aabb 19eb 193e ebc7 293c
000000f0: fa1b a13d 0fba fbbc 7428 a239 d646 44bd
00000100: 302a 09bc 4023 cd3c a911 dd3d 3012 6ebd
00000110: b0eb dbbb d96d d2bd 9776 da3d df46 e13c
00000120: b4c1 e53d d4d2 c6bd 3998 e2bd 7376 ebbd
00000130: f8da 20bc e351 173d cf9a 883c 4936 c33d
00000140: 6008 7ebd 3cd2 e2bd b7a5 8c3d 2f6a 08bc
00000150: 4787 383d 8255 923c d5ff 123e 5b82 edbc
00000160: 0fe7 abbd 26eb 4b3d c27c 8f3d c922 3ebd
00000170: 88ee 8b3d 832e 813d f453 02be e043 a8bd
00000180: 054a e23d 4424 7abd ca3d 95bd ec2d e7bd
00000190: 1726 64bd 9d9d cf3d f343 1ebd 879d bcbd
000001a0: 9d24 1dbd 2228 b2bd a3aa 9fbd 4819 01bd
000001b0: e04a 1bbe 4ed3 31bc 46fd 053e 26c9 d53c
000001c0: b952 ca3c 41d8 08be 80ef e8bd f39d 56bd
000001d0: e0e5 753d 0ab0 10be 8efd 853b d7e9 573c
000001e0: cbb5 973d bd9c 63bd b9dd f9bc 2d3d 70bd
000001f0: 7d7e 99bd f620 37bd b77d 18bd 873c e8bd
00000200: 5ace 8a3d c99d 00bd 56c2 803d 9288 ab3c
00000210: fdd5 eabd c6ab 8c3d 59b2 aebd 719a bebb
00000220: 0c82 c4bd 5e07 cfbd 0083 223d 2604 b9bc
00000230: 9a01 1f3d 85f3 83bd ed01 d03c ca6b a5bd
00000240: 7a0e 1c3c 6375 243d 27eb 493d 2f12 013e
00000250: 2400 f83d ceef 0fbe 2041 6a3d da5c 9bbd
00000260: 89c6 9bbd e10b 02be 0604 013e 7a7c c8bd
00000270: 77f4 e33c 70be 693d 7780 7f3d b97f 14bd
00000280: 2feb 193e c811 313d 9e19 eb3c 1124 86bd
00000290: ec61 b13d 90fa d6bc 4685 91bd beed 683d
000002a0: c9d8 6c3d f167 63bd 10b8 d6bc 4524 0fbc
000002b0: f7ed 3d3d 2c38 96bd 3116 91b9 f7f4 e9bd
000002c0: c8ca d3bd 48c6 2f3d 00b8 c73d 94df e4bd
000002d0: 54ea 563d dcb1 9e3d ae47 9dbc 9faa 74bc
000002e0: e53f f13c ffd3 25bc 5274 173c d0d9 8abc
000002f0: a710 f6bc 734f 71bc 0e9b e2bc 0b5f 6cbd
00000300: 7e38 9c3d a513 033e 11c1 f93c 09d8 fdbb
00000310: 8daa 693d 5fe9 e03b 6ad3 803d b36a 103e
00000320: 11bd 2b3e 8221 90be 3a72 673d 1bbe 7d3d
00000330: 8c52 03bd 1469 c1bd e1a7 1fbd ee12 46be
00000340: f6ce 903e f085 31bd dc39 f1bd 6cfe 6abc
00000350: 1508 393d 0279 5dbe 2c11 573d ba1d a73e
00000360: 132a 16be bff2 233e 7b13 9e3e 4df4 4e3e
00000370: ab2d 5ebe d683 573e c1fc 2b3e ffe7 23be
00000380: 32c9 64be aa85 97bd 8036 03be 81b5 f53c
00000390: 9b74 fbbd aca6 78be 6f60 a8be bd3a d83d
000003a0: 0c0d e63d f927 c93e 4437 52bc 1ad7 cfbd
000003b0: a714 83be ac05 f5bd ee8f df3d 666e 3e3e
000003c0: ca63 babe 4e93 733e d0c0 6f3e e01c 383e
000003d0: c2e0 96bd 82c3 4bbe 581c 76be a689 28bc
000003e0: 90dc 333e 9d41 16be 2e23 483e 0467 6f3e
000003f0: 7ba9 5c3e 5a2d 04bd be5d 3cbe 542d 353d

model.0.bias f4 [256]
-0.11658531 0.106979646 -0.093170635 -0.105303496 -0.07322562 -0.010028505 -0.006278817 0.09188219
0.088297896 -0.11802048 -0.11127571 -0.14475678 0.097691245 -0.05163373 -0.10382749 -0.090640396
0.043811288 0.041458692 0.08037043 0.116084516 0.1254701 -0.09017795 -0.035861526 -0.10662288
-0.05656041 -0.0134530235 0.075184405 -0.07089853 -0.07480897 -0.030243367 0.065411404 0.0053350367
0.1039585 -0.12584122 0.053094085 0.09604484 0.09061307 -0.11187919 -0.0945067 -0.018237038
0.0116660325 0.08231621 0.12840842 -0.010873908 -0.038660508 0.077831745 -0.08238734 -0.053836677
0.0082594035 -0.034122758 0.09271863 -0.058281712 0.0010688194 0.032634452 0.006371631 -0.12541895
0.09296254 0.089549944 -0.025389016 -0.09504264 -0.049463492 0.08293455 0.08582256 -0.077015266
0.07928954 -0.007404041 -0.024057822 -0.05082811 0.006554172 -0.075184606 0.02591709 -0.14676437
-0.0017238843 -0.12133016 -0.12057575 -0.13188559 -0.033177562 0.025177475 0.007192666 0.03391446
-0.049925458 -0.11946987 -0.04103536 -0.10564679 0.03595106 0.0444061 0.008484738 -0.10919142
0.11693761 0.10711035 -0.09460075 -0.117899716 0.0062413123 0.050514393 -0.03240996 -0.068879314
0.013704546 -0.10188952 -0.0680973 0.04579676 0.014358576 0.043419313 0.12520972 -0.024368834
0.035141766 0.10247386 -0.086375795 0.08719476 0.087757856 -0.05957128 0.12245378 -0.08957131
-0.05415347 0.10035922 0.071190454 -0.021687947 -0.102612205 0.07109393 0.06278893 -0.08573676
-0.0067194467 0.107645996 0.05207367 -0.09710293 -0.029992055 -0.038913842 0.09289222 0.072163664
-0.021830374 0.013282956 -0.08572546 -0.026769644 0.069370516 -0.11998442 0.03506511 0.1332861
0.055783823 0.067750506 -0.037290514 -0.009842003 -0.1149644 -0.061614785 0.031000819 0.037618965
0.06997953 -0.07622695 0.03911221 -0.07336594 -0.090732604 -0.049813442 -0.08229558 0.02135282
0.02066851 0.08511522 0.06889019 0.020048777 0.050299957 0.07963266 -0.14927939 -0.07054234
-0.11227832 -0.07968888 0.02527421 0.13495485 0.093255155 -0.08266902 0.054739825 0.087481976
0.017216058 -0.11181197 0.016188342 0.060986105 0.030845203 0.12515818 0.12629907 -0.08104499
0.11171473 -0.12824516 -0.072728604 0.049047634 0.008469394 0.11160532 0.07133435 -0.07206697
0.12794465 -0.097313635 0.05367796 0.03285862 0.12678474 0.12643005 0.071146436 -0.0551374
0.123021625 0.089393295 0.011305732 0.08890277 0.05202373 -0.05534763 0.057099003 -0.0008234873
-0.041127115 0.054725375 0.00030659063 -0.092003584 -0.1725515 0.034438282 -0.049130097 -0.0096743
0.11495522 0.0893474 0.13659123 0.121382184 0.08451731 -0.10098385 0.13251668 -0.12962876
-0.086561605 -0.053116046 0.17249133 0.09409569 0.03544068 0.07985304 -0.148949 -0.12370518
0.048020005 -0.032338023 0.05714907 -0.09728636 0.13374001 -0.10695726 0.07527491 0.07124017
-0.07428026 0.11870311 0.07100747 -0.08307735 -0.061411347 0.09693426 -0.04308978 0.0032763353
0.062083047 0.05888795 -0.083602734 0.09792887 0.039484907 0.04289101 -0.07411483 0.06495117
-0.019987525 0.094507076 0.06629371 0.11447295 -0.025764463 0.07582745 0.11012203 0.03217366
00000000: 47c4 eebd 2518 db3d 3fd0 bebd 5ca9 d7bd
00000010: 50f7 95bd 994e 24bc 89be cdbb bb2c bc3d
00000020: 87d5 b43d b9b4 f1bd 85e4 e3bd 1f3b 14be
00000030: 5912 c83d e47d 53bd 82a3 d4bd aca1 b9bd
00000040: 7773 333d 97d0 293d 4199 a43d b8bd ed3d
00000050: 3c7b 003e 38af b8bd 89e3 12bd 195d dabd
00000060: e3ab 67bd 126a 5cbc 48fa 993d 4033 91bd
00000070: 7235 99bd f0c0 f7bc 6af6 853d 88d1 ae3b
00000080: 32e8 d43d 85dc 00be 2f79 593d 28b3 c43d
00000090: 5893 b93d eb20 e5bd bb8c c1bd d765 95bc
000000a0: e322 3f3c 6795 a83d 7f7d 033e 7a28 32bc
000000b0: 7b5a 1ebd 4066 9f3d b2ba a8bd d983 5cbd
000000c0: 7352 073c 4ec4 0bbd 44e3 bd3d ceb8 6ebd
000000d0: a117 8c3a b4ab 053d 1dc9 d03b d36d 00be
000000e0: 2563 be3d f665 b73d a0fc cfbc b7a5 c2bd
000000f0: 3b9a 4abd 97d9 a93d bdc3 af3d 2eba 9dbd
00000100: 8e62 a23d 999d f2bb e914 c5bc 2331 50bd
00000110: 61c4 d63b 63fa 99bd 1450 d43c 6649 16be
00000120: f5f3 e1ba f27b f8bd 6bf0 f6bd 040d 07be
00000130: 32e5 07bd fe40 ce3c 75b0 eb3b e4e9 0a3d
00000140: a37e 4cbd 9fac f4bd b214 28bd 585d d8bd
00000150: 6b41 133d 2ce3 353d 9203 0b3c c09f dfbd
00000160: fc7c ef3d ac5c db3d 0abe c1bd 6875 f1bd
00000170: ec83 cc3b 2ee8 4e3d 4ec0 04bd 9910 8dbd
00000180: 0889 603c 74ab d0bd 9976 8bbd 6295 3b3d
00000190: 3c40 6b3c 73d8 313d fa36 003e 26a1 c7bc
000001a0: d0f0 0f3d d1dd d13d cbe5 b0bd 2b93 b23d
000001b0: 64ba b33d 0401 74bd 0cc9 fa3d 2a71 b7bd
000001c0: 07d0 5dbd 2289 cd3d 4dcc 913d ecaa b1bc
000001d0: 5926 d2bd b299 913d 7c97 803d c196 afbd
000001e0: ce2e dcbb 8175 dc3d 334b 553d e7dd c6bd
000001f0: e6b1 f5bc 1f64 1fbd 473e be3d 8bca 933d
00000200: 9dd5 b2bc c1a0 593c d490 afbd 034c dbbc
00000210: 2112 8e3d 64ba f5bd 6fa0 0f3d 277c 083e
00000220: 947d 643d c7c0 8a3d f0bd 18bd 5a40 21bc
00000230: 7572 ebbd c95f 7cbd 6ef5 fd3c 5816 1a3d
00000240: 6e51 8f3d e01c 9cbd 2034 203d e240 96bd
00000250: 04d2 b9bd 2e09 4cbd 968a a8bd 1cec ae3c
00000260: 0251 a93c e350 ae3d 4d16 8d3d 553d a43c
00000270: 5407 4e3d 7316 a33d b2dc 18be 8178 90bd
00000280: 2df2 e5bd ec33 a3bd dc0b cf3c 9b31 0a3e
00000290: 8ffc be3d 604e a9bd de36 603d c029 b33d
000002a0: b108 8d3c adfd e4bd 6a9d 843c 91cc 793d
000002b0: 14af fc3c 7729 003e 8b54 013e eafa a5bd
000002c0: b1ca e43d b352 03be bcf2 94bd 2ce6 483d
000002d0: 37c3 0a3c 5491 e43d be17 923d d997 93bd
000002e0: ec03 033e 5f4c c7bd 6cdd 5b3d c396 063d
000002f0: dcd3 013e e176 013e 39b5 913d c1d7 61bd
00000300: c3f2 fb3d d513 b73d ad3b 393c a812 b63d
00000310: d616 553d 32b4 62bd a5e0 693d 4cdf 57ba
00000320: e874 28bd b727 603d e6bd a039 606c bcbd
00000330: 57b1 30be 280f 0d3d a43c 49bd f580 1ebc
00000340: a46d eb3d c5fb b63d 92de 0b3e 3997 f83d
00000350: 6917 ad3d 9fd0 cebd 74b2 073e 67bd 04be
00000360: 3647 b1bd 3690 59bd 91a1 303e 3eb5 c03d
00000370: 3f2a 113d fe89 a33d 1686 18be 2459 fdbd
00000380: a0b0 443d e074 04bd 2515 6a3d 123e c7bd
00000390: 24f3 083e 680c dbbd bb29 9a3d 5ee6 913d
000003a0: 4020 98bd 9e1a f33d 5d6c 913d 7524 aabd
000003b0: 778a 7bbd 7885 c63d e97e 30bd c9b7 563b
000003c0: cb4a 7e3d 7e34 713d e937 abbd ee8e c83d
000003d0: edba 213d 7cae 2f3d 84c9 97bd 1e05 853d
000003e0: e1bc a3bc ed8c c13d ffc4 873d cb70 ea3d
000003f0: ff0f d3bc 6c4b 9b3d a987 e13d 87c8 033d

model.2.weight f4 [256, 256]
-0.0057626986 -0.04512313 -0.027959347 -0.0061539994 -0.073483974 -0.042404644 0.042136114 -0.036883984
-0.05228187 0.016629647 0.03131677 -0.05959352 0.0023856952 -0.07188875 -0.00022705145 0.037063643
0.039375395 0.05428485 -0.016397525 -0.023152238 0.01880113 0.022321982 -0.05859171 -0.07355424
-0.01739526 0.014602435 0.021268774 -0.025417043 0.051565442 -0.040748626 -0.010818188 0.007994155
-0.04827414 0.060228508 -0.033776503 0.031900253 0.0015413706 -0.034812056 0.061005067 -0.019474093
0.024479238 0.054985523 -0.027842032 0.057947434 -0.022568382 -0.053927187 0.03710415 -0.013903716
-0.05684883 -0.029290128 0.0417131 -0.013875169 -0.017496325 0.045128632 0.03836316 -0.14165927
0.009784829 0.044074334 -0.016913401 -0.00736606 0.064592354 -0.021655522 0.110378 0.0070663975
0.047268283 0.026595969 0.005732262 0.021422872 -0.050416842 -0.12695643 -0.042641975 -0.031343035
-0.027653445 -0.015830213 -0.038462862 -0.043358795 0.012883163 0.06726912 -0.037654016 -0.04844989
-0.015900604 -0.08249075 -0.07321774 0.05938319 0.101191625 0.056170747 -0.043310434 -0.037124533
0.056401953 -0.039292064 -0.073292054 -0.056581616 0.0034209818 0.027755182 -0.03163601 0.06399986
-0.040593293 -0.035000987 0.034128647 0.023595437 0.048045944 -0.013069188 0.03506808 -0.021872481
0.006494734 -0.03871614 0.042476654 0.014654876 0.0076985382 0.0013703601 0.035802297 -0.10743692
0.056170966 0.044331778 0.043014083 -0.012428852 -0.05353219 -0.023724055 -0.020489017 -0.022930045
0.040063508 -0.009871395 0.060676515 -0.11141803 -0.08925974 -0.045955323 0.023304194 0.017042076
0.04044066 0.09913422 0.04038945 -0.05699449 -0.00085379335 0.057869457 0.060948484 0.02097707
-0.03654267 -0.056109168 0.06567826 -0.012527787 0.02316833 -0.010004909 -0.026948174 0.015341194
0.05398924 -0.008613479 0.02298876 0.026244156 -0.0040764455 0.017263338 0.025025431 0.052589796
-0.030630205 0.042584125 -0.0086587 0.022391692 -0.05230443 0.08844245 0.044869233 0.019625407
0.007035628 0.02145027 -0.05499512 -0.053274877 0.041811816 -0.07757875 0.033397067 -0.0412168
-0.07665198 -0.022733325 -0.0077496483 -0.05266286 -0.05768124 -0.04993351 0.036130536 -0.012784223
0.055505387 -0.058214884 -0.0510356 -0.026259411 0.06949346 0.05390455 -0.01407978 -0.045585327
0.0043140356 0.0056802207 0.01999875 -0.050775472 0.006196377 0.008840411 0.031952307 -0.033856925
0.027916301 0.026458312 0.045784853 0.028777013 0.019059075 -0.063053235 -0.0016554646 0.063338205
0.0411522 -0.005170913 0.021330157 0.06447066 -0.026780108 -0.0558945 0.04629521 -0.0072628646
-0.016876923 0.023654047 0.10283677 0.07903277 -0.05415733 0.01977634 -0.03881023 -0.08142106
-0.026742531 0.038511794 0.10019757 0.03614328 0.032097306 -0.057377562 -0.036924686 -0.03237348
-0.048608243 -0.03162709 -0.050166253 -0.047826383 0.0048982236 -0.023763765 0.006307347 -0.016130941
0.0076006134 -0.059673533 -0.0529616 -0.060719963 0.046832405 -0.0046039973 -0.064625636 -0.031076262
-0.0059448113 -0.049234025 0.05401725 0.04150844 0.008661242 -0.0056901597 0.002923406 0.012302092
-0.002974454 0.005742307 -0.061025698 0.018416967 0.013258772 0.031649653 0.027326388 0.050241902
00000000: 05d5 bcbb 08d3 38bd 000b e5bc 7da7 c9bb
00000010: c47e 96bd 7eb0 2dbd eb96 2c3d a913 17bd
00000020: 8425 56bd e63a 883c 0346 003d 5618 74bd
00000030: 5359 1c3b 693a 93bd a914 6eb9 0cd0 173d
00000040: 1848 213d ca59 5e3d 1a54 86bc c3a9 bdbc
00000050: d404 9a3c 97dc b63c dcfd 6fbd 9ba3 96bd
00000060: 8180 8ebc 0d3f 6f3c da3b ae3c 6737 d0bc
00000070: 4936 533d 08e8 26bd c53e 31bc ebf9 023c
00000080: 1bbb 45bd 2bb2 763d 3b59 0abd d7a9 023d
00000090: d107 ca3a 1697 0ebd 73e0 793d 2288 9fbc
000000a0: af88 c83c 8038 613d f914 e4bc 4a5a 6d3d
000000b0: 54e1 b8bc c1e2 5cbd 85fa 173d 69cc 63bc
000000c0: 52da 68bd daf1 efbc 5bdb 2a3d ad54 63bc
000000d0: 7454 8fbc cdd8 383d b022 1d3d 210f 11be
000000e0: 8c50 203c 4a87 343d f98d 8abc fd5e f1bb
000000f0: ff48 843d ec66 b1bc dc0d e23d 3d8d e73b
00000100: 639c 413d cadf d93c b3d5 bb3b 057f af3c
00000110: e481 4ebd de00 02be 5aa9 2ebd 8e61 00bd
00000120: 7a89 e2bc 5dae 81bc 3c8b 1dbd fe98 31bd
00000130: e713 533c 64c4 893d 193b 1abd 6473 46bd
00000140: fc41 82bc e9f0 a8bd 2ff3 95bd ca3b 733d
00000150: 8e3d cf3d 4c13 663d 4866 31bd e50f 18bd
00000160: bc05 673d b7f0 20bd 251a 96bd 20c2 67bd
00000170: 8d32 603b d65e e33c c394 01bd 5c12 833d
00000180: 2745 26bd 325d 0fbd 7bca 0b3d 384b c13c
00000190: d3cb 443d 2620 56bc 8ca3 0f3d eb2d b3bc
000001a0: c7d1 d43b d194 1ebd 00fc 2d3d 011b 703c
000001b0: 0544 fc3b a89d b33a 6ea5 123d e307 dcbd
000001c0: 8713 663d 3d95 353d 892f 303d 62a2 4bbc
000001d0: 9244 5bbd f358 c2bc 95d8 a7bc cad7 bbbc
000001e0: a219 243d a2bb 21bc f087 783d 232f e4bd
000001f0: d0cd b6bd a63b 3cbd 70e8 be3c d39b 8b3c
00000200: 1ba5 253d e206 cb3d 686f 253d 0e73 69bd
00000210: 1ad1 5fba 8608 6d3d 1ea5 793d 1bd8 ab3c
00000220: c4ad 15bd bad2 65bd 5382 863d 5941 4dbc
00000230: 82cb bd3c a1eb 23bc 6bc2 dcbc a259 7b3c
00000240: d223 5d3d 8d1f 0dbc ed52 bc3c fcfd d63c
00000250: b493 85bb d86b 8d3c 2202 cd3c 6668 573d
00000260: 32ec fabc b16c 2e3d 38dd 0dbc c86e b73c
00000270: 2c3d 56bd 5121 b53d cdc8 373d 76c5 a03c
00000280: 208b e63b 7ab8 af3c 9042 61bd c236 5abd
00000290: de42 2b3d 9ce1 9ebd 5dcb 083d f3d2 28bd
000002a0: b7fb 9cbd 3d3b babc c3f0 fdbb 03b5 57bd
000002b0: 2a43 6cbd 1587 4cbd 9dfd 133d eb74 51bc
000002c0: 9e59 633d bb72 6ebd b50a 51bd fa1d d7bc
000002d0: 9652 8e3d 04cb 5c3d e1ae 66bc aeb7 3abd
000002e0: c15c 8d3b 2521 ba3b 6bd4 a33c f1f9 4fbd
000002f0: fa0a cb3b 5fd7 103c 6ce0 023d 8fad 0abd
00000300: bab0 e43c 1abf d83c e688 3b3d c5bd eb3c
00000310: c721 9c3c 0e22 81bd 2dfc d8ba 76b7 813d
00000320: 368f 283d c370 a9bb 95bc ae3c 3209 843d
00000330: f561 dbbc a2f1 64bd 0ca0 3d3d 53fd edbb
00000340: 7941 8abc 22c6 c13c 169c d23d efdb a13d
00000350: 14d4 5dbd fe01 a23c 7af7 1ebd 16c0 a6bd
00000360: 2713 dbbc 8bbe 1d3d 6234 cd3d fa0a 143d
00000370: 7778 033d bc04 6bbd 573e 17bd 0e9a 04bd
00000380: 7019 47bd 688b 01bd 217b 4dbd 99e5 43bd
00000390: 4781 a03b 3aac c2bc ddad ce3b 0925 84bc
000003a0: 910e f93b 3c6c 74bd 43ee 58bd 7fb5 78bd
000003b0: 56d3 3f3d 21dd 96bb 725a 84bd a593 febc
000003c0: b1cc c2bb 9ea9 49bd 3141 5d3d c104 2a3d
000003d0: e2e7 0d3c 8574 babb 9d96 3f3b b78e 493c
000003e0: 0fef 42bb f629 bc3b 15f6 79bd 2edf 963c
000003f0: 523b 593c 11a3 013d 97db df3c 74ca 4d3d

model.2.bias f4 [256]
-0.037387725 -0.026025735 -0.029869126 0.024464339 -0.02621715 0.05130838 -0.054842953 0.054688215
0.018925158 -0.045744658 -0.051372122 0.06495324 0.017704003 0.006416208 0.06723995 0.032248497
0.04686891 -0.052013837 0.01556872 -0.03239869 -0.0021851382 0.03291538 0.0492121 0.06463796
-0.018636156 -0.05521951 0.05143537 0.030425685 -0.036847673 -0.0007867875 0.03102607 -0.029540073
0.05753039 0.006179723 -0.045034733 0.0050976253 -0.01488241 0.009502164 0.020097632 -0.118722804
0.042043585 -0.041690405 0.055318724 -0.06239287 -0.01589325 0.0033922223 0.027188295 -0.036670364
0.05169569 0.036775038 -0.012880121 -0.037026584 0.061331563 -0.0083810575 -0.03403932 -0.0046050455
-0.026696494 -0.05416704 -0.015938068 -0.023169449 -0.08351064 0.057821617 0.051231835 0.030167818
-0.002986966 0.017538546 -0.0016852877 0.05205207 -0.01868107 0.021598006 0.008805997 0.032936938
-0.03070635 0.03564928 0.038625147 0.045818504 5.6429013e-05 -0.035961766 0.031243868 0.021238368
-0.037203543 -0.030527063 0.03535032 -0.056422573 0.0653867 0.055495 -0.012684126 0.036603857
0.04214113 0.013281512 0.012127896 0.032038443 0.05422155 0.059674434 -0.076888904 0.003594451
0.0070019155 -0.0007942928 -0.035951983 0.035723783 -0.0547076 0.03361296 -0.042091697 0.045849375
0.0096775275 -0.01973965 0.086340435 -0.0015314919 0.004627296 -0.042390108 0.05955298 0.008286756
0.047041506 -0.058488935 0.021801073 -0.0023250545 0.03600809 -0.038117107 -0.024056084 -0.04249188
-0.03640536 -0.0367853 -0.0060736896 -0.053540032 -0.03770916 0.027112868 -0.018871693 -0.016693126
-0.032087263 -0.028622769 0.046474483 0.02535194 -0.009525636 -0.012053178 0.04384716 0.031772297
0.008060928 0.023734713 0.018932706 -0.04963153 -0.040770754 0.05758591 0.031149253 0.02589594
0.063333385 0.056972522 0.012212148 0.021824388 0.027836768 -0.049178418 0.05270069 0.03637629
-0.044060074 -0.022554211 0.002849284 -0.03564879 0.051978096 0.013423017 0.04882614 -0.0471788
-0.051041465 -0.049623482 0.01007163 -0.03531706 0.055680152 0.053220868 0.05809967 -0.0442441
0.06703691 -0.031023903 0.0549419 0.017103037 -0.03749853 0.07809998 -0.008793175 0.03732486
0.0676287 0.081248686 -0.047551505 -0.016024858 0.04843454 -0.0516743 0.024762677 -0.0037742998
-0.009641342 0.028347924 0.024185676 -0.04182548 0.048150904 0.0194213 -0.04939887 0.052464653
0.0489217 0.10116854 -0.049110208 -0.02226549 0.015129157 -0.051601876 -0.009274856 -0.032852564
0.008843101 0.037273623 -0.03639715 -0.039215334 -0.001256622 -0.04479382 0.05866078 0.04953519
-0.007839927 -0.031602003 0.05040844 0.016581478 -0.031172184 -0.023980794 0.033173967 0.043880295
0.039598566 -0.046519857 0.0049879556 0.013993706 0.048957247 -0.017878147 0.039990783 0.022074297
-0.03275737 -0.01694163 -0.04214004 0.01892745 -0.029740253 0.059956226 0.020522786 0.052450158
-0.016349893 0.013043708 0.015079836 0.0239101 -0.023886414 -0.020431776 -0.01716638 0.061226394
-0.010243348 -0.001955754 0.010155125 -0.031700116 0.047596924 0.02161421 -0.006900965 0.042066775
-0.03246666 0.06345478 0.024718367 0.051347688 -0.019963896 0.016871603 -0.058044806 -0.027602447
00000000: df23 19bd ec33 d5bc 19b0 f4bc 7069 c83c
00000010: 59c5 d6bc bc28 523d 01a3 60bd c000 603d
00000020: ef08 9b3c c05e 3bbd 936b 52bd 3406 853d
00000030: fc07 913c 0e3f d23b 19b5 893d 0017 043d
00000040: 9df9 3f3d 760c 55bd f213 7f3c 7db4 04bd
00000050: 8934 0fbb 47d2 063d a192 493d e860 843d
00000060: daaa 98bc da2d 62bd e5ad 523d 493f f93c
00000070: 96ed 16bd 6a40 4eba 622a fe3c 06fe f1bc
00000080: fca4 6b3d 467f ca3b 5776 38bd fb09 a73b
00000090: 5ad5 73bc f7ae 1b3c caa3 a43c f124 f3bd
000000a0: e535 2c3d 8fc3 2abd e395 623d ab8f 7fbd
000000b0: 9032 82bc 0c50 5e3b fdb9 de3c aa33 16bd
000000c0: dcbe 533d 6ca1 163d 2507 53bc 30a9 17bd
000000d0: ce36 7b3d b450 09bc d06c 0bbd ece5 96bb
000000e0: 9bb2 dabc 42de 5dbd 8d90 82bc dbcd bdbc
000000f0: a007 abbd 5cd6 6c3d 79d8 513d 8022 f73c
00000100: f9c0 43bb ffac 8f3c dfe4 dcba 8d34 553d
00000110: 0b09 99bc 4dee b03c 0747 103c e2e8 063d
00000120: e28b fbbc fb04 123d 6735 1e3d 2fac 3b3d
00000130: 31ae 6c38 a54c 13bd 24f3 ff3c 16fc ad3c
00000140: be62 18bd e413 fabc 7fcb 103d 5b1b 67bd
00000150: 76e9 853d ba4e 633d 15d1 4fbc eded 153d
00000160: 2d9c 2c3d b39a 593c 15b4 463c be3a 033d
00000170: 6a17 5e3d 2e6d 743d ee77 9dbd e190 6b3b
00000180: 5370 e53b 1638 50ba 6342 13bd 1a53 123d
00000190: 1415 60bd bead 093d 5868 2cbd 8ecc 3b3d
000001a0: 7e8e 1e3c 0cb5 a1bc 41d3 b03d 57bc c8ba
000001b0: 92a0 973b 40a1 2dbd d3ed 733d 2dc5 073c
000001c0: 98ae 403d 1892 6fbd 2a98 b23c f15f 18bb
000001d0: 387d 133d af20 1cbd 4411 c5bc f70b 2ebd
000001e0: c91d 15bd 2fac 16bd cd05 c7bb cb4c 5bbd
000001f0: ec74 1abd ce1b de3c cf98 9abc 06c0 88bc
00000200: ef6d 03bd 4c7a eabc 075c 3e3d dfae cf3c
00000210: 6a11 1cbc b17a 45bc 1499 333d ab23 023d
00000220: fc11 043c 4d6f c23c c318 9b3c 6e4a 4bbd
00000230: 3cff 26bd 34df 6b3d b82c ff3c b923 d43c
00000240: efb4 813d 055c 693d 7615 483c 0fc9 b23c
00000250: ef09 e43c 4f6f 49bd aedc 573d 4eff 143d
00000260: 5678 34bd 9cc3 b8bc 0ebb 3a3b 7704 12bd
00000270: fce6 543d 37ec 5b3c ebfd 473d 8f3e 41bd
00000280: db10 51bd fe41 4bbd 7a03 253c 9fa8 10bd
00000290: df10 643d 20fe 593d ebf9 6d3d 4d39 35bd
000002a0: a64a 893d d725 febc c20a 613d ab1b 8c3c
000002b0: 0f98 19bd e2f2 9f3d 4011 10bc f4e1 183d
000002c0: ea80 8a3d b665 a63d 5ec5 42bd 9046 83bc
000002d0: 4c63 463d 6ea8 53bd 19db ca3c 3e5a 77bb
000002e0: b8f6 1dbc e839 e83c 0a21 c63c 3251 2bbd
000002f0: e239 453d 6b19 9f3c 7856 4abd 2de5 563d
00000300: 1f62 483d 7431 cf3d c927 49bd 1e66 b6bc
00000310: 49e0 773c 7d5c 53bd 91f5 17bc 6990 06bd
00000320: a7e2 103c 3aac 183d 2e15 15bd 42a0 20bd
00000330: 3db5 a4ba b979 37bd 4946 703d 69e5 4a3d
00000340: 0a73 00bc 1a71 01bd 1579 4e3d e1d5 873c
00000350: cf5c ffbc 5f73 c4bc 6de1 073d d3bb 333d
00000360: 1b32 223d 9b8b 3ebd 0172 a33b db45 653c
00000370: 6587 483d 3175 92bc 60cd 233d 28d5 b43c
00000380: 982c 06bd 2cc9 8abc 099b 2cbd bd0d 9b3c
00000390: d5a1 f3bc a994 753d 671f a83c fad5 563d
000003a0: 36f0 85bc 47b5 553c 6b11 773c 1ddf c33c
000003b0: 71ad c3bc 8a60 a7bc 82a0 8cbc 87c8 7a3d
000003c0: b7d3 27bc 1b2c 00bb ae61 263c fbd7 01bd
000003d0: fef4 423d 4910 b13c 7d21 e2bb 364e 2c3d
000003e0: c3fb 04bd 94f4 813d 2c7e ca3c f451 523d
000003f0: 538b a3bc 5136 8a3c 64c0 6dbd 871e e2bc

model.4.weight f4 [66, 256]
-0.045760248 -0.0016331545 -0.0728412 0.06388987 0.028874613 -0.022596752 0.0023431822 0.006433373
-0.03947784 0.033771053 0.03015 0.008962588 -0.058769852 -0.064413115 -0.016845154 0.10010896
-0.00833426 0.006015917 0.022260902 0.012406323 -0.011371609 -0.020089777 0.016187757 -0.003984295
0.011145741 0.15129389 -0.13838601 0.016960688 -0.0684665 -0.010043199 0.031699706 0.05314222
0.0055394946 -0.07445842 0.01085373 0.037266318 0.116067685 0.05815834 0.039154045 0.028490366
0.08883486 -0.016195608 -0.0033009727 -0.065264255 0.062170047 -0.01444815 0.06462725 -0.062319
-0.025460962 -0.046467584 -0.034844916 -0.06969855 0.08077833 0.06097528 -0.0023899158 0.07460276
-0.026632885 -0.032576174 -0.04306237 -0.06253381 0.025976315 0.035762824 -0.06836397 0.073991634
0.065820284 -0.035317548 0.06675563 -0.0040990026 0.10653526 0.0435679 0.00049007975 0.062044032
0.07172045 -0.08587483 -0.044292867 0.054476637 0.065655544 0.021361671 0.055121616 -0.09922932
0.044344626 0.021121321 -0.060825583 -0.038856115 -0.0580289 -0.020847032 -0.038267665 -0.0033367393
0.04215083 0.07289194 0.016232021 -0.045831926 -0.018597865 0.07086285 -0.005324881 0.07442871
0.05122505 0.027966507 0.03358394 -0.008313747 -0.06523789 -0.006771453 -0.049840327 -0.027154056
0.012983019 0.04266228 0.029579083 -0.11050286 0.098492175 -0.059682366 0.06838753 0.015076978
-0.016873429 -0.06583054 -0.021527689 -0.024585998 -0.003267782 0.020373657 -0.0784723 0.021463066
-0.032971554 0.0417708 0.049754713 -0.060583618 -0.11178831 -0.14930645 -0.06121427 -0.059324134
-0.0019805422 0.0059747393 0.03814351 0.00959419 -0.046676807 -0.0915854 -0.059136998 0.10333664
-0.07338878 -0.17789152 -0.024173079 -0.011698908 0.03060862 -0.106281616 -0.0012997788 0.028511738
0.049362447 -0.036969062 -0.023067072 -0.03571718 -0.032901082 -0.071000226 0.027271505 -0.021541713
-0.043038134 -0.08053055 0.07718693 0.019984497 0.023260623 0.013854998 -0.069790676 -0.06735733
-0.0022375192 0.041146565 0.017530216 0.064092234 0.04104367 -0.0086166505 0.014171131 0.039227687
-0.032168083 0.0085921185 -0.017019412 -0.03464455 0.033998594 0.023229057 0.012071596 -0.01922091
0.0759931 0.03242934 0.02449131 -0.20201428 0.046224475 0.0012279473 0.062905736 -0.015443279
-0.01122315 -0.13335997 0.020627446 0.017754631 -0.009638556 -0.06732225 0.033443473 -0.016818156
-0.010598579 -0.048707433 0.035864785 -0.048936285 -0.027767656 -0.07931974 -0.0006148823 0.0058977157
0.002858258 0.054087434 0.032175597 -0.08821656 -0.016019894 0.04189738 -0.032214105 -0.036318205
-0.014600783 0.028441077 -0.019008668 0.038346373 0.048605166 0.03419409 0.03589809 0.07625284
-0.057128865 -0.017465819 0.040631544 -0.029734598 0.009648559 0.07693437 -0.039288912 0.07061752
0.2235023 0.040419187 0.02666776 0.0728051 -0.040309954 0.07754053 -0.0037769494 0.07092017
0.056404453 0.19290343 0.01507279 0.08154171 -0.14967394 -0.036134776 -0.021529552 -0.07983832
-0.040520296 -0.08457126 0.19027197 0.015922615 -0.013775689 -0.025373012 0.057756588 -0.033766013
0.020326782 0.005069898 -0.008255316 -0.0048849587 -0.14908661 0.04693627 -0.014747351 0.002070385
00000000: 196f 3bbd 920f d6ba c42d 95bd b1d8 823d
00000010: 748a ec3c d31c b9bc 1390 193b 0bcf d23b
00000020: 84b3 21bd 8453 0a3d 22fd f63c d2d7 123c
00000030: a8b8 70bd 06eb 83bd d9fe 89bc ed05 cd3d
00000040: 6c8c 08bc 2b21 c53b 7f5c b63c e443 4b3c
00000050: fc4f 3abc 5193 a4bc 309c 843c b08e 82bb
00000060: a09c 363c c9ec 1a3e 10b5 0dbe 24f1 8a3c
00000070: 2a38 8cbd 3b8c 24bc 8dd7 013d a8ab 593d
00000080: a684 b53b a87d 98bd d8d3 313c 91a4 183d
00000090: e5b4 ed3d 7137 6e3d fe5f 203d a164 e93c
000000a0: 0def b53d a7ac 84bc 2255 58bb 44a9 85bd
000000b0: 05a6 7e3d efb7 6cbc 4b5b 843d 3542 7fbd
000000c0: 8293 d0bc cb54 3ebd 8bb9 0ebd 1dbe 8ebd
000000d0: 1c6f a53d 37c1 793d 22a0 1cbb 55c9 983d
000000e0: 352d dabc 986e 05bd 2b62 30bd ba11 80bd
000000f0: 48cc d43c 0a7c 123d 6902 8cbd ed88 973d
00000100: c9cc 863d 22a9 10bd 2db7 883d ed50 86bb
00000110: 292f da3d 4174 323d b278 003a e221 7e3d
00000120: 2ce2 923d 25df afbd 706c 35bd e522 5f3d
00000130: 6a76 863d acfe ae3c 34c7 613d be38 cbbd
00000140: b6a2 353d 9f06 ad3c 3f24 79bd 9727 1fbd
00000150: b6af 6dbd 65c7 aabc 8ebe 1cbd 32ad 5abb
00000160: 59a6 2c3d 5f48 953d 04f9 843c 42ba 3bbd
00000170: 8d5a 98bc 8b20 913d 577c aebb 146e 983d
00000180: 5cd1 513d 041a e53c 508f 093d 6236 08bc
00000190: 719b 85bd 11e3 ddbb 5f25 4cbd 2f72 debc
000001a0: bbb6 543c a5be 2e3d d54f f23c 534f e2bd
000001b0: 44b6 c93d 7f75 74bd c30e 8c3d 6e05 773c
000001c0: 253a 8abc 2ad2 86bd d65a b0bc 9368 c9bc
000001d0: 4928 56bb a8e6 a63c 16b6 a0bd 50d3 af3c
000001e0: 2e0d 07bd dc17 2b3d 99cb 4b3d 8726 78bd
000001f0: 45f1 e4bd cae3 18be d0bb 7abd ddfd 72bd
00000200: fccb 01bb bfc7 c33b 5f3c 1c3d f330 1d3c
00000210: 2e30 3fbd 2091 bbbd a339 72bd 29a2 d33d
00000220: db4c 96bd 3229 36be 9f06 c6bc c7ac 3fbc
00000230: eebe fa3c 2daa d9bd 575d aaba 7391 e93c
00000240: 4730 4a3d df6c 17bd 28f7 bcbc 2e4c 12bd
00000250: 49c3 06bd 9168 91bd 7e68 df3c 3f78 b0bc
00000260: c148 30bd 33ed a4bd 2e14 9e3d 87b6 a33c
00000270: 108d be3c 1300 633c 6aee 8ebd a4f2 89bd
00000280: 58a3 12bb 4d89 283d 879b 8f3c ca42 833d
00000290: 681d 283d da2c 0dbc 082e 683c 36ad 203d
000002a0: aec2 03bd f5c5 0c3c 4b6c 8bbc 72e7 0dbd
000002b0: 1c42 0b3d dd4a be3c f2c7 453c 2b75 9dbc
000002c0: 45a2 9b3d a1d4 043d 00a2 c83c d5dc 4ebe
000002d0: e055 3d3d 13f3 a03a b9d4 803d cf05 7dbc
000002e0: 4ee1 37bc 848f 08be e4fa a83c 2972 913c
000002f0: 09eb 1dbc 3fe0 89bd 06fc 083d 3bc6 89bc
00000300: aaa5 2dbc 7281 47bd f4e6 123d 6a71 48bd
00000310: ff78 e3bc 6372 a2bd 0d30 21ba a041 c13b
00000320: 9d51 3b3b c98a 5d3d 8fca 033d e2aa b4bd
00000330: 273c 83bc 969c 2b3d f0f2 03bd 66c2 14bd
00000340: 1f38 6fbc 43fd e83c 11b8 9bbc 1611 1d3d
00000350: 3616 473d 1a0f 0c3d e009 133d 732a 9c3d
00000360: f5ff 69bd 7a14 8fbc 436d 263d f995 f3bc
00000370: fd14 1e3c c48f 9d3d 69ed 20bd eb9f 903d
00000380: c9dd 643e 978e 253d 5976 da3c d71a 953d
00000390: 0d1c 25bd 92cd 9e3d b286 77bb 983e 913d
000003a0: 5b08 673d 7a88 453e ddf3 763c 57ff a63d
000003b0: 2044 19be 0f02 14bd be5e b0bc 4682 a3bd
000003c0: 9cf8 25bd b233 adbd a8d6 423e 2570 823c
000003d0: 6db3 61bc 10db cfbc 2c92 6c3d 3b4e 0abd
000003e0: 5a84 a63c 6321 a63b 4e41 07bc 0112 a0bb
000003f0: 29aa 18be 3f40 403d e09e 71bc 4caf 073b

model.4.bias f4 [66]
0.02935386 0.052835125 0.090056576 0.06825293 0.061217986 -0.008500598 -0.0065488564 0.04603606
0.027990427 0.052116007 -0.04027087 0.016289756 -0.02288084 -0.048467126 0.04013335 0.011180077
-0.044695318 -0.052670207 0.002925182 0.025556758 0.05961545 -0.033716287 -0.012929976 0.037889972
-0.020764424 0.030203037 0.066453494 0.04046863 0.05445175 -0.027837353 -0.04610058 0.049364675
0.03685673 0.020532077 0.013211328 0.09243629 -0.0155799175 -0.0501306 0.044763185 -0.042256765
-0.051659495 -0.000406089 0.040013935 -0.006642336 0.005328628 -0.021463854 -0.044852033 0.028006287
-0.023213936 0.013416165 -0.0046989345 0.035273395 0.00046556824 -0.041465133 -0.027344773 0.064502336
-0.03420631 0.016781565 -0.011203979 -0.024849124 -0.030701907 0.02395881 -0.032035697 0.04953877
-0.04724525 0.040041618
00000000: 8277 f03c a569 583d 956f b83d 31c8 8b3d
00000010: b6bf 7a3d 1846 0bbc ca97 d6bb 4f90 3c3d
00000020: 2e4c e53c 9877 553d 11f3 24bd 1872 853c
00000030: 9970 bbbc 7785 46bd de62 243d a42c 373c
00000040: 7012 37bd b7bc 57bd 69b4 3f3b 685c d13c
00000050: 552f 743d 171a 0abd 40d8 53bc 8432 1b3d
00000060: 271a aabc 5c6c f73c c518 883d 6fc2 253d
00000070: cc08 5f3d 290b e4bc f6d3 3cbd 9d32 4a3d
00000080: 15f7 163d e332 a83c 5374 583c 3d4f bd3d
00000090: e942 7fbc be55 4dbd 9a59 373d 6e15 2dbd
000000a0: e898 53bd 58e8 d4b9 a7e5 233d f4a7 d9bb
000000b0: c59b ae3b f7d4 afbc c4b6 37bd 716d e53c
000000c0: 272b bebc 79cf 5b3c 85f9 99bb d67a 103d
000000d0: 8317 f439 58d7 29bd 2502 e0bc cd19 843d
000000e0: ea1b 0cbd 7e79 893c e590 37bc 6490 cbbc
000000f0: 9182 fbbc 4445 c43c dd37 03bd 2ae9 4a3d
00000100: 3c84 41bd ae02 243d
