results/33bus/pinn_model0.2.pth (torch, 402372 bytes, 6 tensors)

model.0.weight f4 [256, 66]
0.09135122 0.11903458 0.013620601 0.10244521 -0.033070877 0.049491767 -0.054243445 0.0657184
0.10046389 -0.07174575 0.15369862 0.008555431 0.081186764 0.01704026 0.078766115 -0.012711653
0.106193095 0.036993064 -0.046371754 0.05289358 -0.025000276 0.020428928 -0.05641362 0.107572846
-0.076972365 -0.08268604 -0.03500811 -0.082229145 -0.0030005346 -0.08813263 0.11851441 -0.08170676
0.08254799 0.015104432 -0.02941007 0.12485896 0.037603967 0.085516326 -0.010319386 -0.03001936
0.06280305 0.012701184 0.0031078486 0.13639204 0.11335932 0.011551355 0.06959573 -0.0028736664
0.065259986 -0.0862342 -0.10256098 -0.047076635 -0.05987739 0.14873813 0.06368173 0.077628866
0.0075862436 -0.00787548 0.13298765 -0.018326648 0.055055838 -0.045051675 0.020621112 -0.038937904
0.016617632 0.007903612 0.105987355 -0.0589541 -0.01326315 -0.09716306 0.1102974 0.035815824
0.11447696 -0.09741278 -0.1117184 -0.10213741 -0.023922056 0.03736039 0.023517754 0.10260637
-0.061354395 -0.1024811 0.07360395 -0.015722178 0.055672918 0.010638829 0.12952729 -0.03719765
-0.08010059 0.051753078 0.07045106 -0.046511635 0.06755101 0.06319808 -0.118526496 -0.07175217
0.11605205 -0.047338657 -0.067373365 -0.11492678 -0.05764898 0.09341534 -0.03202785 -0.08863284
-0.03203736 -0.083316855 -0.074962325 -0.029313065 -0.14400764 -0.027530065 0.13786872 0.040461216
0.031172048 -0.13517568 -0.10622555 -0.052719567 0.05571234 -0.13247155 -0.0009279316 -0.0005227536
0.062245432 -0.05176095 -0.033493154 -0.06251631 -0.06947405 -0.042198002 -0.03266399 -0.098550245
0.07548961 -0.029260777 0.07420314 0.03134363 -0.110507265 0.06934665 -0.07901644 -0.018518018
-0.1019695 -0.11663751 0.03598832 -0.02211414 0.04158877 -0.085646875 0.029723782 -0.08305511
0.0007403152 0.034644127 0.047599964 0.11397 0.117627025 -0.13534069 0.043739017 -0.071418345
-0.06586611 -0.12161106 0.11922659 -0.09855317 0.027225422 0.054281373 0.06519915 -0.0408799
0.13757192 0.028068602 0.021107456 -0.08310435 0.07120265 -0.022736847 -0.06877502 0.06324424
0.042468995 -0.0581672 -0.034262396 -0.011011817 0.043872174 -0.079559185 -0.0095884865 -0.106013484
-0.111530714 0.025248155 0.09196951 -0.108031735 0.040444683 0.077083364 -0.012717508 -0.027324118
0.03405415 -0.0022817263 0.01768049 -0.027090935 -0.023801725 -0.011366507 -0.03591655 -0.065791704
0.0650234 0.11163874 0.025186354 -0.0135914 0.049283043 -0.013214067 0.042464495 0.13929199
0.0978082 -0.22738147 0.08474784 0.10614201 -0.017919414 -0.07314192 -0.045098584 -0.15036961
0.20898482 -0.034113295 -0.078658625 0.0235762 0.053184703 -0.16410106 0.07897296 0.2967948
-0.09870142 0.118097164 0.24565172 0.15483938 -0.17599586 0.21246077 0.12934424 -0.124094136
-0.19571717 -0.040832177 -0.08262099 0.073928624 -0.095874995 -0.19395904 -0.27769053 0.08488632
0.106603555 0.32496914 0.03570961 -0.082284674 -0.21133858 -0.10138377 0.11829187 0.1671563
-0.31360435 0.15771313 0.23551784 0.2109003 -0.03588253 -0.18226862 -0.18510066 0.013784143
0.14492714 -0.09577237 0.14227076 0.16512999 0.16076204 0.0055456944 -0.18138656 0.006787572
00000000: 5916 bb3d 67c8 f33d f128 5f3c cbce d13d
00000010: 5475 07bd e1b7 4a3d 602e 5ebd 5e97 863d
00000020: 03c0 cd3d 70ef 92bd 2c63 1d3e 142c 0c3c
00000030: 3f45 a63d 0498 8b3c 2150 a13d 8944 50bc
00000040: c47b d93d 0a86 173d 4ff0 3dbd f0a6 583d
00000050: 61cd ccbc 915a a73c f811 67bd 274f dc3d
00000060: b0a3 9dbd 4c57 a9bd aa64 0fbd c167 a8bd
00000070: 9ea4 44bb e17e b4bd afb7 f23d e055 a7bd
00000080: ec0e a93d 9478 773c 63ed f0bc 0eb6 ff3d
00000090: 9e06 1a3d 2f23 af3d a412 29bc 29eb f5bc
000000a0: e39e 803d a018 503c 0cad 4b3b 5baa 0b3e
000000b0: ee28 e83d e541 3d3c 3588 8e3d 1f54 3cbb
000000c0: 07a7 853d 8e9b b0bd 7e0b d2bd 6ed3 40bd
000000d0: fe41 75bd cf4e 183e 916b 823d e2fb 9e3d
000000e0: 0696 f83b 2808 01bc ea2d 083e c421 96bc
000000f0: 3b82 613d 1b88 38bd 9bed a83c 5a7d 1fbd
00000100: b321 883c 277e 013c e60f d93d db79 71bd
00000110: af4d 59bc 6dfd c6bd 9ae3 e13d 9db3 123d
00000120: e572 ea3d 5a80 c7bd 9ecc e4bd 6b2d d1bd
00000130: 30f8 c3bc 3507 193d 4ea8 c03c 4a23 d23d
00000140: bf4e 7bbd 9ce1 d1bd abbd 963d cccb 80bc
00000150: 4909 643d 7c4e 2e3c cda2 043e 905c 18bd
00000160: c70b a4bd 09fb 533d a548 903d fc82 3ebd
00000170: 2f58 8a3d ff6d 813d 05be f2bd cdf2 92bd
00000180: b2ac ed3d 2ee6 41bd 0cfb 89bd bb5e ebbd
00000190: 5621 6cbd 8b50 bf3d a32f 03bd 2285 b5bd
000001a0: 9b39 03bd 07a2 aabd d985 99bd f421 f0bc
000001b0: bd76 13be bb86 e1bc 752d 0d3e a9ba 253d
000001c0: 865c ff3c 7e6b 0abe c88c d9bd 79f0 57bd
000001d0: 9f32 643d 9fa6 07be 6f40 73ba 6609 09ba
000001e0: 11f5 7e3d 4a03 54bd 1e30 09bd 8d08 80bd
000001f0: 6948 8ebd d0d7 2cbd adca 05bd b6d4 c9bd
00000200: 4c9a 9a3d 4cb4 efbc d1f7 973d 2e62 003d
00000210: a251 e2bd 9e05 8e3d 5fd3 a1bd 19b3 97bc
00000220: 63d5 d0bd a6df eebd 7d68 133d b728 b5bc
00000230: fc58 2a3d a167 afbd 4a7f f33c cc18 aabd
00000240: b611 423a 00e7 0d3d 2ef8 423d 1a69 e93d
00000250: 70e6 f03d c096 0abe af27 333d c843 92bd
00000260: d0e4 86bd 380f f9bd 122d f43d 3fd6 c9bd
00000270: d907 df3c 2556 5e3d 2287 853d af71 27bd
00000280: a7df 0c3e 20f0 e53c 8be9 ac3c 9d32 aabd
00000290: b2d2 913d a042 babc ebd9 8cbd 3286 813d
000002a0: f8f3 2d3d bb40 6ebd ba56 0cbd e86a 34bc
000002b0: 4fb3 333d edef a2bd 0719 1dbc 991d d9bd
000002c0: 376a e4bd 38d5 ce3c 835a bc3d be3f ddbd
000002d0: 53a9 253d e2dd 9d3d 185d 50bc d4d6 dfbc
000002e0: 5d7c 0b3d 0489 15bb add6 903c cfed ddbc
000002f0: d6fb c2bc 963a 3abc 3b1d 13bd cdbd 86bd
00000300: fd2a 853d daa2 e43d 9d53 ce3c 77ae 5ebc
00000310: 04dd 493d d07f 58bc 40ef 2d3d 8fa2 0e3e
00000320: aa4f c83d b0d6 68be 4790 ad3d fb60 d93d
00000330: bccb 92bc 6ecb 95bd 4bb9 38bd 7efa 19be
00000340: 1e00 563e 62ba 0bbd c617 a1bd e022 c13c
00000350: 34d8 593d 1c0a 28be 93bc a13d 7df5 973e
00000360: f823 cabd eddc f13d 208c 7b3e 378e 1e3e
00000370: 4238 34be 518f 593e d172 043e 1125 febd
00000380: 156a 48be a43f 27bd 3235 a9bd e467 973d
00000390: 1c5a c4bd 339d 46be 742d 8ebe e1d8 ad3d
000003a0: f752 da3d 5b62 a63e 3d44 123d de84 a8bd
000003b0: 2469 58be 4ba2 cfbd 0243 f23d 052b 2b3e
000003c0: c090 a0be 8d7f 213e 972b 713e 40f6 573e
000003d0: 8ff9 12bd a0a4 3abe 078b 3dbe e3d6 613c
000003e0: c867 143e 4e24 c4bd 6daf 113e d617 293e
000003f0: ce9e 243e a8b8 b53b 66bd 39be 486a de3b

model.0.bias f4 [256]
-0.10680371 0.10411871 -0.08864621 -0.09672482 -0.04442747 -0.0031614911 -0.008173665 0.086127646
0.08841667 -0.111865215 -0.10666717 -0.13198312 0.09772571 -0.028318392 -0.074651256 -0.07080587
0.029003274 0.037217613 0.074035965 0.103319004 0.10725887 -0.0772648 -0.015420398 -0.09297428
-0.04235525 -0.0086966045 0.06833099 -0.054175142 -0.069429874 -0.030142147 0.056506973 0.0055365553
0.09227026 -0.11064894 0.04775251 0.09276948 0.07346302 -0.10306259 -0.085526265 -0.010549302
0.009130881 0.07670519 0.11385965 -0.008395161 -0.03376239 0.05764579 -0.07555944 -0.051573265
0.005167684 -0.018275987 0.07874307 -0.037243884 0.0028551694 0.029047484 -0.003920504 -0.12234827
0.07162594 0.07238449 -0.01980905 -0.08191979 -0.04098164 0.07472481 0.080469884 -0.056719396
0.06914726 -0.00925024 -0.011854871 -0.052590676 0.004738289 -0.050309055 0.029270058 -0.13094597
-0.00087585655 -0.08517754 -0.115607604 -0.12105921 -0.020765042 0.02596413 0.0075104544 0.03199056
-0.03246504 -0.11224276 -0.03457389 -0.092890054 0.0057290364 0.03308439 0.012240447 -0.10902148
0.110012874 0.10011288 -0.07221584 -0.10556551 0.007900604 0.039011583 -0.032257076 -0.055739373
0.01145822 -0.0880073 -0.060468405 0.041651215 0.011728825 0.04588217 0.104394935 -0.006714342
0.028059024 0.088034 -0.08159294 0.08287265 0.0749438 -0.045953043 0.109595686 -0.077836104
-0.05061951 0.086202405 0.056386784 -0.016162751 -0.09698073 0.06726095 0.039663587 -0.07721678
-0.0047292896 0.08993747 0.04586082 -0.08599539 -0.0013470271 -0.03653719 0.077568 0.059068248
-0.020874314 -0.0035184722 -0.083715186 -0.02148057 0.05934345 -0.11523165 0.025330527 0.1216856
0.054727506 0.060665768 -0.03314446 -0.00745361 -0.10768217 -0.052646074 0.02237618 0.039378267
0.06698702 -0.07008477 0.031334236 -0.06890002 -0.087256424 -0.047045145 -0.08288565 0.019838374
0.018660331 0.07859791 0.06515335 0.019502508 0.037877664 0.056693133 -0.124648415 -0.06074928
-0.10423112 -0.07403409 0.02604993 0.11935345 0.087058365 -0.06184839 0.04081102 0.079323426
0.018817976 -0.09100125 0.016169421 0.052587196 0.019886915 0.11770182 0.11992538 -0.070632875
0.09503665 -0.113400936 -0.055951744 0.048193235 0.009813888 0.103074625 0.06467905 -0.035040308
0.12168074 -0.09095693 0.0323259 0.030739073 0.107223056 0.11962624 0.061362445 -0.053344198
0.11841561 0.0847903 0.005733251 0.0856159 0.034374807 -0.046011254 0.050116368 -0.00015247514
-0.032795485 0.03846248 -0.0016729337 -0.0868408 -0.13074562 0.037088014 -0.044851813 -0.0038213935
0.10394047 0.08405547 0.12508601 0.08493925 0.08619264 -0.08151082 0.11989294 -0.116588816
-0.075230315 -0.051972 0.15611161 0.08013501 0.031759694 0.06323119 -0.1189788 -0.11831485
0.030278018 -0.03144009 0.051051043 -0.077192605 0.118595704 -0.10151061 0.064179875 0.063892305
-0.06757423 0.107068196 0.06369487 -0.0496183 -0.050619762 0.09269515 -0.035320144 0.0049575353
0.056206957 0.05691151 -0.06607714 0.0915591 0.037060123 0.041638423 -0.06693769 0.04897574
-0.020013012 0.08884767 0.05988378 0.0824689 -0.020346371 0.07946472 0.09959303 0.026792962
00000000: e7bb dabd 313c d53d 258c b5bd aa17 c6bd
00000010: 94f9 35bd 0531 4fbb d6ea 05bc b163 b03d
00000020: cd13 b53d 9719 e5bd 5174 dabd 9526 07be
00000030: 6b24 c83d f9fb e7bc c2e2 98bd ab02 91bd
00000040: 4698 ed3c 7f71 183d 2ba0 973d ea98 d33d
00000050: 8aaa db3d 023d 9ebd d6a5 7cbc 4d69 bebd
00000060: b37c 2dbd 347c 0ebc 1ef1 8b3d c1e6 5dbd
00000070: 4031 8ebd aaec f6bc db73 673d fe6b b53b
00000080: 31f8 bc3d e99b e2bd 2398 433d edfd bd3d
00000090: c873 963d 7b12 d3bd 6528 afbd fbd6 2cbc
000000a0: b199 153c 9c17 9d3d 402f e93d db8b 09bc
000000b0: 6f4a 0abd fe1d 6c3d e8be 9abd 7d3e 53bd
000000c0: ad55 a93b 86b7 95bc 0c44 a13d 0b8d 18bd
000000d0: cb1d 3b3b fdf4 ed3c 9277 80bb bb91 fabd
000000e0: 9fb0 923d 523e 943d 9746 a2bc 90c5 a7bd
000000f0: 5ddc 27bd 5209 993d 65cd a43d 9952 68bd
00000100: 149d 8d3d 528e 17bc ef3a 42bc 5269 57bd
00000110: a643 9b3b de10 4ebd c3c7 ef3c b316 06be
00000120: bd99 65ba 9071 aebd aec3 ecbd e4ed f7bd
00000130: 731b aabc bab2 d43c 421a f63b 8908 033d
00000140: 10fa 04bd 88df e5bd 5a9d 0dbd 243d bebd
00000150: a4ba bb3b 7f83 073d 288c 483c a746 dfbd
00000160: 6e4e e13d fb07 cd3d e6e5 93bd bb32 d8bd
00000170: 8971 013c 9cca 1f3d ff1f 04bd f84e 64bd
00000180: 42bb 3b3c 2c3d b4bd b8ad 77bd 779a 2a3d
00000190: 422a 403c f1ee 3b3d 03cd d53d fc03 dcbb
000001a0: 0adc e53c 2b4b b43d 331a a7bd 23b9 a93d
000001b0: 237c 993d 4239 3cbd b473 e03d 8968 9fbd
000001c0: 6756 4fbd e38a b03d d4f5 663d bf67 84bc
000001d0: d59d c6bd 1cc0 893d 4976 223d d523 9ebd
000001e0: 28f8 9abb 2331 b83d 8ed8 3b3d 5a1e b0bd
000001f0: bb8e b0ba 05a8 15bd f9db 9e3d 8cf1 713d
00000200: 9c00 abbc 2b96 66bb de72 abbd 05f8 afbc
00000210: 1e12 733d 92fe ebbd f781 cf3c 4d36 f93d
00000220: f329 603d ab7c 783d 7cc2 07bd 6a3d f4bb
00000230: 7888 dcbd 69a3 57bd 404e b73c 1b4b 213d
00000240: 7e30 893d 9b88 8fbd 5458 003d 741b 8dbd
00000250: 7fb3 b2bd 69b2 40bd f4bf a9bd 1684 a23c
00000260: 8ddd 983c f1f7 a03d 1f6f 853d b9c3 9f3c
00000270: 9c25 1b3d 0f37 683d ab47 ffbd 3dd4 78bd
00000280: 2077 d5bd 2f9f 97bd aa66 d53c 956f f43d
00000290: a84b b23d bd54 7dbd 7529 273d 5274 a23d
000002a0: 2828 9a3c dd5e babd bc75 843c ac65 573d
000002b0: e2e9 a23c a70d f13d 709b f53d f8a7 90bd
000002c0: 93a2 c23d c03e e8bd a82d 65bd 4566 453d
000002d0: 6eca 203c ca18 d33d 7376 843d 6d86 0fbd
000002e0: c033 f93d a047 babd 2a68 043d 82d0 fb3c
000002f0: c397 db3d 9afe f43d 3057 7b3d 727f 5abd
00000300: e283 f23d 89a6 ad3d ffdd bb3b 6457 af3d
00000310: 99cc 0c3d 4c76 3cbd d246 4d3d bce1 1fb9
00000320: 8f54 06bd d58a 1d3d 5746 dbba 97d9 b1bd
00000330: 2ee2 05be 9ae9 173d 89b6 37bd 5870 7abb
00000340: bede d43d 4625 ac3d 8c16 003e a1f4 ad3d
00000350: c485 b03d 25ef a6bd 6e8a f53d 1ec6 eebd
00000360: 5a12 9abd 98e0 54bd b9db 1f3e d31d a43d
00000370: 7416 023d 5b7f 813d 28ab f3bd 0e4f f2bd
00000380: 9b09 f83c 53c7 00bd e61a 513d 2817 9ebd
00000390: 4ee2 f23d cbe4 cfbd bd70 833d f8d9 823d
000003a0: 5c64 8abd 9246 db3d 7572 823d 8f3c 4bbd
000003b0: ab56 4fbd f4d6 bd3d dbab 10bd d272 a23b
000003c0: 4439 663d 0b1c 693d 7453 87bd 5683 bb3d
000003d0: 5bcc 173d 0d8d 2a3d a116 89bd c99a 483d
000003e0: 54f2 a3bc c4f5 b53d b248 753d 74e5 a83d
000003f0: 6fad a6bc 66be a23d 6ef7 cb3d ea7c db3c

model.2.weight f4 [256, 256]
-0.0060210964 -0.04519442 -0.02765447 0.0025662917 -0.06591637 -0.041202433 0.040918544 -0.036815092
-0.05266339 0.01688763 0.031760085 -0.059987906 0.002598235 -0.07818882 0.0010871536 0.038216665
0.036836922 0.054327227 -0.01641115 -0.022436414 0.019073926 0.022629455 -0.0748907 -0.07583174
-0.016844917 0.017210156 0.021474315 -0.024386888 0.051474538 -0.040300276 -0.010981839 0.0076877684
-0.048035234 0.06040281 -0.033470612 0.03186674 0.00338843 -0.03433254 0.060787946 -0.020086184
0.023636913 0.05471737 -0.03339067 0.057644833 -0.02412247 -0.054312747 0.037571345 -0.01361555
-0.056641072 -0.030004913 0.04277049 -0.008884045 -0.017654771 0.044803135 0.0318296 -0.14141335
0.010944682 0.043931644 -0.01780832 -0.008503055 0.06350856 -0.021959146 0.11192271 0.019432086
0.048443437 0.0357379 0.0075063915 0.021911003 -0.05004302 -0.09123319 -0.04263573 -0.032366667
-0.027818752 -0.015383851 -0.037869226 -0.042800736 0.0048440862 0.067798115 -0.037003674 -0.04801354
-0.015587892 -0.07792972 -0.07256252 0.05976801 0.07919085 0.05656779 -0.04247078 -0.03708282
0.05595362 -0.039402593 -0.07296415 -0.057265498 0.0051735328 0.025814544 -0.03127226 0.06379019
-0.04145273 -0.024359781 0.034385685 0.023627704 0.047223184 -0.013464424 0.036166783 -0.029146396
0.00641809 -0.03902055 0.042775683 0.01569345 0.008092525 0.00033043537 0.03659858 -0.10282145
0.05710845 0.044523265 0.043356232 -0.012594421 -0.053751945 -0.023040583 -0.008920946 -0.023980575
0.039905954 -0.009290336 0.060174327 -0.11239014 -0.092020184 -0.045328557 0.024092223 0.016833477
0.040636625 0.086388595 0.040808767 -0.05533328 0.00015145661 0.05850541 0.0742856 0.020994492
-0.03652549 -0.05632909 0.065207444 -0.0115668755 0.02373853 -0.010369295 -0.029027363 0.01549548
0.053748764 -0.008668164 0.021979617 0.026241316 -0.0037971616 0.017200876 0.025487274 0.051013492
-0.03042424 0.04197056 -0.008404043 0.023307206 -0.05263754 0.0774167 0.044286616 0.020125017
0.00603552 0.02174587 -0.054129995 -0.05224195 0.042025216 -0.078268185 0.023419222 -0.041786175
-0.07561567 -0.021871297 -0.008034269 -0.053437553 -0.05686957 -0.050169013 0.034397624 -0.011703061
0.056755994 -0.058241766 -0.05009127 -0.0253417 0.069716945 0.05345441 -0.013550512 -0.06193779
0.0042642546 0.0057130763 0.018592404 -0.049662624 0.0067028147 0.0084926495 0.032254647 -0.033259816
0.028176706 0.026542312 0.046946187 0.028420769 0.012403108 -0.058168236 -0.004104621 0.0637218
0.04072352 -0.021824872 0.02055046 0.064989276 -0.013685863 -0.055992495 0.046616107 -0.0063748914
-0.016879681 0.02317313 0.09519372 0.06304839 -0.05409613 0.017675292 -0.038701396 -0.081910156
-0.026358489 0.038259793 0.0965474 0.037721425 0.03175933 -0.05600027 -0.03803954 -0.031881575
-0.047718775 -0.03159544 -0.04994512 -0.047908384 0.0045526004 -0.023512365 0.0076444047 -0.01655918
0.008288836 -0.059753846 -0.05424356 -0.06110309 0.048015326 -0.0044030184 -0.06372494 -0.031132666
-0.006418802 -0.048822846 0.052826535 0.041427042 0.008620939 -0.0046842773 0.00042782325 0.011576911
-0.0036057327 0.007290392 -0.06108061 0.01898753 0.013852903 0.03237269 0.026572058 0.04991606
00000000: 9e4c c5bb c91d 39bd a18b e2bc 3b2f 283b
00000010: 29ff 86bd e2c3 28bd 349a 273d 6ccb 16bd
00000020: 91b5 57bd ed57 8a3c dd16 023d e1b5 75bd
00000030: 2647 2a3b 7621 a0bd d27e 8e3a 1489 1c3d
00000040: 50e2 163d 3a86 5e3d ad70 86bc 92cc b7bc
00000050: ec40 9c3c 6861 b93c 4c60 99bd ac4d 9bbd
00000060: 5afe 89bc 50fc 8c3c e7ea af3c 03c7 c7bc
00000070: f7d6 523d e711 25bd 2ced 33bc ade9 fb3b
00000080: 98c0 44bd f068 773d 7b18 09bd b386 023d
00000090: 6c10 5e3b 47a0 0cbd c8fc 783d c88b a4bc
000000a0: 33a2 c13c 521f 603d a8c4 08bd fd1c 6c3d
000000b0: 7c9c c5bc 0b77 5ebd 69e4 193d c113 5fbc
000000c0: 7800 68bd ddcc f5bc 1c30 2f3d 638e 11bc
000000d0: bda0 90bc 7e83 373d c15f 023d a9ce 10be
000000e0: 5351 333c abf1 333d c1e2 91bc 6650 0bbc
000000f0: c710 823d abe3 b3bc bc37 e53d 0a30 9f3c
00000100: a06c 463d e761 123d 2df8 f53b b47e b33c
00000110: e9f9 4cbd 77d8 babd cea2 2ebd e992 04bd
00000120: 27e4 e3bc 8c0c 7cbc c31c 1bbd d34f 2fbd
00000130: 24bb 9e3b bdd9 8a3d 2a91 17bd d9a9 44bd
00000140: 5c64 7fbc 9e99 9fbd a99b 94bd 4dcf 743d
00000150: d02e a23d a1b3 673d d7f5 2dbd 28e4 17bd
00000160: 9f2f 653d 9d64 21bd 3a6e 95bd 3a8f 6abd
00000170: bd86 a93b 0679 d33c 5717 00bd 6ea4 823d
00000180: 56ca 29bd 2a8e c7bc 01d8 0c3d e38e c13c
00000190: 196d 413d e399 5cbc 9f23 143d 6cc4 eebc
000001a0: d74e d23b 03d4 1fbd 8e35 2f3d 8d8f 803c
000001b0: 8396 043c 493e ad39 65e8 153d 0d94 d2bd
000001c0: 8dea 693d 075e 363d 4e96 313d d558 4ebc
000001d0: 002b 5cbd 9bbf bcbc 2929 12bc e972 c4bc
000001e0: 6d74 233d 7e36 18bc 5b79 763d cd2c e6bd
000001f0: 1475 bcbd 70aa 39bd 0e5d c53c 5ce6 893c
00000200: 9772 263d 81ec b03d 1827 273d 26a5 62bd
00000210: 53d0 1e39 5ea3 6f3d 0c23 983d a4fc ab3c
00000220: c19b 15bd 55b9 66bd 7b8b 853d fe82 3dbc
00000230: 4e77 c23c fae3 29bc cbca edbc c1e0 7d3c
00000240: aa27 5c3d ea04 0ebc 990e b43c 07f8 d63c
00000250: cdd9 78bb dae8 8c3c b0ca d03c 86f3 503d
00000260: 413c f9bc 52e9 2b3d 1cb1 09bc c1ee be3c
00000270: 769a 57bd a68c 9e3d e265 353d 38dd a43c
00000280: 9dc5 c53b 6524 b23c 6ab7 5dbd a8fb 55bd
00000290: a222 2c3d 124b a0bd abd9 bf3c fb27 2bbd
000002a0: 63dc 9abd 6f2b b3bc 2ba2 03bc 56e1 5abd
000002b0: 11f0 68bd 067e 4dbd 86e4 0c3d 32be 3fbc
000002c0: f978 683d eb8e 6ebd 812c 4dbd 6699 cfbc
000002d0: c2c7 8e3d 03f3 5a3d f702 5ebc 7bb2 7dbd
000002e0: 29bb 8b3b c234 bb3b 194f 983c 096b 4bbd
000002f0: 49a3 db3b c124 0b3c 731d 043d 723b 08bd
00000300: d6d2 e63c 436f d93c a54a 403d acd2 e83c
00000310: 6836 4b3c d141 6ebd 0e80 86bb 9380 823d
00000320: b5cd 263d 13ca b2bc 7059 a83c 1919 853d
00000330: ac3a 60bc 6358 65bd 88f0 3e3d 77e4 d0bb
00000340: 4247 8abc 93d5 bd3c edf4 c23d 841f 813d
00000350: e793 5dbd c6cb 903c 5b85 1ebd 83c0 a7bd
00000360: c2ed d7bc 4db6 1c3d a5ba c53d c881 1a3d
00000370: 1216 023d 8a60 65bd 59cf 1bbd 4196 02bd
00000380: c374 43bd 386a 01bd 4193 4cbd 953b 44bd
00000390: fb2d 953b 019d c0bc ea7d fa3b 1ea7 87bc
000003a0: e6cd 073c 73c0 74bd 7f2e 5ebd 3c47 7abd
000003b0: b8ab 443d 3247 90bb 3982 82bd ef09 ffbc
000003c0: d054 d2bb 77fa 47bd a360 583d 67af 293d
000003d0: d73e 0d3c 917e 99bb 774d e039 16ad 3d3c
000003e0: 284e 6cbb 3ee4 ee3b a92f 7abd bd8b 9b3c
000003f0: 49f7 623c 3a99 043d a5ad d93c c874 4c3d

model.2.bias f4 [256]
-0.037854444 -0.025224468 -0.030939553 0.023197519 -0.02672393 0.050258078 -0.03883089 0.057950772
0.019163387 -0.048332814 -0.051769 0.06148841 0.019168695 0.005156256 0.06661331 0.032066602
0.046362676 -0.04914786 0.014135081 -0.03437646 0.00010257562 0.041065592 0.050484166 0.06501842
-0.017774675 -0.05563209 0.055791464 0.03022855 -0.035646036 0.00023000993 0.027530782 -0.029619504
0.054824658 -0.0052681947 -0.04591587 0.0048211124 -0.01728242 0.0110738985 0.020545484 -0.07818972
0.04063247 -0.041619644 0.060033552 -0.059510883 -0.023199538 0.0012196106 0.022762721 -0.03560582
0.05064077 0.034954935 -0.013444855 -0.035003223 0.05796441 -0.009320168 -0.03367776 -0.00512968
-0.028112408 -0.049239285 -0.014282333 -0.0229443 -0.07811696 0.05692663 0.054181054 0.029879248
-0.007590748 0.01694166 -0.0058994987 0.05391039 -0.028287603 0.021008832 0.00506083 0.033349738
-0.031289984 0.037417457 0.038239617 0.045301635 -0.0001798265 -0.035162415 0.026442457 0.02244807
-0.03235255 -0.025683876 0.03612358 -0.054900452 0.057768006 0.053184748 -0.01542703 0.041858457
0.038873684 0.010860264 0.011822936 0.03134648 0.052924898 0.05571295 -0.018727578 0.0012430325
0.004293899 -0.0008045905 -0.0356732 0.035156038 -0.053042438 0.031311173 -0.040602915 0.04511075
0.008876818 -0.017658075 0.077198796 0.00023618218 0.0060421806 -0.038845282 0.058691707 0.009668606
0.043642476 -0.056040354 0.02297684 -0.0048276098 0.033839464 -0.035577875 -0.02350521 -0.03500338
-0.032649685 -0.037927862 -0.0056697535 -0.052527815 -0.04218046 0.026816757 -0.015630227 -0.015939448
-0.030374644 -0.025934655 0.046757046 0.026523445 -0.007839003 -0.012267636 0.041870095 0.029882297
0.008214146 0.024460096 0.029194582 -0.050529774 -0.036877073 0.057738055 0.032572087 0.020316053
0.06425888 0.052857615 0.011668441 0.019804748 0.025507413 -0.04721166 0.052891307 0.03513809
-0.046599936 -0.019198304 0.0031660702 -0.03665788 0.05030034 0.014889473 0.050076123 -0.048002407
-0.055092383 -0.048505478 0.008036596 -0.03833585 0.05446737 0.053316835 0.05639553 -0.041044552
0.06366652 -0.03125528 0.0538129 0.02025841 -0.037372362 0.03410732 -0.01618312 0.035534184
0.067275524 0.078236245 -0.042114507 -0.014818277 0.041225087 -0.044488836 0.022649895 -0.01331768
-0.007885303 0.03034071 0.02327138 -0.043210108 0.046348948 0.020349635 -0.05142685 0.05067075
0.048585393 0.07963854 -0.045847468 -0.021134034 0.01174857 -0.052161954 -0.007972431 -0.032422416
0.007869794 0.036835205 -0.0385923 -0.029760815 -0.0033690745 -0.046417158 0.058831513 0.047813058
-0.0076711155 -0.033106726 0.051226173 0.013063296 -0.033265755 -0.026253877 0.031031197 0.04470103
0.043565504 -0.049117975 0.003201793 0.014034421 0.04790868 -0.02080189 0.03466632 0.020831158
-0.038088515 -0.016568452 -0.04031701 0.019735258 -0.028607022 0.060571775 0.018338509 0.045230694
-0.01734551 0.00745875 0.01377107 0.020758875 -0.025078855 -0.022643762 -0.018647958 0.06316697
-0.011871525 -0.00042515187 0.010313603 -0.03163455 0.04999633 0.018637164 -0.0083460715 0.042808928
-0.032161433 0.061555527 0.024322703 0.052139584 -0.01707449 0.014582694 -0.058736507 -0.030005664
00000000: 430d 1bbd 8ba3 cebc f274 fdbc b908 be3c
00000010: 25ec dabc 6adb 4d3d 240d 1fbd ca5d 6d3d
00000020: 89fc 9c3c a1f8 45bd bb0b 54bd 45db 7b3d
00000030: ab07 9d3c cff5 a83b 8f6c 883d 4558 033d
00000040: cae6 3d3d 444f 49bd d496 673c 55ce 0cbd
00000050: de1d d738 6534 283d 7cc8 4e3d 6128 853d
00000060: 329c 91bc 79de 63bd 9785 643d dda1 f73c
00000070: 9401 12bd d22e 7139 3c88 e13c 9aa4 f2bc
00000080: d28f 603d d2a0 acbb 4812 3cbd 6cfa 9d3b
00000090: dd93 8dbc 4c6f 353c 014f a83c ef21 a0bd
000000a0: 3c6e 263d 5c79 2abd bee5 753d afc1 73bd
000000b0: f50c bebc 57db 9f3a e378 ba3c 69d7 11bd
000000c0: b26c 4f3d e82c 0f3d cf47 5cbc 8a5f 0fbd
000000d0: 176c 6d3d 9eb3 18bc b1f1 09bd e016 a8bb
000000e0: fe4b e6bc 22af 49bd 7200 6abc aff5 bbbc
000000f0: c9fb 9fbd e62b 693d f4ec 5d3d 53c5 f43c
00000100: cfbb f8bb 3cc9 8a3c 9550 c1bb 24d1 5c3d
00000110: 67bb e7bc b71a ac3c 52d5 a53b bc99 083d
00000120: ed29 00bd 0c43 193d 25a1 1c3d 358e 393d
00000130: cf8f 3cb9 7706 10bd da9d d83c 04e5 b73c
00000140: 1c84 04bd fe66 d2bc 52f6 133d 4cdf 60bd
00000150: 259e 6c3d 40d8 593d a7c1 7cbc c673 2b3d
00000160: 033a 1f3d 40ef 313c fdb4 413c 2b65 003d
00000170: c7c7 583d 4333 643d 946a 99bc 40ed a23a
00000180: d6b3 8c3b 28eb 52ba 101e 12bd c7ff 0f3d
00000190: 0743 59bd 2540 003d 3e4f 26bd 0dc6 383d
000001a0: 1370 113c aba7 90bc 671a 9e3d aca7 7739
000001b0: 7cfd c53b 3b1c 1fbd b766 703d 1369 1e3c
000001c0: 74c2 323d 928a 65bd ed39 bc3c ed30 9ebb
000001d0: 409b 0a3d 1bba 11bd 008e c0bc b45f 0fbd
000001e0: adbb 05bd 3f5a 1bbd 57c9 b9bb 6827 57bd
000001f0: 6bc5 2cbd d1ae db3c f60a 80bc 7293 82bc
00000200: 3fd4 f8bc ea74 d4bc 5184 3f3d b247 d93c
00000210: 296f 00bc 32fe 48bc fa7f 2b3d b8cb f43c
00000220: a094 063c 8a60 c83c 7a29 ef3c 4ff8 4ebd
00000230: 6a0c 17bd bd7e 6c3d 4f6a 053d da6d a63c
00000240: 299a 833d 3a81 583d fd2c 3f3c 913d a23c
00000250: ecf4 d03c 0361 41bd 8ea4 583d f5ec 0f3d
00000260: 93df 3ebd c345 9dbc d87d 4f3b 9326 16bd
00000270: bb07 4e3d faf2 733c 9f1c 4d3d 2c9e 44bd
00000280: 8da8 61bd aead 46bd edab 033c 0d06 1dbd
00000290: 2d19 5f3d c162 5a3d 00ff 663d 551e 28bd
000002a0: 9863 823d 8905 00bd ea6a 5c3d f7f4 a53c
000002b0: c313 19bd 1eb4 0b3d 7692 84bc 4b8c 113d
000002c0: c0c7 893d 533a a03d 4380 2cbd 5cc8 72bc
000002d0: a3db 283d ed39 36bd 468c b93c 6632 5abc
000002e0: 5c31 01bc 158d f83c 9fa3 be3c 15fd 30bd
000002f0: 65d8 3d3d 47b4 a63c f6a4 52bd 228c 4f3d
00000300: 7a01 473d 8819 a33d 8eca 3bbd 4821 adbc
00000310: 137d 403c c6a7 55bd cd9e 02bc 5ecd 04bd
00000320: 4ff0 003c 83e0 163d f612 1ebd f4cc f3bc
00000330: b1cb 5cbb eb1f 3ebd 50f9 703d a0d7 433d
00000340: fb5d fbbb eb9a 07bd 89d2 513d 6f07 563c
00000350: ac41 08bd 5f12 d7bc 2335 fe3c 6d18 373d
00000360: be71 323d ee2f 49bd 2cd5 513b a1f0 653c
00000370: e43b 443d ba68 aabc 45fe 0d3d 1ba6 aa3c
00000380: b402 1cbd 90ba 87bc 7323 25bd d6ab a13c
00000390: 4659 eabc 1c1a 783d a43a 963c d243 393d
000003a0: 2c18 8ebc 8868 f43b 0ea0 613c 840e aa3c
000003b0: 2c72 cdbc 697f b9bc 9ac3 98bc af5d 813d
000003c0: c980 42bc ebe6 deb9 63fa 283c 3b93 01bd
000003d0: f4c8 4c3d f7ac 983c f6bd 08bc 6a58 2f3d
000003e0: b5bb 03bd a621 7c3d 6840 c73c 5190 553d
000003f0: cddf 8bbc 40ec 6e3c b195 70bd 70ce f5bc

model.4.weight f4 [66, 256]
-0.05589335 -0.0010084806 -0.0701485 0.0638256 0.029662564 -0.017878963 0.0028069038 -0.009917526
-0.038780943 0.036012795 0.025987327 0.00762687 -0.021599466 -0.07134831 -0.018150074 0.10054666
-0.008032311 0.003215845 0.022512436 0.0129280975 0.007884459 -0.023835003 -0.025004392 -0.0014855004
0.010893714 0.09104952 -0.04149528 0.016378084 -0.067371525 0.007041322 0.029047057 0.06569341
0.0031760468 -0.08957252 0.009098769 0.030188236 0.116594926 0.07917769 0.036756944 0.032170396
0.09263456 -0.011868781 -0.012469554 -0.067575194 0.0626508 -0.010769319 0.06645589 -0.06671307
-0.018649317 -0.043724626 -0.03296616 -0.06964996 0.09004381 0.06287669 0.005089068 0.09373203
-0.031778406 -0.042415865 -0.04317296 -0.062370494 0.027903292 0.035794728 -0.06315526 0.101590246
0.06853757 -0.03807889 0.05661585 -0.006935602 0.046624877 0.047841772 -0.004750989 0.061147753
0.06952794 -0.09570189 -0.044628777 0.009494192 0.06623813 0.018182872 0.056531597 -0.10689954
0.056938607 0.01970257 -0.039532743 -0.037214246 -0.066838555 -0.031057345 -0.038247574 -0.004445841
0.041859 0.07305188 0.02612161 -0.044928934 -0.020420026 0.07025134 0.0004700196 0.07681143
0.050793637 0.03945074 0.030183429 -0.007311157 -0.06820516 -0.0046583526 -0.049587253 -0.027658498
0.012354027 0.04424027 0.027282642 -0.11483999 0.11602788 -0.0612855 0.067584746 0.008043455
-0.017947715 -0.06632149 0.0025643788 -0.014301026 -0.0037053975 0.021034598 -0.07742128 0.02349849
-0.030113593 0.062232018 0.049450647 -0.06424772 -0.10901553 -0.10801002 -0.064232826 -0.058727037
-0.0101478575 0.008053223 0.037089426 0.009137493 -0.048003867 -0.12375188 -0.04829172 0.091979116
-0.07160251 -0.09241574 -0.0391871 0.0022200814 0.031842113 -0.04091976 -0.015229361 0.015377905
0.0476451 -0.036195002 0.0069029788 -0.04133406 -0.033139765 -0.07349883 0.056517504 -0.021791255
-0.040088538 -0.058382843 0.052973576 0.03307168 0.021930894 0.014572258 -0.049206104 -0.06634552
-0.0036758287 0.052414082 0.021665724 0.06250907 0.04028736 -0.0032205945 0.023976402 0.04019267
-0.029082574 0.00964977 -0.019306432 -0.027839482 -0.0027904639 0.012053189 0.02306104 -0.021041222
0.0763916 0.029241975 0.01051588 -0.10885508 0.043688778 0.0032857866 0.06106541 -0.0004967756
-0.009644032 -0.057055805 0.019386081 0.0012499172 -0.009396889 -0.07434815 0.036429822 -0.015663864
-0.014519221 -0.058722068 0.038824163 -0.049308144 -0.027055323 -0.06565083 0.0019320472 0.0073082275
0.017258484 0.04518057 0.0459798 -0.093532495 0.0064237304 0.04163952 -0.01679051 -0.035797935
-0.01497502 0.030568989 -0.01994575 0.06136211 0.044629633 0.030441714 0.03540109 0.07523203
-0.07233265 -0.008436878 0.044969205 0.0049064625 0.010717209 0.06805838 -0.038338136 0.07062198
0.119194984 0.039358616 0.025134847 0.0704359 -0.040818706 0.076654166 -0.0070363814 0.06753116
0.052257508 0.11589024 0.014970993 0.07876425 -0.10114323 -0.033183467 -0.0054024253 -0.06545239
-0.04313048 -0.088136524 0.10294907 0.016652513 -0.020463929 -0.013821299 0.058089256 -0.03625947
0.021081243 0.0038695901 -0.007686798 -0.006898612 -0.0849825 0.047388718 -0.012954087 -0.0045371535
00000000: 6df0 64bd fe2e 84ba 04aa 8fbd ffb6 823d
00000010: e8fe f23c e776 92bc 08f4 373b 1e7d 22bc
00000020: c4d8 1ebd 2782 133d 60e3 d43c d3ea f93b
00000030: 5df1 b0bc 101f 92bd 77af 94bc 68eb cd3d
00000040: f499 03bc edc0 523b 006c b83c 5fd0 533c
00000050: d12d 013c a041 c3bc 03d6 ccbc 1fb5 c2ba
00000060: 8c7b 323c 2c78 ba3d f4f6 29bd 552b 863c
00000070: 15fa 89bd e4ba e63b 18f4 ed3c 448a 863d
00000080: 3925 503b cc71 b7bd 0113 153c 524d f73c
00000090: 52c9 ee3d ea27 a23d 738e 163d 1bc5 033d
000000a0: 30b7 bd3d 4775 42bc 1a4d 4cbc dd64 8abd
000000b0: 104f 803d cc71 30bc 071a 883d dda0 88bd
000000c0: 74c6 98bc 9818 33bd 8607 07bd a3a4 8ebd
000000d0: e468 b83d 7ec5 803d 32c2 a63b 94f6 bf3d
000000e0: 132a 02bd 42bc 2dbd 21d6 30bd 3478 7fbd
000000f0: 7295 e43c 7e9d 123d 8c57 81bd 8c0e d03d
00000100: 6d5d 8c3d 9cf8 1bbd 06e6 673d 0c44 e3bb
00000110: baf9 3e3d bcf5 433d 2fae 9bbb 1176 7a3d
00000120: aa64 8e3d 5aff c3bd aacc 36bd 878d 1b3c
00000130: dba7 873d 3ff4 943c ad8d 673d 25ee dabd
00000140: 7538 693d 4967 a13c 16ed 21bd f76d 18bd
00000150: a7e2 88bd f96b febc 7da9 1cbd 6bae 91bb
00000160: 5874 2b3d 399c 953d fdfc d53c 6707 38bd
00000170: e647 a7bc efdf 8f3d f66c f639 504f 9d3d
00000180: fd0c 503d 1997 213d 3d43 f73c 6e92 efbb
00000190: 26af 8bbd 18a5 98bb 011c 4bbd 1394 e2bc
000001a0: 8b68 4a3c 4935 353d d97f df3c 3b31 ebbd
000001b0: 06a0 ed3d 8106 7bbd df69 8a3d b2c8 033c
000001c0: 1607 93bc 90d3 87bd 230f 283b da4e 6abc
000001d0: 41d6 72bb c050 ac3c 0c8f 9ebd e87f c03c
000001e0: c8b0 f6bc 00e7 7e3d c38c 4a3d 4f94 83bd
000001f0: 8943 dfbd 5b34 ddbd 808c 83bd c38b 70bd
00000200: 3343 26bc aaf1 033c 15eb 173d 6cb5 153c
00000210: b49f 44bd a071 fdbd 8acd 45bd 8c5f bc3d
00000220: 56a4 92bd 7744 bdbd a782 20bd c97e 113b
00000230: e06c 023d 7a9b 27bd 9284 79bc 9cf3 7b3c
00000240: 8227 433d 3641 14bd 6232 e23b e74d 29bd
00000250: 90bd 07bd 8e86 96bd e67e 673d 9383 b2bc
00000260: e133 24bd d922 6fbd d2fa 583d 2c76 073d
00000270: 6ba8 b33c 7bc0 6e3c 578c 49bd 29e0 87bd
00000280: 2ce6 70bb 26b0 563d 517c b13c c104 803d
00000290: 5c04 253d 9c10 53bb 296a c43c 12a1 243d
000002a0: 943e eebc 121a 1e3c 8628 9ebc a00f e4bc
000002b0: 37e0 36bb bd7a 453c 82ea bc3c a45e acbc
000002c0: 3373 9c3d de8c ef3c cc4a 2c3c 6aef debd
000002d0: 01f3 323d 5a56 573b b91f 7a3d 0c3a 02ba
000002e0: 0102 1ebc 59b3 69bd 8fcf 9e3c 43d4 a33a
000002f0: 69f5 19bc d843 98bd 7037 153d 8151 80bc
00000300: 07e2 6dbc 8d86 70bd 1606 1f3d 56f7 49bd
00000310: 20a3 ddbc f173 86bd bf3c fd3a db79 ef3b
00000320: aa61 8d3c 430f 393d 5155 3c3d f78d bfbd
00000330: 287e d23b 348e 2a3d 408c 89bc dba0 12bd
00000340: c959 75bc d16b fa3c 4565 a3bc d656 7b3d
00000350: 90cd 363d e760 f93c bc00 113d 4013 9a3d
00000360: 2423 94bd d53a 0abc a131 383d 64c6 a03b
00000370: 3c97 2f3c 3162 8b3d 7308 1dbd 42a2 903d
00000380: 801c f43d 8036 213d 98e7 cd3c b240 903d
00000390: 8431 27bd dcfc 9c3d 7291 e6bb c74d 8a3d
000003a0: f80b 563d dd57 ed3d e548 753c 274f a13d
000003b0: 2f24 cfbd 63eb 07bd d406 b1bb e70b 86bd
000003c0: 96a9 30bd ec80 b4bd f6d6 d23d da6a 883c
000003d0: f8a3 a7bc bb72 62bc 00ef 6d3d cf84 14bd
000003e0: 92b2 ac3c f398 7d3b 89e1 fbbb c00d e2bb
000003f0: 4e0b aebd ac1a 423d 613d 54bc 67ac 94bb

model.4.bias f4 [66]
0.028049551 0.05087938 0.07733354 0.06989769 0.0623053 -0.008936076 -0.008505232 0.044692926
0.026386416 0.050068438 -0.042118087 0.0143357385 -0.027716454 -0.053530596 0.03444669 0.0065418393
-0.04750298 -0.053940378 0.004135694 0.02941281 0.0629469 -0.030916497 -0.011336666 0.034641653
-0.023577044 0.029306892 0.06380898 0.038788643 0.05185283 -0.029056795 -0.049841147 0.04419481
0.031068688 0.01907524 0.009723588 0.22880824 -0.06852691 -0.049900312 0.04521683 -0.04263275
-0.050391372 -0.0012481292 0.040771954 -0.006365533 0.0076489607 -0.019025743 -0.042394545 0.027481385
-0.023471342 0.013225803 -0.007066075 0.03477861 0.0020361948 -0.040983133 -0.027050244 0.09306575
-0.053448044 0.004238016 -0.008984935 -0.024068462 -0.032032546 0.025227807 -0.03161399 0.047686394
-0.04732882 0.04174111
00000000: 2cc8 e53c e666 503d 0c61 9e3d 8526 8f3d
00000010: d833 7f3d 9f68 12bc 8759 0bbc ee0f 373d
00000020: 5328 d83c 9014 4d3d 0484 2cbd 72e0 6a3c
00000030: 9e0d e3bc e642 5bbd f917 0d3d ed5c d63b
00000040: 7c92 42bd 96f0 5cbd b784 873b 22f3 f03c
00000050: 4eea 803d 9844 fdbc 6cbd 39bc 68e4 0d3d
00000060: a524 c1bc 0215 f03c 48ae 823d d7e0 1e3d
00000070: a263 543d 8408 eebc 3b26 4cbd 9e05 353d
00000080: c383 fe3c ad43 9c3c af4f 1f3c b54c 6a3e
00000090: d657 8cbd 4564 4cbd 4835 393d ae9f 2ebd
000000a0: 2f67 4ebd 4498 a3ba 7e00 273d f695 d0bb
000000b0: 22a4 fa3b e0db 9bbc e7a5 2dbd a420 e13c
000000c0: f946 c0bc 0ab1 583c 898a e7bb 0474 0e3d
000000d0: ae71 053b eedd 27bd 7998 ddbc 4299 be3d
000000e0: 56ec 5abd 0edf 8a3b 8c35 13bc 392b c5bc
000000f0: 8f34 03bd 8caa ce3c ac7d 01bd cf52 433d
00000100: dddb 41bd baf8 2a3d
